encoding_test_v13/models/cnn_models/QP22_32x32.pt (torch, 209632 bytes, 27 tensors)

weight f4 [16, 1, 3, 3]
0	0xbf4433b6	-0.76641405
1	0xbef4326b	-0.47694716
2	0xbea0c2e8	-0.31398702
3	0xbf45e339	-0.7729984
4	0xbedece02	-0.43516546
5	0x3ecfabc5	0.40560737
6	0x3e04784c	0.12936515
7	0x3f62469d	0.88389
8	0x3fa8586e	1.3151987
9	0x3f9e1e0f	1.2352923
10	0xbf975077	-1.1821431
11	0xbd573186	-0.052537464
12	0x3e9a5c4f	0.3014855
13	0xbfa1ea14	-1.264956
14	0xbd3be3c1	-0.0458715
15	0xbe4cd3a4	-0.2000261
16	0x3f793f06	0.9736179
17	0x3e40435b	0.18775694
18	0x3f8797ec	1.0593238
19	0xbf59a007	-0.8500981
20	0xbe75d966	-0.24008712
21	0xbf76d24b	-0.9641463
22	0xbeb79ed8	-0.35863376
23	0x3f96d72b	1.1784414
24	0x3ef030bd	0.46912184
25	0xbf50a8c0	-0.8150749
26	0x3f07e76d	0.530875
27	0x3f4c67b6	0.7984575
28	0x3eee8186	0.46583194
29	0x3ccf4cbd	0.025305146
30	0x3f0cb655	0.54965717
31	0xbf11ebc4	-0.57000375
32	0xbf8ca238	-1.0987005
33	0x3f51b8c8	0.8192258
34	0x3d8e6022	0.0695193
35	0xbf8732e2	-1.0562403
36	0x3eae0b91	0.339932
37	0xbf19c551	-0.60066706
38	0xbf87b10e	-1.0600908
39	0x3eb96050	0.36206293
40	0xbe8accd5	-0.271094
41	0xbef56333	-0.47927245
42	0x3fc7a5c8	1.5597467
43	0x3d3c5bc9	0.04598597
44	0x3dd8a842	0.10578968
45	0x3f79a571	0.9751807
46	0x3f780d08	0.96894884
47	0x3f66406e	0.8994206
48	0xbf0111c7	-0.5041775
49	0xbd857d7d	-0.065180756
50	0xbebaedd8	-0.36509585
51	0xbf3dc2d8	-0.7412543
52	0xbf3a1632	-0.7269012
53	0xbee89e60	-0.4543333
54	0xbfa0e3fc	-1.2569575
55	0x3f82fce5	1.0233427
56	0x3e4b4d45	0.19853695
57	0xbc621061	-0.01379785
58	0x3dad63e4	0.08466318
59	0xbd27793c	-0.040887102
60	0x3f9b5b2b	1.2137197
61	0xbf857622	-1.0426676
62	0xbe40a015	-0.18811066
63	0xbf8beac5	-1.0931021
64	0x3edb2995	0.42805162
65	0x3e9c432a	0.30519992
66	0x3fb6e18c	1.4287581
67	0x3e1a48e2	0.15066865
68	0xbf59f35e	-0.85136974
69	0xbf86c58c	-1.0529037
70	0x3ecb1433	0.39663848
71	0x3e6d8f97	0.23199306
72	0x3df18868	0.117935956
73	0xbf6cca1a	-0.9249588
74	0xbe507990	-0.20358872
75	0x3fd7013d	1.6797253
76	0x3db1075d	0.086439826
77	0x3e6dfc7d	0.23240848
78	0x3de34442	0.110970035
79	0xbf93d740	-1.1550064
80	0xbb8a1020	-0.004213348
81	0xbf4d0470	-0.80084896
82	0x3d64afcf	0.055831727
83	0x3f859f01	1.0439149
84	0xbf70af8a	-0.9401785
85	0xbce693ed	-0.028146708
86	0x3f3f0f16	0.74632394
87	0xbf59f89f	-0.8514499
88	0x3c944b45	0.018102298
89	0x3f449ac9	0.76798683
90	0x3fdea562	1.7394221
91	0x3dab1c2b	0.08354982
92	0x3e6599bb	0.22421925
93	0x3e518601	0.20461275
94	0x3d385d43	0.045010816
95	0xbf121b0a	-0.5707251
96	0xbe926eff	-0.28600308
97	0xbf21288b	-0.6295249
98	0xbf4e4ac0	-0.8058281
99	0x3fa70a97	1.3050107
100	0x3ea7f359	0.32802847
101	0x3f63b555	0.88948566
102	0xbfa98af8	-1.3245535
103	0xbde4d899	-0.11174125
104	0xbf2bc1b1	-0.67092425
105	0xbe288c49	-0.16459765
106	0xbf1a4bf1	-0.6027213
107	0x3e8a8611	0.2705541
108	0xbe953ef9	-0.29149607
109	0xbf5b62e2	-0.8569776
110	0x3f9c0190	1.2187977
111	0x3e5f8cd8	0.21831071
112	0xbf891d62	-1.0712092
113	0x3f9c5e80	1.2216339
114	0xbbbd1412	-0.005770215
115	0xbf46b596	-0.7762083
116	0x3ea26996	0.3172118
117	0xbec72bfe	-0.3890075
118	0x3ee56efc	0.44811237
119	0xbed25670	-0.41081572
120	0x3e6d63fd	0.23182674
121	0x3cf550b4	0.029945709
122	0x3f6d6a93	0.92740744
123	0xc0510a71	-3.2662623
124	0xbfc2f4dd	-1.5230976
125	0xbf0b4d30	-0.54414654
126	0x3e960b15	0.2930533
127	0xbf8f56e7	-1.1198395
128	0xbf09ffc9	-0.5390592
129	0xbf12546e	-0.5716008
130	0x3ea5c006	0.32373065
131	0xbee23850	-0.44183588
132	0xbdb8b1d7	-0.09018295
133	0x3f4fec94	0.81220365
134	0x3fb0d147	1.3813866
135	0xbf2eded8	-0.6830878
136	0xbf2b9be6	-0.6703476
137	0xbefa47e2	-0.48882967
138	0xbebb545b	-0.36587796
139	0xbdad3e17	-0.08459108
140	0xbf0ca6c3	-0.5494196
141	0x3f723b25	0.946215
142	0x3f8d5d56	1.1044109
143	0x3f4b8168	0.79494333

weight f4 [16]
0	0x3fa14dc3	1.2601856
1	0x3fde6274	1.7373796
2	0x3ff9187e	1.94606
3	0x3fbe444a	1.486459
4	0x3f83a9db	1.0286211
5	0x3fcb9f42	1.5907977
6	0x3f80472c	1.002172
7	0x3fa17cc5	1.2616202
8	0x3fbf9910	1.4968586
9	0x400f68b5	2.2407658
10	0x3f29a29f	0.66263765
11	0x3fce56c5	1.612023
12	0x3fec973c	1.8483653
13	0x3f0f1098	0.55884695
14	0x3f88c40a	1.0684826
15	0x3ff2953a	1.895179

bias f4 [16]
0	0x3dae29b6	0.085040495
1	0xbf5ddba3	-0.86663264
2	0x3f9242af	1.14266
3	0x3e9bd1d0	0.30433512
4	0x3dc9df9a	0.09857102
5	0x3eb5e915	0.3552939
6	0xbe2d7662	-0.1693969
7	0xbee4243b	-0.44558892
8	0x3f9b49e4	1.2131925
9	0x3ef4d985	0.47822204
10	0x3d474dbb	0.048658114
11	0xbf4fb734	-0.8113892
12	0xbf48d601	-0.78451544
13	0xbf211ea4	-0.6293738
14	0xbefbcae1	-0.49178222
15	0x3f057758	0.5213523

running_mean f4 [16]
0	0xbcb35177	-0.021889431
1	0xbd438826	-0.047737263
2	0xbcb72e36	-0.022360902
3	0xbc54fb18	-0.012999319
4	0xbc683f67	-0.014175273
5	0xbc5e12cf	-0.013554289
6	0xbbeb58b3	-0.0071822046
7	0x38148374	3.5408375e-05
8	0xbcb29f4c	-0.021804474
9	0x3b1dbec3	0.0024070002
10	0xbc01ece7	-0.007930017
11	0xbd726fd3	-0.059188675
12	0xbd1a27c2	-0.037635572
13	0xbfd414c7	-1.6568841
14	0x3c1c5e9e	0.009544043
15	0xbbe13bed	-0.006873599

running_var f4 [16]
0	0x3dc9a5b3	0.09846058
1	0x3cdcc6ff	0.026950357
2	0x3cba901b	0.022773793
3	0x3db4e3eb	0.088325344
4	0x3dc22ba7	0.09480982
5	0x3dce84a7	0.10083895
6	0x3be02b1b	0.006841076
7	0x3c2f7c58	0.010710798
8	0x3d3e0a8d	0.04639678
9	0x3dd80159	0.10547132
10	0x3dbdb586	0.092631385
11	0x3d744dd4	0.059644535
12	0x3d7be5cf	0.06149846
13	0x3f9ce473	1.2257217
14	0x3d73c351	0.05951244
15	0x3dc7a598	0.097483814

weight f4 [32, 16, 3, 3]
0	0xbe7a5290	-0.24445558
1	0xbef5d219	-0.48011854
2	0xbec58000	-0.3857422
3	0xbf069de6	-0.52584684
4	0xbf220162	-0.6328336
5	0xbf8337a4	-1.0251355
6	0x3ee2cad7	0.4429538
7	0xbf51cc6d	-0.81952554
8	0xbfad442b	-1.3536428
9	0xbfa3e779	-1.2805015
10	0xbf112226	-0.5669273
11	0xbf2e5ee2	-0.6811353
12	0xc0047fdb	-2.0703037
13	0xbfe06783	-1.7531589
14	0xbf39e22f	-0.72610754
15	0xc01f81da	-2.4923005
16	0xc022953d	-2.5403588
17	0xbf1214e2	-0.57063115
18	0xbf8847c9	-1.0646907
19	0x3e5978d9	0.21237506
20	0x3d0af14a	0.033921517
21	0xbe8f85bc	-0.2803172
22	0x3e70ef8f	0.23528884
23	0x3e8a2852	0.26983887
24	0x3c1174ad	0.008877915
25	0x3e27eac1	0.16398145
26	0x3cad177c	0.021129362
27	0x3f03d0a6	0.5149025
28	0xbfa7397d	-1.3064419
29	0xbf560fb1	-0.83617693
30	0x4009712c	2.1475325
31	0x3edc0723	0.42974195
32	0x3e9bd420	0.30435276
33	0xbb13b451	-0.0022537897
34	0xbed33c0f	-0.4125676
35	0x3ea496a7	0.3214619
36	0x3e139310	0.14411569
37	0x3b48ac85	0.0030620408
38	0x3f11186f	0.5667791
39	0x3f4729ef	0.7779836
40	0xbc6d20a4	-0.014473114
41	0x3d956ca6	0.07296114
42	0x3f63057e	0.88680255
43	0x3f12265c	0.5708978
44	0x3ed955ce	0.42448276
45	0xbfab0c56	-1.336314
46	0xc012e38d	-2.2951386
47	0xc042ee26	-3.0457854
48	0x3f0fe7b1	0.5621291
49	0xbf358db6	-0.7091936
50	0xbd8f2016	-0.06988542
51	0x3f1644c7	0.58698696
52	0xbe525530	-0.20540309
53	0x3ee1aecc	0.44078672
54	0xbf1a7752	-0.6033832
55	0x3ec63268	0.38710332
56	0x3eb53e63	0.3539916
57	0xbf936516	-1.1515224
58	0xbef47fb3	-0.47753677
59	0xbeb5651d	-0.35428706
60	0xbf681874	-0.9066231
61	0xbf3d93d7	-0.7405371
62	0xbf7ca634	-0.98691106
63	0x3e34c23d	0.17652221
64	0xbf8bcaa3	-1.0921215
65	0xbf7afda3	-0.9804327
66	0x3eef9c5e	0.46798986
67	0xbf43b1c6	-0.76443136
68	0xbee38d27	-0.44443628
69	0x3e5a50eb	0.2131993
70	0xbf8c2fd5	-1.0952097
71	0xbcb4bc36	-0.022062402
72	0x3d25d53c	0.04048656
73	0xbeed3e2d	-0.463365
74	0x3e5d8fb2	0.21636847
75	0x3d19e636	0.037573062
76	0xbf50c505	-0.8155063
77	0xbdd5f73b	-0.10447546
78	0x3eb9ba1c	0.36274803
79	0x3d29ab8d	0.04142337
80	0x3ed8c57d	0.42338172
81	0xbe461f52	-0.19347885
82	0xc013e09c	-2.310584
83	0xc06aa580	-3.6663513
84	0xbd9053d3	-0.07047238
85	0xbf8a2c77	-1.079482
86	0xbf9f08dd	-1.242458
87	0x3ec2bfb9	0.38036898
88	0xbf8e7997	-1.1130856
89	0xbeb4da69	-0.35322884
90	0x3f5e2d3d	0.8678778
91	0xbcdb5c49	-0.026777403
92	0xbfa49fbf	-1.2861251
93	0x3f1fa4c1	0.6236077
94	0xbf6ead05	-0.93232757
95	0xbf0ffa68	-0.56241465
96	0x3ee06f4b	0.4383491
97	0xbeaecb39	-0.34139422
98	0xbe9b555e	-0.30338567
99	0x3f654459	0.89557415
100	0x3e8c2a29	0.27375916
101	0x3eff1acf	0.4982514
102	0x3e4700ef	0.1943395
103	0xbef79a2f	-0.4835982
104	0xbdd88512	-0.10572256
105	0xbed735b2	-0.42033154
106	0xbe0f50aa	-0.13995615
107	0xbf1107ee	-0.56652725
108	0xbf3e8e08	-0.7443547
109	0xbf28fa1e	-0.6600665
110	0xbe766bf4	-0.24064618
111	0xbe5d97cc	-0.21639937
112	0xbe9c4326	-0.3051998
113	0xbdd77b98	-0.105216205
114	0xbf0bdeb8	-0.54636717
115	0xbf3b9840	-0.7327919
116	0xbf82ae26	-1.0209396
117	0x3f0d2652	0.551366
118	0x3f3cc97f	0.7374496
119	0x3f81d7ea	1.0144017
120	0x3f037c24	0.513613
121	0x3f397dc9	0.7245756
122	0x3faad046	1.334481
123	0x3d71b62d	0.059011627
124	0x3dbf33f0	0.09336078
125	0x3eef0fd7	0.46691772
126	0xbed1287e	-0.40851206
127	0xbf483cfe	-0.78218067
128	0xbf23922e	-0.6389493
129	0xbf2287db	-0.6348855
130	0xbf846bd6	-1.0345409
131	0xbf6a809b	-0.91602486
132	0xbf0413d6	-0.5159277
133	0xbfbd30ea	-1.4780552
134	0xbf9bab47	-1.2161645
135	0x3dbe94ba	0.09305711
136	0x3e62b89e	0.22140738
137	0x3f845f67	1.0341614
138	0x3e79e585	0.24403961
139	0x3edd5999	0.4323242
140	0x3f3ae25e	0.7300166
141	0xbeb3acdd	-0.35092822
142	0x3f15cd63	0.5851652
143	0x3f2f0c58	0.6837821
144	0x3edf4580	0.43607712
145	0xbf26fb14	-0.65226865
146	0x3f0852de	0.53251445
147	0xbe1c634a	-0.15272251
148	0xbe396ddb	-0.18108313
149	0xbf89591e	-1.0730321
150	0x3fab4812	1.3381369
151	0xbe1b7cec	-0.15184373
152	0xc0256376	-2.5841956
153	0xbe38ad98	-0.18034971
154	0xbe969cbb	-0.2941645
155	0xbfacc340	-1.3497086
156	0xbefbfadc	-0.49214828
157	0x3d21ba06	0.039484046
158	0x3df8cc3c	0.121483296
159	0xbf8a7565	-1.0817076
160	0x3cedada0	0.029013455
161	0x3f622723	0.8834097
162	0x3f7b0c36	0.9806551
163	0x3f5b3b9b	0.85637826
164	0x3e256f20	0.16155672
165	0xbf1a8db9	-0.603725
166	0x3e54efee	0.20794651
167	0x3ce81899	0.028332042
168	0xbeaaa016	-0.3332526
169	0xbd9484af	-0.0725187
170	0xbfc15739	-1.5104743
171	0xc020d261	-2.5128405
172	0xbf3ae7b3	-0.73009795
173	0xbf75fb97	-0.9608702
174	0xbe90e555	-0.28299966
175	0x3e0eaf0d	0.13933964
176	0x3e5ae836	0.21377644
177	0x3f81691e	1.0110204
178	0x3f824cc5	1.0179678
179	0x3fc863da	1.5655472
180	0x3f20833c	0.6270025
181	0xbdae6b82	-0.08516599
182	0xbf9f4231	-1.2442075
183	0x3ed2aafd	0.4114608
184	0x3de4fa29	0.11180527
185	0xbebfd362	-0.3746596
186	0xbea3894d	-0.3194069
187	0xbcf03f11	-0.029326947
188	0x3f487b57	0.783132
189	0xbff5be1f	-1.9198645
190	0xbd93ee67	-0.07223206
191	0x3e31e964	0.17374188
192	0xbf3f29a7	-0.7467293
193	0x3eb117bd	0.34588423
194	0x3f21183c	0.62927604
195	0xbf0464c0	-0.5171623
196	0x3bbf5d15	0.0058399537
197	0x3f816112	1.0107749
198	0xbf2da0f8	-0.67823744
199	0x3e3391cf	0.1753609
200	0xbe9f33ee	-0.31094307
201	0xbd86cf72	-0.06582536
202	0xbf8799ab	-1.0593771
203	0xbf0fdbbf	-0.5619468
204	0x3ea09d24	0.3136989
205	0x3f2000d3	0.6250126
206	0xbd8be557	-0.068308525
207	0xbf87b1c6	-1.0601127
208	0xbea570ad	-0.32312527
209	0xbea1d25d	-0.31605807
210	0xbe945236	-0.28968972
211	0x3e450577	0.19240366
212	0x3cbc595d	0.02299183
213	0xbeff43ce	-0.49856418
214	0xbd20f31e	-0.039294355
215	0xbf9a25f6	-1.2042835
216	0xbf6c3783	-0.92272204
217	0xbebaf436	-0.36514443
218	0xbe0de9a9	-0.13858666
219	0xbda1571c	-0.07877943
220	0x3bd02a2a	0.0063526826
221	0x3de341a4	0.11096504
222	0x3e991cba	0.2990473
223	0x3e7024f1	0.23451592
224	0x3eb3cda9	0.35117844
225	0x3f8fbb95	1.122912
226	0x3fac3a34	1.3455262
227	0x3e8490ba	0.25891668
228	0x3e8b78b6	0.27240533
229	0x3f28a4dc	0.65876555
230	0x3e1abd37	0.15111242
231	0xbf869fcf	-1.051752
232	0xbfd29d9a	-1.6454346
233	0xbfa11e4c	-1.2587371
234	0xbfead48a	-1.8346112
235	0xbf5985ac	-0.8496959
236	0x3ed27a1d	0.4110879
237	0xbe655932	-0.22397307
238	0xbe3643e4	-0.17799336
239	0x3dfe4c52	0.12416901
240	0x3f2e98db	0.6820199
241	0x3eb5f9d8	0.35542178
242	0xbeb72a26	-0.35774344
243	0x3fbf08bd	1.4924542
244	0x3f329583	0.69759387
245	0x3f0327af	0.5123243
246	0xbf620448	-0.8828778
247	0xbef13e19	-0.4711769
248	0xbee40427	-0.44534418
249	0xbfde186e	-1.7351205
250	0xbe3d7733	-0.18502502
251	0x3e09eca1	0.13469173
252	0xbddfd585	-0.109293975
253	0xbf41d6bf	-0.757183
254	0xbf12918d	-0.5725334
255	0x3e64c49c	0.22340626

weight f4 [32]
0	0x3f4f29cf	0.8092317
1	0x3f2c221d	0.6723955
2	0x3f60db24	0.8783438
3	0x3f42a70d	0.7603615
4	0x3f337f72	0.7011634
5	0x3f35f755	0.71080524
6	0x3f207958	0.62685156
7	0x3f2e3bf0	0.6806021
8	0x3f57d9f8	0.8431697
9	0x3f813f5d	1.0097462
10	0x3f5b3e17	0.85641617
11	0x3f3a95c2	0.7288476
12	0x3f472a16	0.77798593
13	0x3f10d374	0.5657265
14	0x3f6edcd6	0.9330572
15	0x3f5aade8	0.8542161
16	0x3f4b7ead	0.79490167
17	0x3f20ad27	0.6276421
18	0x3f96b1af	1.1772975
19	0x3f7ad076	0.97974336
20	0x3f0b787d	0.54480726
21	0x3f607183	0.87673205
22	0x3f8f548b	1.1197675
23	0x3f2aa850	0.66663074
24	0x3f67002f	0.90234655
25	0x3ee217a3	0.44158658
26	0x3f2ceeeb	0.6755206
27	0x3f1444f2	0.579177
28	0x3f46d3e7	0.7766709
29	0x3f93a4ff	1.1534728
30	0x3eb199c2	0.3468762
31	0x3e53f4b2	0.20698813

bias f4 [32]
0	0xbe96a1f3	-0.29420432
1	0xbe241cf5	-0.16026671
2	0xbe91f0de	-0.2850408
3	0xbe32c205	-0.17456825
4	0xbe6d1449	-0.2315227
5	0xbe6d624f	-0.23182033
6	0x3cb50fc2	0.02210224
7	0xbe4175df	-0.1889262
8	0xbe8f2e05	-0.27964798
9	0xbef09d85	-0.46995178
10	0xbeceb16c	-0.40369737
11	0xbe87a062	-0.2648955
12	0xbe38b1f5	-0.18036635
13	0xbe375dd8	-0.17906892
14	0xbe7618c2	-0.24032882
15	0xbe8f47a2	-0.2798434
16	0xbe31bab0	-0.17356372
17	0xbd9c7496	-0.076394245
18	0xbec146cd	-0.3774933
19	0xbd265595	-0.04060896
20	0x3ddb1255	0.10696856
21	0xbef509ff	-0.4785919
22	0xbec9f319	-0.3944328
23	0xbe21b181	-0.15790369
24	0xbeb7e55b	-0.35917172
25	0x3cbe7024	0.023246832
26	0xbe29b99a	-0.16574708
27	0xbdb80322	-0.089849725
28	0xbe814356	-0.25246686
29	0xbe97b9df	-0.29633996
30	0x3ec98809	0.393616
31	0x3f6c60b5	0.92335063

running_mean f4 [32]
0	0xc1439c3e	-12.225645
1	0xc081039d	-4.031691
2	0xc181bcc9	-16.21718
3	0xc0aa2934	-5.3175297
4	0xc019f1d8	-2.405386
5	0xc0b68773	-5.7040343
6	0xbf0fa74f	-0.5611467
7	0xc04c75f7	-3.1947
8	0xc086ab1b	-4.208387
9	0xc073bfe2	-3.8085866
10	0xc0e444f2	-7.133416
11	0xc08d7380	-4.420349
12	0xc1191fd6	-9.570272
13	0xc059de7c	-3.4042044
14	0xc04cfa9e	-3.2027965
15	0xc176727c	-15.40295
16	0xc0b1627a	-5.543271
17	0xc0370de9	-2.860224
18	0xc160dceb	-14.053935
19	0xc19a04f3	-19.252417
20	0xc05ad809	-3.4194357
21	0xc10a2456	-8.633871
22	0xc0654859	-3.5825408
23	0xc13b6e0f	-11.71437
24	0xc1953fdc	-18.656181
25	0x40b01c6a	5.5034685
26	0xc0ae5e05	-5.448977
27	0xc075787a	-3.8354783
28	0xc0d505d8	-6.6569633
29	0xc11f800a	-9.96876
30	0xc172447f	-15.141723
31	0xc0fdd9f2	-7.9328547

running_var f4 [32]
0	0x4365c113	229.7542
1	0x42706228	60.095856
2	0x438e703b	284.8768
3	0x4305eac2	133.91702
4	0x42450118	49.25107
5	0x42e01c9b	112.05587
6	0x4206a3da	33.66001
7	0x4264a64e	57.162407
8	0x42d278b8	105.23578
9	0x4287b3a9	67.8509
10	0x42af41a2	87.62819
11	0x42accb49	86.39704
12	0x43091f77	137.12291
13	0x4265bea5	57.436176
14	0x42e3cc8e	113.89952
15	0x43275121	167.31691
16	0x4325401f	165.25047
17	0x425b65c6	54.84939
18	0x4373f3d2	243.95242
19	0x43e90041	466.00198
20	0x4298ecc3	76.462425
21	0x42da1f2b	109.060875
22	0x42fabdf2	125.37099
23	0x4307b632	135.7117
24	0x432e85ec	174.52313
25	0x4283f82e	65.984726
26	0x42f342ae	121.63023
27	0x421537ed	37.304615
28	0x43288594	168.52179
29	0x4387bcfc	271.47644
30	0x43192f2d	153.18428
31	0x43738674	243.5252

weight f4 [32, 32, 3, 3]
0	0xbd8a26b6	-0.06745665
1	0xbdb280d7	-0.087159805
2	0xbdd3c07c	-0.10339448
3	0x3e03863d	0.12844177
4	0x3ec5c208	0.38624597
5	0x3f69bfe3	0.9130842
6	0xbf215e35	-0.63034374
7	0xbf24b847	-0.64343685
8	0x3d8bfc6c	0.06835255
9	0xbeb390b7	-0.35071346
10	0xbebcaa11	-0.368485
11	0xbf3b3196	-0.7312254
12	0xbdd5234f	-0.10407125
13	0xbf1fa962	-0.6236783
14	0xbf58c915	-0.84681827
15	0x3fc1acb7	1.5130833
16	0x3e9c6ada	0.3055027
17	0x3fd5bf63	1.6699032
18	0xbed459e6	-0.41474837
19	0x3e97e650	0.29667902
20	0x3e96fc6c	0.29489458
21	0xbe813671	-0.25236848
22	0xb9018194	-0.0001235067
23	0xbe398965	-0.18118818
24	0x3ea69571	0.3253589
25	0xbed3ae2a	-0.41343814
26	0xbece098c	-0.4024166
27	0xbf7977eb	-0.97448605
28	0xbf22aa25	-0.6354087
29	0xbef7b9e5	-0.48384014
30	0xbe6b9563	-0.23006205
31	0xbf4b5f32	-0.7944213
32	0xbe7b2c1e	-0.24528548
33	0x3fbe29d5	1.4856516
34	0x3f890768	1.0705385
35	0x3fe8fb1d	1.8201634
36	0xbfa9b8c4	-1.3259511
37	0xbf45bdb5	-0.77242595
38	0xbee4ace8	-0.44663167
39	0x3f1fc4df	0.62409776
40	0x3edc9cb6	0.4308831
41	0x3ee72e76	0.45152634
42	0x3f1a4dfc	0.60275245
43	0x3ef1b911	0.47211507
44	0x3f4ac7d0	0.7921114
45	0xbf2210f1	-0.633071
46	0xbf1e816b	-0.61916226
47	0xbf9d1a24	-1.2273602
48	0x3e695e2f	0.22789834
49	0xbe3fb826	-0.18722591
50	0xbeb91840	-0.36151314
51	0x3fbfb795	1.49779
52	0x3ecc4161	0.3989363
53	0x3f883b61	1.0643121
54	0xbf9a2de6	-1.2045257
55	0xbe56e16d	-0.2098443
56	0xbf4975af	-0.78695196
57	0xbe3b4521	-0.1828809
58	0x3eb289a6	0.34870642
59	0xbe4f4192	-0.20239857
60	0x3f220423	0.6328756
61	0x3f8571ab	1.0425314
62	0xbe03af5e	-0.12859866
63	0xbf371200	-0.7151184
64	0xbea376fe	-0.3192672
65	0xbc894229	-0.01675518
66	0x3f220322	0.6328603
67	0x3f1a49eb	0.6026904
68	0x3e37658e	0.17909834
69	0xbedff282	-0.43739706
70	0xbf3c2cc3	-0.735058
71	0xbe4c36e5	-0.19942816
72	0xbe34b7c1	-0.17648222
73	0xbdc3f8f5	-0.09568969
74	0xbe6f2ec8	-0.2335769
75	0x3de5dbbf	0.11223554
76	0xbe275090	-0.16339326
77	0xbdc9e31e	-0.09857772
78	0x3f0814a5	0.531565
79	0xbd4e42dd	-0.050356735
80	0x3f604871	0.87610537
81	0xbf646f73	-0.8923256
82	0x3e741bfb	0.23838799
83	0xbdc61398	-0.09671706
84	0xbf4032ff	-0.75077814
85	0x3d8967bd	0.0670924
86	0xbf283286	-0.6570209
87	0x3fb79fa2	1.4345591
88	0x3f547c9a	0.83002627
89	0x3eb5d697	0.35515282
90	0xbf4186bb	-0.7559621
91	0xbec7a8e1	-0.38996032
92	0xbd9a8e7e	-0.075467095
93	0xbe6787d8	-0.22610414
94	0x3f2dd697	0.67905563
95	0xbea892d1	-0.32924512
96	0x3ee3af37	0.44469616
97	0x3f10fee5	0.5663894
98	0x3e9ae585	0.30253235
99	0xbf95a1d9	-1.1690017
100	0xbea46102	-0.3210526
101	0xbf76a2b4	-0.96342015
102	0x3ee5bf28	0.44872403
103	0xbe877f6b	-0.264644
104	0xbddb378c	-0.10703954
105	0x3f98cd84	1.1937718
106	0x3f7fb568	0.9988618
107	0x3f8dca88	1.1077433
108	0xbef997fe	-0.48748773
109	0x3e9247fa	0.2857054
110	0xbe3c225b	-0.1837248
111	0xbf71deb2	-0.9448043
112	0xbec581df	-0.38575646
113	0xbe6babb8	-0.23014724
114	0x3ed0ebd2	0.40804917
115	0x3f39bd76	0.7255472
116	0x3f0590f5	0.5217431
117	0xbeb89b13	-0.36055812
118	0x3d969982	0.07353498
119	0x3e352392	0.1768935
120	0xbf5733fc	-0.84063697
121	0xbd64c3e6	-0.055850886
122	0xbe4bc695	-0.19899972
123	0x3d09ac01	0.0336113
124	0x3e2774c6	0.1635314
125	0x3d991e56	0.07476489
126	0xbda46705	-0.08027462
127	0x3e0e4721	0.13894321
128	0xbf238360	-0.6387234
129	0x3db57145	0.08859495
130	0x3e80f045	0.2518331
131	0x3e6cc6bd	0.23122688
132	0xbd2bc556	-0.04193624
133	0xbeb9f77a	-0.36321622
134	0x3f38ebb1	0.72234637
135	0xbfee464c	-1.8615203
136	0xbfa39478	-1.2779684
137	0xbfaca133	-1.3486694
138	0xbf393806	-0.7235111
139	0xbe8fbfbe	-0.28075975
140	0xbe8fe97a	-0.28107816
141	0x3f787e33	0.97067565
142	0x3fbf45f1	1.494322
143	0x3fc1ce0a	1.5141003
144	0xbe4fe173	-0.20300846
145	0x3e840a63	0.25789174
146	0xbd75ea9d	-0.060038198
147	0xbe95a1ad	-0.2922491
148	0xbeb3823a	-0.35060292
149	0xbf244a17	-0.6417555
150	0x3f1666a5	0.58750373
151	0x3d4aa04f	0.04946929
152	0xbdfd3a56	-0.12364642
153	0xbeb718bd	-0.3576106
154	0xbebe3ff5	-0.3715817
155	0xbfccc3d4	-1.5997262
156	0xbdd3ad5e	-0.103358015
157	0xbf371504	-0.7151644
158	0xbe8ecc12	-0.27890068
159	0x3f8314fe	1.0240781
160	0x3e975ec9	0.29564503
161	0x3feae433	1.8350891
162	0x3ff334b3	1.9000458
163	0x3ff36bea	1.9017308
164	0x3f8799f1	1.0593854
165	0x3f52a19c	0.82277846
166	0x3e42c951	0.19022109
167	0xbe953bda	-0.29147226
168	0xbd401c69	-0.046902094
169	0xbf9ae90e	-1.2102373
170	0xbfa67437	-1.3004216
171	0x3f6407ca	0.89074385
172	0x3f936c8c	1.1517501
173	0x3edbbb48	0.42916322
174	0xbf02e2e8	-0.5112748
175	0xbf0c4792	-0.5479671
176	0xbf1c4301	-0.6103974
177	0xbf2cb060	-0.67456627
178	0xbde6148d	-0.112343885
179	0xbe464dbe	-0.19365594
180	0xbf095ed2	-0.5366031
181	0xbed4659a	-0.41483766
182	0xbf96ae05	-1.1771857
183	0xbe01056e	-0.12599728
184	0xbf0bbbe9	-0.54583603
185	0xbf37357a	-0.71565974
186	0x3f86d9b6	1.053519
187	0x3f9da7f1	1.2316877
188	0x3ed24d8a	0.41074783
189	0x3b98539f	0.0046486403
190	0xbe1d1942	-0.15341666
191	0xbfa92a0c	-1.3215957
192	0x3ea5a1fb	0.32350144
193	0xbee16ab3	-0.44026718
194	0xbf3742fb	-0.7158658
195	0x3fa2eccf	1.2728518
196	0x3f9c9eaa	1.223592
197	0x4011182e	2.2671008
198	0xbfb0dad3	-1.381678
199	0xbfa58785	-1.2931982
200	0xbfc964a5	-1.5733839
201	0xbe11a2c0	-0.1422224
202	0x3d8309d6	0.063983604
203	0xbe88de98	-0.26732326
204	0x3f65743f	0.896305
205	0x3f3cc3ce	0.73736274
206	0x3f8c994d	1.0984284
207	0xbfb04c50	-1.3773289
208	0xbf5976f7	-0.8494715
209	0xbfb376d2	-1.4020636
210	0xbe893b73	-0.2680317
211	0x3eab6948	0.3347876
212	0xbf09f54d	-0.53889924
213	0x3fe47f66	1.7851379
214	0x3ffee7e8	1.9914522
215	0x3f5a906c	0.8537662
216	0x3f760296	0.96097696
217	0x3fa2414a	1.2676175
218	0x3f5c2e19	0.8600784
219	0xbf4dfc13	-0.8046276
220	0x3ea20dc4	0.31651127
221	0x3d95231d	0.07282088
222	0xbfc9c538	-1.5763311
223	0xbeb2d08d	-0.34924737
224	0xbf6d91ed	-0.9280079
225	0xbf8db51f	-1.1070899
226	0xbf32e6f4	-0.69883657
227	0xbf2e4a51	-0.6808215
228	0xbee1e642	-0.44120985
229	0xbe3927a5	-0.1808153
230	0xbf24736f	-0.6423864
231	0x3f36d4ee	0.71418655
232	0x3ef88590	0.485394
233	0x3e0cd34a	0.13752475
234	0xbf9aa327	-1.208104
235	0xbf28233c	-0.65678763
236	0xbf8425ba	-1.0324013
237	0xbea86583	-0.32889947
238	0x3b403bf4	0.002933261
239	0xbecc8862	-0.39947802
240	0x3f7d2849	0.98889595
241	0x3f5ee35e	0.87065685
242	0x3fbebbfb	1.4901117
243	0x3f681efa	0.90672266
244	0xbe4911f3	-0.19635753
245	0xbf6bf386	-0.9216846
246	0x3f0b13f5	0.54327327
247	0xbe736f85	-0.2377301
248	0xbe035391	-0.12824847
249	0x3f88aa2e	1.0676935
250	0x3e430f6b	0.1904885
251	0x3ff6a801	1.9270021
252	0xbc69bb9f	-0.014265924
253	0xbec5b4ed	-0.38614598
254	0xbf0e291d	-0.55531484
255	0x3ea02345	0.3127691

weight f4 [32]
0	0x3fb5b706	1.4196479
1	0x3fc2ff6d	1.52342
2	0x3fc71aad	1.5555016
3	0x3fd0107e	1.6255033
4	0x3fcccf58	1.6000776
5	0x3f8a613f	1.0810927
6	0x3ff11509	1.8834544
7	0x3fd9bb7e	1.7010343
8	0x40022d84	2.034028
9	0x3fd525c5	1.6652151
10	0x3f87c6cf	1.0607547
11	0x3fb211c4	1.3911672
12	0x3ff53365	1.9156309
13	0x3f2541d6	0.6455358
14	0x3fbe7d35	1.488196
15	0x3fc2ee3e	1.5228956
16	0x3f8642fd	1.0489193
17	0x3fc9bd60	1.5760918
18	0x3f538d47	0.8263745
19	0x3fc8df5a	1.5693161
20	0x3fda68e3	1.7063259
21	0x3f8ca2d3	1.098719
22	0x3fac8002	1.3476565
23	0x3fca63af	1.5811671
24	0x3fa61a38	1.2976751
25	0x3f9cf56d	1.2262398
26	0x3f6c6110	0.92335606
27	0x3f2ad468	0.66730356
28	0x3fe1a13f	1.7627333
29	0x3f7ca425	0.98687965
30	0x3f896718	1.0734587
31	0x3fc3f705	1.5309759

bias f4 [32]
0	0xbe49bc05	-0.1970063
1	0xbf0f43f6	-0.55963075
2	0xbf745376	-0.9543985
3	0xbf5a241b	-0.8521134
4	0xbe776859	-0.24160899
5	0xbde9ff22	-0.11425616
6	0xbf6a6d00	-0.9157257
7	0xbf6527f4	-0.8951409
8	0xbf73972b	-0.9515254
9	0xbf8167ca	-1.0109799
10	0xbf10a7c2	-0.5650598
11	0x3c6f6f06	0.014613872
12	0xbfc182c6	-1.5118034
13	0xbe89a9b6	-0.26887292
14	0x3eb5149e	0.35367292
15	0xbe34bcad	-0.17650099
16	0xbee7bdba	-0.45261937
17	0xbf5097b5	-0.81481487
18	0xbe983539	-0.29728106
19	0x3e976d30	0.2957549
20	0xbec86c16	-0.39144963
21	0xbeebe214	-0.4607092
22	0xbe81270d	-0.25225106
23	0xbe8225ba	-0.25419408
24	0xbeb9c26b	-0.36281142
25	0xbefa2ed9	-0.48863867
26	0xbeabbc67	-0.33542177
27	0xbe9c9ff4	-0.30590785
28	0xbf6f08a4	-0.9337256
29	0xbf21c9dc	-0.6319864
30	0xbf09adc5	-0.53780776
31	0xbf4cf0aa	-0.80054724

running_mean f4 [32]
0	0x4091a9aa	4.551961
1	0xc061e4ff	-3.5296018
2	0xbf9ab063	-1.2085079
3	0xc084a7f8	-4.145504
4	0xbfaeaaee	-1.3645914
5	0xbefe92b9	-0.49721316
6	0xc040234c	-3.0021544
7	0x3e9b60cb	0.30347285
8	0xbfcdee1c	-1.608829
9	0x40484005	3.1289074
10	0x3fc410ca	1.5317624
11	0xbf29a9f2	-0.6627494
12	0x3fe1b087	1.7631997
13	0x40477493	3.1164901
14	0xc0859337	-4.1742206
15	0xc11581cb	-9.344188
16	0xc0bf7fd7	-5.9843554
17	0xc13e8db3	-11.909595
18	0x409443f4	4.633295
19	0xbffc51f9	-1.9712516
20	0xbe54c6fa	-0.20779029
21	0xc0ee5459	-7.4477963
22	0x3f71a290	0.94388676
23	0xc0923e4a	-4.5701036
24	0x3fddaa71	1.731764
25	0x3ffaea94	1.9602838
26	0x3df0b578	0.117533624
27	0x411d1169	9.816751
28	0xc03695c8	-2.852892
29	0xc15d5bd5	-13.83492
30	0x40037afc	2.0543814
31	0xc0154a8d	-2.3326752

running_var f4 [32]
0	0x41ce89b8	25.817245
1	0x427d3364	63.300186
2	0x420e45a7	35.56802
3	0x42875de3	67.68337
4	0x424a7440	50.613525
5	0x424f7c9a	51.87168
6	0x42101394	36.01912
7	0x42320864	44.508194
8	0x42177268	37.861725
9	0x42067a1a	33.61924
10	0x41f59e5e	30.702328
11	0x425b167b	54.771954
12	0x42087540	34.114502
13	0x426f0a07	59.759792
14	0x4288bcb3	68.36855
15	0x4250b48b	52.17631
16	0x420190c6	32.39138
17	0x42bbbf22	93.87331
18	0x42138c76	36.88717
19	0x4263075d	56.75719
20	0x422a8d73	42.638134
21	0x41c38c33	24.443457
22	0x41b9ada4	23.209785
23	0x4271e97f	60.478024
24	0x425c388a	55.055214
25	0x4280ecf9	64.46284
26	0x425537e8	53.304596
27	0x425320cc	52.78203
28	0x4231bee3	44.436413
29	0x42b68e4a	91.27791
30	0x420e7a86	35.61965
31	0x4291fbf4	72.992096

weight f4 [32, 32, 3, 3]
0	0x3f4325f6	0.762298
1	0xbe490ef6	-0.19634613
2	0x3f85fe56	1.0468242
3	0x3e3fb50d	0.18721409
4	0xbecaa2af	-0.39577243
5	0x3f1007d6	0.56261957
6	0xbda615ed	-0.08109651
7	0xbf494678	-0.7862315
8	0x3ced5148	0.028969422
9	0xc019e521	-2.40461
10	0xbfcba460	-1.5909538
11	0xbf8083dc	-1.004024
12	0xbfa1380a	-1.2595227
13	0xbf2d4b32	-0.67692864
14	0xbdcef3d7	-0.101051025
15	0xbf33dad7	-0.702558
16	0xbeaea36e	-0.34109062
17	0x3d5a3f72	0.053283162
18	0xbfe737c7	-1.8063897
19	0xbf4db643	-0.80356234
20	0xbfffd0fa	-1.998565
21	0xbfa6a02e	-1.3017633
22	0x3ca4bad5	0.02010862
23	0xbfbd42e7	-1.4786042
24	0xc0002266	-2.0020995
25	0xbe7cf3ef	-0.24702428
26	0xc0188585	-2.3831494
27	0xbf81186b	-1.0085577
28	0x3ce7da4b	0.028302332
29	0x3d0735f7	0.03301045
30	0xbfb8085e	-1.4377553
31	0xbf23e3d9	-0.6401954
32	0xbe9f27a3	-0.31084928
33	0xbf3495b0	-0.70540905
34	0xbea73878	-0.3266027
35	0x3d71c375	0.059024293
36	0x3f0db09b	0.55347604
37	0x3daef3c9	0.08542592
38	0x3f2e4101	0.6806794
39	0xbd6a08e6	-0.057137392
40	0xbef6aa2e	-0.48176712
41	0xbd6127db	-0.05496965
42	0x3ebc0d7b	0.36729035
43	0xbf00155d	-0.500326
44	0x3f34709c	0.7048433
45	0x3e186b24	0.14884621
46	0xbe636703	-0.22207265
47	0xbe65a9fc	-0.22428125
48	0x3ee5dc3c	0.44894588
49	0xbe9cea5a	-0.30647546
50	0xbdefdd06	-0.11712079
51	0x3e902fa6	0.28161353
52	0xbeaeb3a4	-0.3412143
53	0xbe524d50	-0.20537305
54	0xbd9a69c8	-0.075397074
55	0xbf1804f0	-0.59382534
56	0x3f2d0a26	0.6759361
57	0x3cf95bac	0.03043922
58	0xbe7b9932	-0.24570158
59	0x3f3ba374	0.73296285
60	0xbf00a17f	-0.50246423
61	0xbdf21aa0	-0.118214846
62	0x3f2b7fd1	0.6699191
63	0x3ef6f07c	0.4823035
64	0x3f2ed9a8	0.6830087
65	0x3dc3bea1	0.09557844
66	0xbcb68a3a	-0.022282708
67	0x3efc3e25	0.49266163
68	0xbc142a6b	-0.009043316
69	0xbe8454e8	-0.25846028
70	0x3f50df5d	0.81590825
71	0x3f10c9d8	0.5655799
72	0x3eceb65e	0.4037351
73	0xbdfd86ab	-0.123792015
74	0xbd9ba371	-0.07599533
75	0x3f77399e	0.9657229
76	0x3eba934d	0.36440507
77	0x3f032b77	0.512382
78	0x3f76055b	0.9610192
79	0x3f045b69	0.5170198
80	0x3f3e41cf	0.74319166
81	0xbf81a948	-1.0129786
82	0xbebd0f71	-0.36925843
83	0xbf570c71	-0.8400336
84	0xbf8ce7e7	-1.1008271
85	0xbf85292e	-1.0403192
86	0xbff438c0	-1.9079819
87	0xbf119f90	-0.568841
88	0xbf0cec4a	-0.5504805
89	0xbfb6c41b	-1.4278597
90	0xc06361a3	-3.5528343
91	0xbe82f4ee	-0.25577492
92	0xbfd7340f	-1.6812762
93	0xc01f2e70	-2.4872093
94	0x3e5e4734	0.2170685
95	0xbf51e661	-0.81992155
96	0xc033eb63	-2.8112419
97	0xc00b973e	-2.181106
98	0xbfdc96c9	-1.7233516
99	0x3e134f32	0.1438568
100	0x3f308dfe	0.6896666
101	0xbe085d23	-0.13316779
102	0xbdf579b1	-0.119861014
103	0x3f33e0c7	0.7026486
104	0xbeb1c2db	-0.34718975
105	0xbfd950fb	-1.6977838
106	0xbecd1c3f	-0.40060613
107	0xc01d018e	-2.45322
108	0xbe2961c5	-0.16541202
109	0x3f043e52	0.51657593
110	0x3ea77ac1	0.3271084
111	0xbee43a3c	-0.4457568
112	0x3e920555	0.28519693
113	0x3e8e153d	0.2775058
114	0xbe0b538d	-0.13606091
115	0x3efcc3e6	0.4936821
116	0x3eb46550	0.35233545
117	0xc06bdcb3	-3.6853454
118	0xbfd9ab3d	-1.7005383
119	0xc06961a1	-3.6465838
120	0xc01183b5	-2.2736638
121	0xbe424142	-0.18970206
122	0xc02039c9	-2.503527
123	0xc027d3c4	-2.6223001
124	0xbf15bebe	-0.58494174
125	0xc03c0895	-2.9380238
126	0xbf02b300	-0.5105438
127	0xbf71d4b1	-0.94465166
128	0xbd2ff2ae	-0.042956047
129	0xbe28253f	-0.16420458
130	0xbf0b363d	-0.54379636
131	0x3da44604	0.08021167
132	0xbd42c32e	-0.04754942
133	0x3e229880	0.15878487
134	0x3ee5151c	0.44742668
135	0x3f5b054c	0.8555496
136	0xbdf3734c	-0.118872255
137	0xbbc0b4c6	-0.005880925
138	0x3e6bfd41	0.23045827
139	0xbe9ca993	-0.30598125
140	0xbe44a661	-0.19204094
141	0x3e292776	0.1651896
142	0xbf07094c	-0.5274856
143	0xbe9c0c2e	-0.30478042
144	0xbef8ba8d	-0.48579827
145	0xbdba87f4	-0.09107962
146	0xbf72d188	-0.9485097
147	0x3e0d8e2f	0.1382377
148	0x3c46466f	0.012101754
149	0xbeb3cfb9	-0.35119417
150	0x3eea4704	0.45757306
151	0xbf1f24ae	-0.62165344
152	0xbd43751e	-0.047719114
153	0xbd301148	-0.04298523
154	0xbe995f84	-0.29955685
155	0xbedba3cd	-0.42898408
156	0xbf6dbe50	-0.9286852
157	0xbf2a8e0c	-0.66622996
158	0xbf96e294	-1.1787896
159	0xbf7f13ab	-0.99639386
160	0xbf74b594	-0.95589566
161	0xbfc693ef	-1.5513896
162	0xc007c41f	-2.1213453
163	0xbf2ff33e	-0.68730533
164	0xc059529a	-3.3956666
165	0xbfc6cebe	-1.5531843
166	0xbdb23d6a	-0.0870312
167	0xbfe56083	-1.7920078
168	0xc0005743	-2.005326
169	0xbefb7af3	-0.4911724
170	0xc003a22d	-2.0567734
171	0x3d6307fd	0.05542754
172	0xbed98642	-0.42485243
173	0xbf1ef15f	-0.62087053
174	0xbe8268d9	-0.25470617
175	0xbe9c1e0a	-0.30491668
176	0x3ea09b29	0.31368378
177	0xbd439872	-0.047752805
178	0xbdf33c8f	-0.11876785
179	0x3f49b79d	0.78795797
180	0x3f5bd71e	0.8587512
181	0xbdff8dbf	-0.12478208
182	0x3f6963b2	0.9116775
183	0x3f4cffc4	0.8007777
184	0xbdb0300a	-0.08602913
185	0x3f00337d	0.50078565
186	0x3f0ed477	0.55792946
187	0xbe0d9cea	-0.13829389
188	0x3f438a9b	0.7638337
189	0xbf403e11	-0.75094706
190	0x3ef44082	0.47705466
191	0x3df2513a	0.11831899
192	0xbf87296f	-1.055952
193	0x3eea34d7	0.4574344
194	0x3e38dfc7	0.18054114
195	0xbed5a7ad	-0.4172949
196	0x3ee402b2	0.44533306
197	0x3ebf0a87	0.3731272
198	0xbf15f371	-0.5857459
199	0x3e88d589	0.26725414
200	0xbe91b11c	-0.28455436
201	0xbf3d8a94	-0.7403958
202	0x3e1faeb2	0.15593985
203	0x3d6a9fff	0.05728149
204	0x3eed20bf	0.46314046
205	0x3f594ee0	0.8488598
206	0x3f1dddc7	0.6166653
207	0x3f40bece	0.75291145
208	0x3f0d9e02	0.55319226
209	0x3f54b7db	0.8309304
210	0x3e115b26	0.14194927
211	0x3dccba09	0.09996421
212	0x3e83a18b	0.25709185
213	0xbf1556ce	-0.5833558
214	0xbecfffb4	-0.40624774
215	0xbf682cb5	-0.9069322
216	0xc002b568	-2.0423222
217	0xbfc00cba	-1.5003884
218	0xbfcf2399	-1.6182739
219	0xbf9ec3cc	-1.2403502
220	0xbf6a524a	-0.91531813
221	0xbf801a76	-1.0008075
222	0xbf165e1a	-0.5873734
223	0xbe929a0b	-0.2863315
224	0x3cdec457	0.027193232
225	0xbefd1656	-0.49431103
226	0xbde79558	-0.11307782
227	0xbf3809c6	-0.71889913
228	0x3da66f16	0.08126657
229	0x3cd0dca5	0.025495837
230	0xbdf01a6f	-0.11723792
231	0xbe817b64	-0.25289452
232	0xbe867388	-0.26260018
233	0xbe960c85	-0.29306427
234	0xbdaac225	-0.083378114
235	0xbf1553ef	-0.583312
236	0xbf29d1e5	-0.663359
237	0x3f0531d6	0.5202917
238	0x3d8bc19e	0.06824039
239	0xbe59126e	-0.21198437
240	0x3f27e844	0.65588784
241	0x3d0bfd6d	0.034177233
242	0xbe4519e9	-0.19248165
243	0xc083a412	-4.113778
244	0xbfb32cd4	-1.3998055
245	0xc03aeac2	-2.9205785
246	0xc08df39f	-4.435989
247	0xbf0d1ecc	-0.5512512
248	0xbff76195	-1.9326655
249	0xc0946f56	-4.638591
250	0xbf2e96e0	-0.68198967
251	0xbff9dd02	-1.9520571
252	0xbd9794ba	-0.07401414
253	0x3e55b5f6	0.20870194
254	0x3f827228	1.0191088
255	0xbd4ce8b7	-0.05002662

weight f4 [32]
0	0x3fefb975	1.8728472
1	0x4010c97b	2.2622974
2	0x406f5a96	3.739904
3	0x3fd7146f	1.6803111
4	0x3ff740b8	1.9316626
5	0x401a48e0	2.410698
6	0x40498c6b	3.1491954
7	0x400ffef9	2.2499373
8	0x4050ba50	3.2613716
9	0x3fcb2b10	1.5872517
10	0x4064423d	3.5665429
11	0x404ef7a3	3.2338645
12	0x4015aa29	2.3385108
13	0x3fd63c3c	1.6737132
14	0x405947b8	3.3950024
15	0x3ffe3881	1.9860994
16	0x404d597e	3.2085872
17	0x3fe72ef1	1.80612
18	0x4016d3bf	2.356674
19	0x4024a839	2.5727675
20	0x3ff7b0a1	1.9350778
21	0x40316110	2.7715492
22	0x402e11e4	2.719842
23	0x40204aaa	2.5045571
24	0x3fb00e75	1.3754412
25	0x3fe6ab50	1.802103
26	0x4036aadd	2.8541787
27	0x4033a3fb	2.8068836
28	0x4036eb3b	2.8581073
29	0x400a567d	2.1615288
30	0x3fd51b78	1.6649008
31	0x3fe30fd0	1.77392

bias f4 [32]
0	0xbf438e5e	-0.7638911
1	0xbfcef501	-1.6168519
2	0xbfe98343	-1.8243183
3	0x3b52cea9	0.0032166636
4	0xbe83832d	-0.25686017
5	0xbebea129	-0.3723233
6	0xbfa36913	-1.2766441
7	0x3e5ddace	0.21665499
8	0xbf5e70b1	-0.86890703
9	0xbda4f6cf	-0.080548875
10	0xc0042a4d	-2.0650818
11	0xbfa9eb19	-1.3274871
12	0xbeb29bda	-0.3488453
13	0x3e143be4	0.14475971
14	0xbfe1631b	-1.760837
15	0xbe40cc78	-0.18827999
16	0x3e8efec3	0.27928743
17	0xbf0852da	-0.5325142
18	0xc0070dff	-2.1102293
19	0xbfa33705	-1.2751166
20	0xbf33d26d	-0.7024296
21	0xbf849b27	-1.0359849
22	0xbfa716a6	-1.3053787
23	0x3e90f4e9	0.28311852
24	0xbec1e47b	-0.3786963
25	0xbf4471d9	-0.7673622
26	0xbf42accd	-0.76044923
27	0xbde7d1a3	-0.11319282
28	0xbf35ff3e	-0.71092594
29	0xbedc01a6	-0.42970008
30	0xbf9573c1	-1.167595
31	0xbea3132a	-0.3185056

running_mean f4 [32]
0	0xc169e74c	-14.618969
1	0xc068014a	-3.6250787
2	0xc06aa5c2	-3.666367
3	0xc1567ef5	-13.405995
4	0x3fe52aa6	1.790364
5	0xc08174c9	-4.045506
6	0xc05df0f6	-3.467832
7	0xc0ee3c81	-7.4448857
8	0xc121e4a5	-10.118321
9	0xc1084a84	-8.518192
10	0xc0cf473f	-6.477447
11	0xc1174b44	-9.455875
12	0xc08160c3	-4.0430617
13	0xc11646dd	-9.392301
14	0xc0c7621e	-6.230727
15	0xc1816796	-16.17558
16	0xbf25ca24	-0.6476157
17	0xc03fb164	-2.995202
18	0x4036e9a4	2.8580103
19	0xc04a058c	-3.1565886
20	0xc0f8e74b	-7.778234
21	0xc1cdcffd	-25.726557
22	0xc075450b	-3.832339
23	0x404a5e00	3.1619873
24	0xc1041eff	-8.257567
25	0x3ff42138	1.9072638
26	0xbf9002c8	-1.1250849
27	0xc1851a53	-16.637854
28	0xbfc4956c	-1.53581
29	0xc13d2888	-11.822395
30	0xc13fbe35	-11.983937
31	0xc11f20eb	-9.945537

running_var f4 [32]
0	0x42a13a8e	80.614365
1	0x41bb1c10	23.388702
2	0x42534b64	52.823624
3	0x42bfbfec	95.87485
4	0x42c827c1	100.077644
5	0x426a3892	58.555244
6	0x4229ca30	42.44745
7	0x42b5b336	90.85002
8	0x43025134	130.3172
9	0x42b98910	92.7677
10	0x42879fe5	67.812294
11	0x42df7539	111.72895
12	0x42a6e91e	83.45531
13	0x42ab55d4	85.66763
14	0x42a11167	80.53399
15	0x42dccb25	110.39677
16	0x42eb5b52	117.67836
17	0x422c66ac	43.100266
18	0x42678e04	57.888687
19	0x41f2e9c2	30.36414
20	0x4287cc4f	67.89904
21	0x437f4e06	255.30478
22	0x4212b0dc	36.672714
23	0x42bcf4e4	94.4783
24	0x42998bbf	76.77294
25	0x430007ec	128.03094
26	0x42a88f49	84.279854
27	0x4346b96e	198.72433
28	0x42486641	50.099857
29	0x42bd92ad	94.786476
30	0x42b3ddec	89.93344
31	0x4309fd44	137.98932

weight f4 [64, 32, 3, 3]
0	0x3f8b3860	1.0876579
1	0x3f3118e6	0.69178617
2	0x3f2ccd79	0.67501026
3	0x3f5e2ba5	0.86785346
4	0x3eee9d04	0.46604168
5	0x3f0554ae	0.52082336
6	0x3f90fc5c	1.1327014
7	0x3f3b659c	0.7320192
8	0x3f76a477	0.96344703
9	0xbfb55af3	-1.416838
10	0x3ec36a2e	0.38166946
11	0xbfc37bc2	-1.5272143
12	0xbf3dc8c4	-0.7413447
13	0x3f8fc0d8	1.1230726
14	0x3c5cbcfb	0.013472791
15	0xbfcf9f49	-1.6220485
16	0x3dfdf48f	0.124001615
17	0xbfc48a99	-1.5354797
18	0x3eb1ec93	0.34750804
19	0x3f1c0488	0.60944414
20	0xbe336630	-0.1751945
21	0xbdb66e5f	-0.0890777
22	0xbe70b38d	-0.23505993
23	0xbf803f57	-1.001933
24	0x3ef4bbc1	0.47799495
25	0x3e881b20	0.26583195
26	0xbf1bca84	-0.6085589
27	0xc00420b3	-2.0644958
28	0xbf7c345f	-0.9851741
29	0xbff76e6e	-1.9330575
30	0xbf69f8de	-0.91395366
31	0x3da32013	0.07965102
32	0xbf55bd64	-0.8349211
33	0xbf4f6bac	-0.8102367
34	0x3d567952	0.052361794
35	0xbe847789	-0.25872448
36	0x3eb51a8f	0.35371825
37	0x3f0d9436	0.55304277
38	0x3f5f715b	0.8728234
39	0x3ef206e8	0.47270894
40	0x3e8e5063	0.27795705
41	0x3f0d3262	0.55155003
42	0x3e3ccb32	0.18436888
43	0xbd4a44ab	-0.049381893
44	0x3ca4d68f	0.02012184
45	0x3bbb710e	0.0057202643
46	0xbe116719	-0.14199485
47	0xbdd4c942	-0.103899494
48	0xbdb9ef6a	-0.09078868
49	0x3d9e1699	0.07719154
50	0xbdb6a862	-0.08918835
51	0x3e7a1fd9	0.24426211
52	0x3ddb7bb2	0.107169524
53	0xbd9d5fdf	-0.076843016
54	0x3f06022e	0.52347076
55	0x3d8577ae	0.06516968
56	0x3e81b91c	0.2533654
57	0x3f8c7a3a	1.09748
58	0x3dc3b608	0.09556204
59	0x3ed3491c	0.41266716
60	0x3ff60d46	1.9222801
61	0x3ea50429	0.32229736
62	0x3e97bae8	0.29634786
63	0x3f933bf6	1.1502674
64	0x3fd5dd5e	1.6708181
65	0x3fb6b760	1.4274712
66	0xbd6cca8b	-0.057810348
67	0x3f26d1c6	0.6516384
68	0xbe1da863	-0.15396266
69	0xbe87c468	-0.26517034
70	0x3f8acfe5	1.0844694
71	0xbf03a4f2	-0.5142356
72	0xbda2d03e	-0.07949875
73	0xbf8e3dad	-1.1112572
74	0xbe7fe8f4	-0.24991208
75	0x3f49e55b	0.78865594
76	0xbe6187a6	-0.22024402
77	0x3f03f014	0.51538205
78	0x3e02a999	0.12760009
79	0xbf1044e1	-0.563551
80	0x3e0d12d1	0.13776709
81	0x3e7bfc45	0.24607952
82	0xbde7dfde	-0.11321996
83	0xbf10867c	-0.56455207
84	0xbf8fcec8	-1.123498
85	0xbf9c8cd8	-1.2230482
86	0xbfb40039	-1.4062568
87	0xc00e237b	-2.2209156
88	0xbff6ffe4	-1.9296842
89	0xc001041f	-2.0158765
90	0x3d85e924	0.06538609
91	0x3e1c2449	0.15248217
92	0x3f063843	0.524296
93	0xbf1e7d21	-0.6190968
94	0xbf639a2d	-0.8890713
95	0x3e2865b4	0.16445047
96	0x3cfb5454	0.03067986
97	0xbec38adb	-0.38191876
98	0x3f1cfacc	0.61320186
99	0xbdbecfbb	-0.09316965
100	0x3d72a6b5	0.059241015
101	0x3ebaa004	0.36450207
102	0xbf3c929a	-0.73661196
103	0xbf52f20c	-0.82400584
104	0xbf086e18	-0.5329299
105	0x3e893cbf	0.26804158
106	0xbe7f8e04	-0.24956518
107	0xbe75be78	-0.2399844
108	0x3f5cd06e	0.8625554
109	0x3eb0b5a5	0.34513584
110	0xbdfc08f6	-0.12306397
111	0x3e6960c5	0.22790821
112	0xbddccdc5	-0.10781435
113	0xbec00040	-0.3750019
114	0x3eec9282	0.46205527
115	0x3f1e69f2	0.6188041
116	0x3f6c7939	0.9237247
117	0xbf3db83b	-0.7410924
118	0xbf450eed	-0.769759
119	0xbfb4ac4c	-1.4115081
120	0xbf1e997a	-0.61952937
121	0xbec865cc	-0.39140165
122	0xbe72efb2	-0.23724249
123	0x3dc90ea9	0.09817249
124	0xbe39b882	-0.1813679
125	0x3e079b5d	0.1324286
126	0xbf8cba88	-1.0994425
127	0xbef5a801	-0.4797974
128	0xbf7f9a1c	-0.9984453
129	0xbf2b2eea	-0.6686846
130	0xbeb42c63	-0.35190114
131	0x3cca600d	0.024704004
132	0xbf0f611b	-0.56007546
133	0xbe09c53a	-0.13454142
134	0x3e8f812e	0.28028244
135	0xbeafac3f	-0.343111
136	0x3eaf15ba	0.34196264
137	0xbf7d4870	-0.98938656
138	0x3f540d40	0.8283272
139	0x3fb2a395	1.3956171
140	0x3f0a45c3	0.540127
141	0x3f3a16ba	0.7269093
142	0x3fc6f7fc	1.5544429
143	0x3ecc4162	0.39893633
144	0x3ca97ad1	0.020688446
145	0xbd97e047	-0.074158244
146	0xbe9f73a6	-0.3114292
147	0x3c6e3139	0.014538103
148	0x3d85d540	0.06534815
149	0xbd7a87c5	-0.061164636
150	0x3ed2e536	0.411905
151	0x3d806e15	0.062709965
152	0xbe9d682d	-0.30743542
153	0x3e69dbcd	0.22837754
154	0x3f061f6b	0.5239169
155	0x3f171a0b	0.59024113
156	0xbf38ab41	-0.7213631
157	0xbeeb9e9c	-0.46019447
158	0xbf116417	-0.5679335
159	0x3e387365	0.1801277
160	0x3e168ee3	0.14702944
161	0x3ad731e6	0.0016418069
162	0x3f8092c2	1.0044787
163	0x3e982b6d	0.2972063
164	0x3f3db1ed	0.7409962
165	0x3e90887b	0.28229126
166	0xbe76763d	-0.24068542
167	0x3ecde57f	0.40214154
168	0x3f94c38d	1.1622177
169	0x3f02a810	0.51037693
170	0x3f7ff7e3	0.9998762
171	0x3f481376	0.78154695
172	0x3f2994b0	0.66242504
173	0x3f243fbf	0.6415977
174	0xbf834e3d	-1.0258251
175	0xbe84c851	-0.2593408
176	0xbf32a176	-0.6977762
177	0x3d88651c	0.0665991
178	0x3f03d1f8	0.5149226
179	0x3f205d46	0.62642324
180	0x3fc46032	1.5341856
181	0x3d693faf	0.0569455
182	0x3fbcf7e7	1.4763154
183	0x3e448d0b	0.19194429
184	0xbfaebea3	-1.3651928
185	0x3f79b88a	0.9754721
186	0x3e4aac4f	0.19792293
187	0xbeb58681	-0.3545418
188	0x3fc32cc0	1.5248032
189	0xc0207f92	-2.5077863
190	0xbf04e6e3	-0.51914805
191	0xc04debc4	-3.217515
192	0xbfb01af4	-1.3758225
193	0x3f020af6	0.50797975
194	0xbfbad2cd	-1.4595581
195	0xc0720a97	-3.7818964
196	0xbf40e8df	-0.75355333
197	0xc05bfb48	-3.437212
198	0x3faf90a8	1.371602
199	0x3f2e00fd	0.6797026
200	0x3e8269ab	0.25471243
201	0xbf88ad95	-1.0677973
202	0xbfda5c85	-1.7059485
203	0xc0045adb	-2.0680454
204	0x3ee43d28	0.4457791
205	0xbf016bc4	-0.5055506
206	0xbf2dfb72	-0.679618
207	0x3c9f7853	0.019466555
208	0x3e987ce5	0.29782787
209	0x3f380849	0.7188764
210	0xbe8a183f	-0.26971623
211	0xbd533630	-0.05156535
212	0xbd3666a6	-0.044531487
213	0x3e9bedef	0.30454966
214	0x3f0345a7	0.51278156
215	0x3dab5877	0.08366483
216	0xbf0078cb	-0.50184315
217	0xbeb231b9	-0.3480356
218	0x3f36e1f1	0.7143851
219	0xbeeda62d	-0.46415845
220	0xbeb79c09	-0.35861233
221	0x3f1038fb	0.56336945
222	0x3e957c21	0.29196265
223	0x3e9b39cb	0.3031753
224	0x3f3a2dc2	0.7272607
225	0x3e465beb	0.19371001
226	0xbebf31a2	-0.37342554
227	0xbdb081b6	-0.086184904
228	0xbea94b3f	-0.3306522
229	0xbf6a04d7	-0.91413635
230	0xbf023d87	-0.50875133
231	0xbf406051	-0.7514697
232	0xbfc36d96	-1.5267818
233	0xbf7b833c	-0.9824712
234	0xbf0cf9d0	-0.55068684
235	0xbfc7f05b	-1.5620226
236	0xbea21eb3	-0.31664047
237	0x3ed943f6	0.42434663
238	0xbee6a5bf	-0.4504833
239	0x3ed4fa91	0.41597417
240	0xbea73cf9	-0.32663706
241	0xbf989fe8	-1.19238
242	0xbf375d6c	-0.71626925
243	0xbfdeb2a5	-1.7398268
244	0xbfe421bd	-1.7822796
245	0xc00ed93c	-2.232009
246	0xbf910fb8	-1.1332922
247	0xbf5aed83	-0.85518664
248	0xbffe8b06	-1.9886177
249	0xbff18493	-1.8868583
250	0xbf931dd8	-1.1493483
251	0xc00f499d	-2.238868
252	0xbef5667e	-0.47929758
253	0xbea87adf	-0.32906243
254	0xbe4f8c0c	-0.20268267
255	0xbe427556	-0.18990073

weight f4 [64]
0	0x3f90c365	1.130963
1	0x3fc0e849	1.5070888
2	0x3fc920e7	1.5713166
3	0x3fc01326	1.5005844
4	0x3fa96bda	1.3236039
5	0x3fa0bc1d	1.2557408
6	0x3fef2e31	1.8685971
7	0x3fc400ed	1.5312783
8	0x3fabc7a8	1.3420305
9	0x3f845c37	1.0340642
10	0x3fa38bc6	1.277703
11	0x3fb10b22	1.3831522
12	0x3f9379d4	1.1521554
13	0x3fb12347	1.3838891
14	0x3fc2a760	1.5207329
15	0x3fec742e	1.8472955
16	0x3fd52d86	1.6654518
17	0x3f8860ea	1.0654576
18	0x3fb68719	1.4259979
19	0x3fb2f459	1.3980819
20	0x3f906e19	1.1283599
21	0x3fc3f762	1.530987
22	0x3fcff24c	1.6245818
23	0x3fcb2525	1.5870711
24	0x3f78b51b	0.97151345
25	0x3fd327c9	1.6496516
26	0x3fd119d5	1.6336008
27	0x3faf8cf3	1.3714889
28	0x3faf2174	1.3682084
29	0x3f97cfbf	1.1860274
30	0x3faf06d1	1.3673955
31	0x3f8c66c2	1.0968859
32	0x3f769b90	0.9633112
33	0x3fd5a414	1.6690698
34	0x3fc2e46a	1.5225956
35	0x3fd56219	1.6670562
36	0x3fc96af2	1.5735762
37	0x3f890744	1.0705342
38	0x3fe8ccbd	1.8187481
39	0x3f7df6f7	0.99204963
40	0x3fdc4968	1.7209902
41	0x3f9d8815	1.2307154
42	0x3fa7688a	1.3078778
43	0x3f7929f8	0.97329664
44	0x3fceb693	1.6149467
45	0x3facce79	1.350051
46	0x3fc6d100	1.5532532
47	0x3fad1d43	1.3524555
48	0x3f9fc9d7	1.2483472
49	0x3fd3f052	1.6557715
50	0x3f7daefe	0.9909514
51	0x3fc5b7b3	1.5446686
52	0x3fb342cb	1.4004759
53	0x3f7a65cf	0.978116
54	0x3fc7ed98	1.5619383
55	0x3fede378	1.8585043
56	0x3fb0bf55	1.380839
57	0x3f818130	1.011755
58	0x3fba54fb	1.4557184
59	0x3fbbaeae	1.4662683
60	0x3fa650b7	1.2993382
61	0x3f927c72	1.1444228
62	0x3f926706	1.143769
63	0x3fa96158	1.3232832

bias f4 [64]
0	0xbfa6f095	-1.304217
1	0xbf9e0a1b	-1.2346834
2	0xbfd5bfa0	-1.6699104
3	0xbf7cf423	-0.98810023
4	0xbf97187f	-1.1804351
5	0xbf9aaec9	-1.208459
6	0xbfe26ffa	-1.7690423
7	0xbfbb2dfb	-1.4623407
8	0xbf0cee89	-0.55051476
9	0xbf763bde	-0.961851
10	0xbfa3bc17	-1.2791775
11	0xbfa14b19	-1.2601043
12	0xbf69439e	-0.911188
13	0xbfaa9508	-1.3326731
14	0xbf87a4c0	-1.0597153
15	0xbfc775d7	-1.5582837
16	0xbfcc54ed	-1.5963417
17	0xbfa068cc	-1.2531981
18	0xbf41fe20	-0.7577839
19	0xbfa4560d	-1.2838761
20	0xbf9cfef3	-1.2265304
21	0xbfc042c5	-1.5020376
22	0xbfc2267a	-1.5167992
23	0xbfaa04c8	-1.3282709
24	0xbf8bcdbe	-1.0922163
25	0xbfbb95d3	-1.4655098
26	0xbf9bea66	-1.2180908
27	0xbeca9303	-0.39565286
28	0xbfc04963	-1.5022396
29	0xbf476710	-0.77891636
30	0xbf7bea38	-0.98404264
31	0xbf252945	-0.645161
32	0xbf429d82	-0.7602159
33	0xbf8bdfd2	-1.092768
34	0xbfb2b534	-1.3961549
35	0xbf9a41fb	-1.2051386
36	0xbfa016ac	-1.2506919
37	0xbf53a941	-0.82680136
38	0xbfba3cfb	-1.454986
39	0xbf87b4dd	-1.060207
40	0xbfbf46e6	-1.4943511
41	0xbf9a9d0c	-1.2079177
42	0xbfb7adb3	-1.4349884
43	0xbf6c2232	-0.9223968
44	0xbfcb5527	-1.5885361
45	0xbf2a0320	-0.6641102
46	0xbfa6b9bd	-1.3025433
47	0xbf917cfc	-1.1366267
48	0xbedea6f5	-0.43486753
49	0xbfbc404b	-1.4707121
50	0xbf75ae7f	-0.95969385
51	0xbfb9398e	-1.4470689
52	0xbfa1b210	-1.2632465
53	0xbf0cd179	-0.5500713
54	0xbfbc7bd2	-1.4725287
55	0xbfb57952	-1.4177649
56	0xbfd1377b	-1.6345056
57	0xbf37c6f9	-0.71787983
58	0xbfd36742	-1.6515887
59	0xbf8545da	-1.0411942
60	0xbf09677b	-0.53673524
61	0xbf8ed5ab	-1.1158956
62	0xbf6b6b9c	-0.91961074
63	0xbf661a97	-0.8988432

running_mean f4 [64]
0	0xc258a76a	-54.16349
1	0xc2183f16	-38.061607
2	0xc1889887	-17.074476
3	0xc15ddb70	-13.866074
4	0x3fed805f	1.8554801
5	0xc1e9e372	-29.236057
6	0xc182d1da	-16.352467
7	0xc199ad63	-19.209661
8	0xc203ad6b	-32.919353
9	0xc1c78bee	-24.943325
10	0xc1647b03	-14.280032
11	0xc16fd3c3	-14.9892
12	0xc1163557	-9.388022
13	0xc257ea34	-53.978714
14	0xc20c2895	-35.03963
15	0xc18403e0	-16.501892
16	0xc1af93b1	-21.947115
17	0x3d958043	0.072998546
18	0xc1e41992	-28.512486
19	0xc2300114	-44.001053
20	0xc1de1ed3	-27.76505
21	0xc205749f	-33.363888
22	0xc1b85d90	-23.045685
23	0xc08a4d93	-4.3219695
24	0xc2312eb6	-44.295616
25	0xc22d7fde	-43.37487
26	0xc1814189	-16.157
27	0xc21da19b	-39.407818
28	0xc1023053	-8.136798
29	0xc19396ce	-18.448635
30	0xc201252a	-32.286293
31	0xc205f404	-33.488297
32	0xc20c7dda	-35.122902
33	0xc022ee57	-2.545797
34	0xc192b9e3	-18.340765
35	0xc14efd64	-12.936863
36	0xc22be913	-42.97761
37	0xc20d1e5b	-35.279644
38	0xc13df20d	-11.871594
39	0xc156ec3c	-13.432674
40	0xc1065f97	-8.398337
41	0xc1f4f954	-30.621742
42	0xc1705a24	-15.022007
43	0xc0387d8d	-2.882663
44	0xc22ef50e	-43.73931
45	0xc20a3330	-34.549988
46	0xc202d36d	-32.70647
47	0xc1f297af	-30.324064
48	0xc1ad51d5	-21.664957
49	0xc1a4ff25	-20.624582
50	0xc249b6db	-50.42857
51	0xc1a6b9d1	-20.84073
52	0xc1e53c22	-28.654362
53	0x418a7234	17.305763
54	0xc1f1fa33	-30.247168
55	0xc13b6c2e	-11.713911
56	0xc19ddb66	-19.732128
57	0xc19bb480	-19.463135
58	0xc0c88b37	-6.266994
59	0xc2123f61	-36.561893
60	0xc2290fc5	-42.2654
61	0xc126cb8f	-10.424697
62	0xc202a075	-32.656696
63	0xc1aa26aa	-21.268879

running_var f4 [64]
0	0x43e5ffbc	459.99792
1	0x4427c1dc	671.02905
2	0x438712c2	270.14655
3	0x43c2f13b	389.8846
4	0x43cc6104	408.75793
5	0x43c0c457	385.5339
6	0x4419e013	615.50116
7	0x43766cee	246.4255
8	0x44657215	917.78253
9	0x43c17e46	386.9865
10	0x43db95d4	439.17053
11	0x43c53d66	394.47968
12	0x4381b286	259.3947
13	0x4420dca1	643.4473
14	0x44208b26	642.1742
15	0x43ae2abe	348.33392
16	0x43f340ae	486.5053
17	0x43917a83	290.95712
18	0x44339642	718.3478
19	0x4413282d	588.62775
20	0x43e26ce6	452.85077
21	0x43e06eef	448.86667
22	0x439d5389	314.65262
23	0x43cbb411	407.40677
24	0x43ba6939	372.82205
25	0x440314a0	524.32227
26	0x431df1ca	157.94449
27	0x446054cb	897.3249
28	0x43a4ece9	329.85086
29	0x438a6b61	276.8389
30	0x441b2169	620.52203
31	0x4410796e	577.89734
32	0x441f5ef8	637.4839
33	0x43955213	298.6412
34	0x440eaa84	570.6643
35	0x439a0543	308.0411
36	0x43e9b3c7	467.4045
37	0x44112beb	580.6862
38	0x438ba60f	279.29733
39	0x4393e1f8	295.76538
40	0x43af3fe1	350.49905
41	0x440be8f4	559.6399
42	0x43cc0529	408.0403
43	0x43f1929b	483.14536
44	0x43dfb6a7	447.42697
45	0x442dee20	695.7207
46	0x43d780be	431.0058
47	0x4445eb95	791.68097
48	0x443c9fbd	754.4959
49	0x438e8508	285.0393
50	0x43d97fad	434.99747
51	0x43a3696b	326.82358
52	0x4415a569	598.58453
53	0x43dda3eb	443.2806
54	0x43e24d77	452.6052
55	0x43a3dd54	327.72913
56	0x438c1780	280.1836
57	0x43b35272	358.6441
58	0x43c3656e	390.79242
59	0x43b5b1d4	363.38928
60	0x445db720	886.8613
61	0x43b84abf	368.58395
62	0x43e70098	462.00464
63	0x43cca8f4	409.31995
