encoding_test_v13/models/cnn_models/QP27_32x32.pt (torch, 209464 bytes, 27 tensors)

weight f4 [16, 1, 3, 3]
-0.6341205 -0.40276185 -0.29209834 -0.67228156 -0.3697663 0.344561 0.07705715 0.80161566
1.1362594 1.1066909 -1.0226588 -0.06398867 0.30579963 -1.1529008 -0.06665073 -0.048270922
0.7690813 0.12116072 0.82440543 -0.7985204 -0.120799944 -0.8012893 -0.3612266 0.9449641
0.30151382 -0.6881489 0.70557123 0.6465317 0.44431138 0.041242745 0.4628374 -0.49404737
-0.9456386 0.7090021 0.06696012 -0.9391412 0.27214313 -0.52308375 -0.9225593 0.2697017
-0.20860566 -0.38859212 1.3682668 0.009351006 0.11622695 0.83679175 0.7767216 0.8232927
-0.44600788 -0.07160184 -0.2834005 -0.67440045 -0.65487194 -0.32763666 -1.1111187 0.9017515
0.19346182 0.044582546 0.06772087 -0.05686281 1.0460731 -0.905757 -0.15924473 -0.9412052
0.40453887 0.21402639 1.213503 0.22057685 -0.7984973 -0.9226453 0.37174264 0.20954208
0.11159693 -0.75282425 -0.28446278 1.3788369 0.15935735 0.20243926 0.16612838 -1.0272756
0.037304964 -0.6669594 0.0663343 0.92526984 -0.84950554 -0.019211583 0.6095886 -0.75339043
0.044395678 0.6466835 1.5294006 0.02238991 0.19819944 0.1585792 0.0576838 -0.48599255
-0.25676405 -0.54467994 -0.67322195 1.1293744 0.32383257 0.75080884 -1.1700987 -0.10819171
-0.5633632 -0.13971049 -0.5150609 0.24744521 -0.36003152 -0.766619 1.0747225 0.20460953
-0.8694172 1.0346245 0.03324456 -0.6558815 0.2802446 -0.364242 0.28015897 -0.5768327
0.32804805 -0.025574178 0.76617056 -2.4396698 -1.2662965 -0.66993356 0.1777714 -0.88701475
-0.5848158 -0.4340856 0.39252135 -0.3420111 -0.16172642 0.6377773 1.2116523 -0.61008465
-0.5886182 -0.43272644 -0.28986442 -0.0399398 -0.4763524 0.836426 0.9517702 0.64544
00000000: b955 22bf cd36 cebe ea8d 95be a51a 2cbf
00000010: 0252 bdbe 4d6a b03e 24d0 9d3d af36 4d3f
00000020: f370 913f 0ca8 8d3f 7ce6 82bf 7e0c 83bd
00000030: c591 9c3e 4192 93bf 2e80 88bd bbb7 45bd
00000040: 83e2 443f 1d23 f83d 3c0c 533f d56b 4cbf
00000050: f665 f7bd 4c21 4dbf b1f2 b8be 2be9 713f
00000060: 0560 9a3e 872a 30bf 51a0 343f 1a83 253f
00000070: c87c e33e 27ee 283d 06f9 ec3e c7f3 fcbe
00000080: 5f15 72bf 2981 353f 6322 893d 8f6b 70bf
00000090: 5856 8b3e d1e8 05bf d92c 6cbf 5716 8a3e
000000a0: b99c 55be 8cf5 c6be 5e23 af3f f634 193c
000000b0: 6508 ee3d fc37 563f 3ad7 463f 4fc3 523f
000000c0: 255b e4be fca3 92bd df19 91be 82a5 2cbf
000000d0: b0a5 27bf febf a7be 2339 8ebf 30d9 663f
000000e0: db1a 463e 309c 363d 3db1 8a3d fae8 68bd
000000f0: b9e5 853f b1df 67bf 0d11 23be d3f2 70bf
00000100: b81f cf3e bc29 5b3e 1154 9b3f e6de 613e
00000110: 526a 4cbf 7b32 6cbf 0d55 be3e 3392 563e
00000120: ee8c e43d 17b9 40bf 1ba5 91be ba7d b03f
00000130: 932e 233e 3d4c 4f3e 8f1d 2a3e c47d 83bf
00000140: 17cd 183d dabd 2abf 47da 873d 7cde 6c3f
00000150: 3279 59bf 9c61 9dbc 000e 1c3f 32de 40bf
00000160: 3ed8 353d 0d8d 253f 66c3 c33f 0b6b b73c
00000170: cbf4 4a3e 9662 223e d945 6c3d 04d4 f8be
00000180: 9476 83be 2570 0bbf 4658 2cbf 578f 903f
00000190: 62cd a53e 0235 403f cbc5 95bf 9e93 ddbd
000001a0: 9238 10bf 4410 0fbe 08db 03bf 4762 7d3e
000001b0: 0d56 b8be 2541 44bf 8290 893f 2985 513e
000001c0: 2092 5ebf 936e 843f 732b 083d dae7 27bf
000001d0: 387c 8f3e ed7d babe ff70 8f3e 4fab 13bf
000001e0: eaf5 a73e f080 d1bc c123 443f 8d23 1cc0
000001f0: 0116 a2bf c480 2bbf b509 363e 6613 63bf
00000200: 7db6 15bf 7840 debe 8ff8 c83e 141c afbe
00000210: 9c9b 25be 6045 233f 6c17 9b3f 822e 1cbf
00000220: afaf 16bf 528e ddbe 1c69 94be ea97 23bd
00000230: 76e4 f3be 0420 563f 36a7 733f 8e3b 253f

weight f4 [16]
1.1669761 1.572979 1.3981736 1.4377725 0.95426536 1.3332838 1.0852858 1.1441612
1.2487543 1.9750966 0.6300385 1.364124 1.7613631 0.50790316 0.86241776 1.665063
00000000: 795f 953f 6057 c93f 5af7 b23f ee08 b83f
00000010: bc4a 743f 0ba9 aa3f a5ea 8a3f e073 923f
00000020: 2ed7 9f3f f7cf fc3f 344a 213f 9d9b ae3f
00000030: 5974 e13f f105 023f 69c7 5c3f c920 d53f

bias f4 [16]
0.073436044 -0.72424084 1.3100408 0.52247274 0.11782796 0.55159074 -0.37167627 -0.45961
1.1887966 0.6336531 0.068797 -0.719017 -0.6144263 -0.5157428 -0.4721831 0.7351256
00000000: a365 963d d967 39bf 6baf a73f c6c0 053f
00000010: c94f f13d 0d35 0d3f 5a4c bebe 0052 ebbe
00000020: 7d2a 983f 1737 223f 71e5 8c3d 8011 38bf
00000030: 0b4b 1dbf b807 04bf fcc1 f1be 3131 3c3f

running_mean f4 [16]
-0.013097112 -0.047137354 -0.02220741 -0.014077796 -0.015476195 -0.016110014 0.0093521755 0.009166067
-0.0015620844 -0.0010315416 -0.0059178 -0.04189196 -0.032147337 -1.4656543 0.0007725212 -0.007935988
00000000: 4595 56bc 1913 41bd 50ec b5bc 8ea6 66bc
00000010: de8f 7dbc 26f9 83bc de39 193c 452d 163c
00000020: dbbe ccba cb34 87ba 1bea c1bb e796 2bbd
00000030: edac 03bd 8f9a bbbf 0583 4a3a f205 02bc

running_var f4 [16]
0.07334145 0.02441645 0.02233007 0.06561908 0.07033215 0.07525941 0.0053283153 0.008847635
0.034580644 0.08009327 0.068107106 0.04524914 0.046572987 0.93175524 0.043673705 0.07348076
00000000: 0b34 963d 0205 c83c 8ded b63c 4c63 863d
00000010: 4d0a 903d 9b21 9a3d 2699 ae3b acf5 103c
00000020: 6fa4 0d3d f107 a43d bd7b 8b3d 2a57 393d
00000030: 51c3 3e3d 8387 6e3f 33e3 323d 157d 963d

weight f4 [32, 16, 3, 3]
-0.061287105 -0.28963196 -0.22502765 -0.32321838 -0.35186198 -0.49397746 0.6415056 -0.3739367
-0.60411364 -0.7689576 -0.2990579 -0.26201782 -1.337465 -1.3332193 -0.1299699 -1.8073561
-1.4123623 -0.117028974 -0.9064422 0.18201087 0.20676847 -0.44980317 0.12901515 0.34180763
-0.04808219 0.085823186 0.2295616 -0.121057115 -1.2060863 -0.87555605 1.6321568 0.3922915
0.22478251 -0.29561743 -0.39885518 0.1854317 -0.04007951 0.0027155667 0.41299775 0.3368194
-0.05574642 0.04976967 0.7506752 0.48365164 0.43616313 -1.9156111 -2.4460154 -2.82098
0.24443455 -0.6238814 0.07884052 0.45486197 -0.1887421 0.40108812 -0.6192899 0.09452741
-0.008764467 -0.790168 -0.32452184 -0.27623993 -0.6394609 -0.87101895 -1.1845989 -0.117373824
-1.1647202 -1.1768667 0.31868184 -0.6375932 -0.31632227 0.16241537 -0.75346565 0.03431212
-0.043401383 -0.23003387 0.28030074 -0.13947856 -0.690934 -0.13958645 0.38588056 0.090889074
0.6280471 -0.16625355 -1.8852872 -2.6025786 -0.014312229 -0.721819 -0.8036729 0.35053086
-0.75805676 -0.26296574 0.08757395 -0.09878349 -1.2813131 0.3371397 -0.70328265 -0.54384124
0.40015242 -0.21263781 -0.2667968 0.021653866 -0.4867502 -0.265626 -0.0137280915 -0.5525527
-0.088078566 -0.31600034 -0.095286466 -0.4619364 -0.973874 -1.1426293 -0.3394015 -0.38449472
-0.82904935 -0.47602814 -0.26778558 -0.648977 -0.7181697 0.3214051 0.37514424 0.6218546
0.23673064 0.33540815 0.8222802 -0.13472998 -0.17853756 0.097699285 -0.4374285 -0.6745126
-0.5580247 -0.63692176 -0.75871027 -0.39525053 -0.5897793 -0.9991244 -0.74581444 0.16383943
0.23548564 0.8408595 0.14594583 0.31528872 0.68922585 -0.17192307 0.5618778 0.75808173
0.2168418 -0.7123849 0.2913137 -0.22159903 -0.22405608 -1.0383228 0.9923953 -0.08402934
-1.8649257 0.15606655 -0.5895819 -1.044632 -0.19147985 0.08000513 -0.030644864 -0.7267865
0.12396973 0.9830198 1.0362976 0.87961 0.19518849 -0.63461864 0.2086438 -0.10270916
-0.22155575 -0.1623396 -1.5460109 -1.9633887 -0.7015554 -1.0474745 -0.30307192 0.056386612
0.22249289 0.6930083 0.8816012 1.4385422 0.5240102 -0.013737282 -1.2093565 0.37739992
0.18884404 -0.37885496 -0.37417272 0.012853505 0.72277755 -1.6942616 -0.25070474 -0.18729317
-0.5887489 0.30349788 0.5495416 -0.46478173 -0.07406263 0.8441895 -0.5217858 0.17680681
-0.52213 -0.07580079 -0.62805504 -0.40746537 -0.23226677 0.41145983 0.16555543 -0.79622823
-0.20022178 -0.09790697 -0.059392933 0.00044080653 -0.25151172 -0.5210749 -4.3367338e-05 -0.79133534
-1.1181599 -0.33037037 -0.04657655 -0.0017848355 0.09362615 0.2770015 0.108053535 0.2608159
0.34306142 0.84110045 1.023175 0.019942667 0.21205886 0.49118143 0.062245198 -0.8879542
-1.411264 -0.9762921 -1.4629039 -0.83250475 0.04746004 -0.2683032 -0.25989357 0.10978814
0.49659774 0.15452442 -0.36913365 0.9074479 0.26490307 0.24840873 -0.98078287 -0.45323402
-0.3327737 -1.2416152 -0.0073968517 0.3396052 0.31763226 -0.67990756 -0.18792029 0.18318725
00000000: 3008 7bbd a44a 94be a66d 66be e17c a5be
00000010: 4127 b4be 9dea fcbe b639 243f a274 bfbe
00000020: 31a7 1abf 68da 44bf 1e1e 99be 3327 86be
00000030: 0e32 abbf eea6 aabf d416 05be 7257 e7bf
00000040: 4ac8 b4bf e3ac efbd 990c 68bf 0f61 3a3e
00000050: 1dbb 533e 9a4c e6be 8c1c 043e 6901 af3e
00000060: d5f1 44bd 11c4 af3d 3212 6b3e cbec f7bd
00000070: 0961 9abf 7124 60bf 84ea d03f 6eda c83e
00000080: 632d 663e 2b5b 97be bf36 ccbe cfe1 3d3e
00000090: 6a2a 24bd a6f7 313b 7174 d33e 9873 ac3e
000000a0: 5c56 64bd 48db 4b3d 402c 403f 30a1 f73e
000000b0: c650 df3e bf32 f5bf 848b 1cc0 f08a 34c0
000000c0: 0d4d 7a3e b1b6 1fbf 2377 a13d abe3 e83e
000000d0: 9c45 41be 6c5b cd3e c889 1ebf 9697 c13d
000000e0: d798 0fbc 7348 4abf ba27 a6be 526f 8dbe
000000f0: b6b3 23bf 19fb 5ebf f0a0 97bf b061 f0bd
00000100: 8d15 95bf 91a3 96bf 442a a33e 4f39 23bf
00000110: fef4 a1be 3750 263e 20e3 40bf de8a 0c3d
00000120: a6c5 31bd 008e 6bbe 9483 8f3e 78d3 0ebe
00000130: 0de1 30bf c0ef 0ebe 2392 c53e 0d24 ba3d
00000140: b2c7 203f 5f3e 2abe 1751 f1bf a690 26c0
00000150: d77d 6abc 21c9 38bf 82bd 4dbf c878 b33e
00000160: 0210 42bf 72a3 86be f959 b33d 004f cabd
00000170: 1102 a4bf 939d ac3e 550a 34bf 2e39 0bbf
00000180: c7e0 cc3e babd 59be 9799 88be 7363 b13c
00000190: 5237 f9be 2200 88be caeb 60bc 1874 0dbf
000001a0: 8962 b4bd ccca a1be 8d25 c3bd ee82 ecbe
000001b0: ce4f 79bf ad41 92bf 09c6 adbe 7edc c4be
000001c0: 943c 54bf f6b9 f3be 311b 89be 5b23 26bf
000001d0: f8d9 37bf 368f a43e e812 c03e dd31 1f3f
000001e0: 8469 723e 9eba ab3e f580 523f a8f6 09be
000001f0: 8dd2 36be 9016 c83d a1f6 dfbe dcac 2cbf
00000200: b5da 0ebf 4e0d 23bf d63a 42bf 475e cabe
00000210: c7fb 16bf 9ec6 7fbf b2ed 3ebf 86c5 273e
00000220: 2623 713e 9142 573f d372 153e 866d a13e
00000230: 1b71 303f 9a0c 30be 39d7 0f3f a511 423f
00000240: c70b 5e3e db5e 36bf 1227 953e dbea 62be
00000250: f56e 65be c3e7 84bf 9e0d 7e3f 9317 acbd
00000260: e3b5 eebf e9cf 1f3e d7ee 16bf 80b6 85bf
00000270: 4b13 44be bbd9 a33d f00a fbbc ae0e 3abf
00000280: d8e3 fd3d 30a7 7b3f 66a5 843f 1f2e 613f
00000290: 7edf 473e 5e76 22bf b8a6 553e 2e59 d2bd
000002a0: 83df 62be 5a3c 26be afe3 c5bf 5250 fbbf
000002b0: 2299 33bf a513 86bf 3e2c 9bbe a6f5 663d
000002c0: 2dd5 633e fe68 313f 9eb0 613f 2722 b83f
000002d0: 8825 063f 5612 61bc 32cc 9abf 903a c13e
000002e0: 5560 413e 47f9 c1be 9193 bfbe 8297 523c
000002f0: f307 393f 90dd d8bf 5f5c 80be c8c9 3fbe
00000300: 3fb8 16bf 1364 9b3e c2ae 0c3f dff7 edbe
00000310: 26ae 97bd ce1c 583f c193 05bf d80c 353e
00000320: 50aa 05bf 723d 9bbd 37c8 20bf 4d9f d0be
00000330: 57d7 6dbe ddaa d23e 5d87 293e 9dd5 4bbf
00000340: f006 4dbe 7383 c8bd 0146 73bd 0d1c e739
00000350: 25c6 80be 2a65 05bf 53e5 35b8 f494 4abf
00000360: dd1f 8fbf 4e26 a9be 0dc7 3ebd 24f1 e9ba
00000370: 11bf bf3d 24d3 8d3e 2c4b dd3d a989 853e
00000380: bfa5 af3e 5c52 573f 66f7 823f ce5e a33c
00000390: f525 593e 227c fb3e d2f4 7e3d f750 63bf
000003a0: 4ca4 b4bf 47ee 79bf 6f40 bbbf 081f 55bf
000003b0: 7565 423d 095f 89be c510 85be 9bd8 e03d
000003c0: 0f42 fe3e a63b 1e3e 16ff bcbe 814e 683f
000003d0: 60a1 873e dc5e 7e3e 9614 7bbf 4a0e e8be
000003e0: 5061 aabe 3fed 9ebf 4a61 f2bb bce0 ad3e
000003f0: b2a0 a23e 6c0e 2ebf 2d6e 40be 7095 3b3e

weight f4 [32]
0.61191064 0.61712277 0.79671997 0.6906659 0.67803776 0.59941643 0.7044684 0.5484191
0.79723835 0.97301704 0.7906141 0.59758407 0.7528981 0.6274632 0.7712213 0.7581959
0.77395946 0.59432554 1.0512549 0.92273694 0.5389715 0.7677293 1.0335599 0.5260587
0.7905817 0.46461412 0.7158637 0.53127223 0.69261074 1.0479691 0.31978258 0.21812686
00000000: 2da6 1c3f c2fb 1d3f d7f5 4b3f 7bcf 303f
00000010: e293 2d3f 5b73 193f 0b58 343f 3265 0c3f
00000020: d017 4c3f a517 793f b065 4a3f 45fb 183f
00000030: eebd 403f 6ea1 203f c26e 453f 2019 423f
00000040: 3522 463f b825 183f 858f 863f 7d38 6c3f
00000050: 09fa 093f e889 443f b14b 843f c8ab 063f
00000060: 9063 4a3f e7e1 ed3e d842 373f 7501 083f
00000070: f04e 313f da23 863f 8bba a33e a65c 5f3e

bias f4 [32]
-0.16953199 -0.15387382 -0.24876131 -0.18122023 -0.27455616 -0.14366886 -0.3082616 -0.18501219
-0.23692498 -0.46380126 -0.3852648 -0.24253352 -0.15325177 -0.31743515 -0.11740475 -0.2146816
-0.17857315 -0.11393524 -0.19911325 -0.074267514 0.085375786 -0.39253494 -0.38251388 -0.10798686
-0.2704719 -0.05616164 -0.1341996 0.10294648 -0.24172172 -0.24183269 0.389294 0.879385
00000000: cb99 2dbe 1991 1dbe 49bb 7ebe cc91 39be
00000010: a092 8cbe ee1d 13be 77d4 9dbe d673 3dbe
00000020: 769c 72be 5c77 edbe 6e41 c5be b55a 78be
00000030: 08ee 1cbe dc86 a2be e771 f0bd 7ed5 5bbe
00000040: e1db 36be e156 e9bd 58e4 4bbe 9119 98bd
00000050: 80d9 ae3d 57fa c8be dcd8 c3be 3728 ddbd
00000060: 4b7b 8abe bf09 66bd 9f6b 09be 9bd5 d23d
00000070: e685 77be fda2 77be 8b51 c73e 601f 613f

running_mean f4 [32]
-10.6561775 -5.373095 -12.905057 -5.160321 -3.03207 -5.590442 -3.3698895 -2.5792985
-1.9807655 -2.9189475 -5.208652 -4.7527018 -7.3866305 -5.5754533 -3.7933934 -14.915041
-5.498344 -3.6013486 -13.217967 -13.366319 -3.6752458 -5.9296613 -2.8002594 -12.400567
-16.564455 0.76540935 -3.6954536 -1.8712896 -6.7222695 -7.7406993 -14.269153 -4.53695
00000000: b47f 2ac1 65f0 abc0 1d7b 4ec1 5a21 a5c0
00000010: 6f0d 42c0 e7e4 b2c0 45ac 57c0 3a13 25c0
00000020: b989 fdbf 09d0 3ac0 47ad a6c0 2216 98c0
00000030: 475f ecc0 1d6a b2c0 f5c6 72c0 02a4 6ec1
00000040: 6ff2 afc0 7f7c 66c0 cb7c 53c1 71dc 55c1
00000050: 3a37 6bc0 c9bf bdc0 7337 33c0 b968 46c1
00000060: 0184 84c1 def1 433f 5082 6cc0 6b86 efbf
00000070: d51c d7c0 cfb3 f7c0 734e 64c1 b22e 91c0

running_var f4 [32]
136.56136 42.428757 154.38708 85.76153 31.327057 77.46518 19.66324 42.255386
76.32692 45.578 51.64364 47.15399 90.53869 26.554176 80.50774 101.100044
90.261375 34.14693 139.63553 246.93562 48.88358 76.73384 88.74699 90.73871
98.17373 31.937836 73.54731 21.638224 100.094604 145.49013 85.80051 116.99858
00000000: b58f 0843 0cb7 2942 1863 1a43 e785 ab42
00000010: d09d fa41 2cee 9a42 514e 9d41 8405 2942
00000020: 62a7 9842 df4f 3642 1693 4e42 b09d 3c42
00000030: cf13 b542 f46e d441 f603 a142 3933 ca42
00000040: d385 b442 7596 0842 b2a2 0b43 85ef 7643
00000050: c988 4342 ba77 9942 757e b142 387a b542
00000060: f358 c442 b080 ff41 3918 9342 151b ad41
00000070: 7030 c842 797d 1143 dc99 ab42 46ff e942

weight f4 [32, 32, 3, 3]
-0.31855267 -0.44406796 -0.27548847 -0.112685926 0.18633503 0.6082316 -0.5541479 -0.35458663
0.18606168 -0.12254959 -0.15036526 -0.5534103 -0.024786146 -0.4749226 -0.6128794 1.0639871
0.42952833 1.4486122 -0.5073354 0.2234383 0.26384082 -0.23181938 -0.10225766 -0.44414434
0.44017294 -0.35682017 -0.43129462 -0.61636394 -0.69643694 -0.63560796 -0.15951212 -0.6257742
-0.23858376 1.2771679 0.9438828 1.6055032 -1.2598408 -0.92579865 -0.80261153 0.5112165
0.24933593 0.50377464 0.43459404 -0.15545718 0.46496156 -0.3857323 -0.2166667 -1.0307537
0.2744245 -0.013211432 -0.34667712 1.323094 0.5238359 0.95850855 -1.0159291 0.0015660444
-0.5454682 -0.2903843 0.45151272 0.021983245 0.44377986 0.9998446 -0.08597951 -0.30625856
0.018169262 0.32757035 0.17858464 0.36203164 0.1774816 -0.64822096 -0.8261953 -0.39865527
-0.13375102 0.092088215 -0.15282336 0.06935085 0.17037995 0.022258887 0.4813241 0.21891181
0.5778639 -1.002105 0.2788883 -4.2778174e-05 -0.5117502 -0.0007849094 -0.61723334 1.1748208
0.5963226 0.109013505 -0.5257861 0.09313143 -0.082211904 -0.4668748 0.54300725 -0.71331376
0.008300226 0.39121377 -0.11640238 -0.84934175 -0.5218673 -0.98499244 0.047275472 -0.3036472
-0.13667154 0.80783814 0.6187013 0.89930725 -0.3797132 0.2362794 -0.085653014 -0.9959565
-0.30908284 -0.43382552 0.21950778 0.60016996 0.25239807 -0.2935649 0.122382 0.11230058
-0.65059906 -0.013923673 -0.15571685 0.026797188 0.12495475 0.047611192 0.025406862 0.2661821
-0.36351392 -0.36709726 -0.0007142173 0.1801453 -0.036433402 -0.38949543 0.32034367 -1.3040425
-1.104432 -0.86907315 -0.7133002 -0.34688586 -0.24712245 0.99943733 1.3342123 1.3869364
-0.18129002 0.35980973 0.12185909 -0.29380465 -0.22855514 -0.4412732 0.28853476 -0.06926777
-0.32146767 -0.10706218 -0.14426044 -1.1573678 -0.11576973 -0.52727944 -0.033522896 0.45146307
0.1665294 1.4997405 1.521659 1.6020483 1.0178809 0.5553956 -0.0671984 -0.13098826
-0.0400256 -1.055381 -0.8585801 0.50250065 0.8222366 0.4046434 -0.77749795 -0.6597167
-0.5754972 -0.56548655 0.059819233 -0.10637985 -0.19251019 -0.4894836 -0.6469949 0.0778617
-0.614315 -0.46205303 0.9975845 1.0566666 0.5123931 0.15998228 -0.0779727 -1.1652898
0.4081916 -0.37474665 -0.90409213 0.83405477 1.0551808 1.6637845 -1.5571562 -1.1478066
-1.3059676 -0.28031382 -0.03402305 -0.16012645 0.75104964 0.58589524 1.0434742 -1.8657444
-0.851047 -1.2036934 -0.6312164 0.16897357 -0.39504135 1.5469532 1.8402815 0.9091388
0.7320533 1.0414096 0.74794304 -0.9866201 0.12371037 -0.10581515 -1.3699036 -0.28181052
-0.81249225 -0.75988746 -0.48021755 -0.4587974 -0.36027458 -0.081615254 -0.58910364 0.6064722
0.39039567 0.16349825 -0.9615378 -0.6539715 -1.2923993 -0.29553372 -0.07470111 -0.45990992
0.8758127 0.8574483 1.2790486 0.6650782 -0.04735943 -0.53386635 0.5097651 -0.58573866
-0.25529674 0.8950281 0.068286605 1.7536664 0.18842347 -0.11201385 -0.5052323 0.5612529
00000000: 5619 a3be e05c e3be d30c 8dbe e1c7 e6bd
00000010: 9cce 3e3e 11b5 1b3f a3dc 0dbf 618c b5be
00000020: f486 3e3e 48fb fabd 5af9 19be 4cac 0dbf
00000030: 510c cbbc 0e29 f3be aae5 1cbf bb30 883f
00000040: 23eb db3e 206c b93f bce0 01bf 02cd 643e
00000050: 2516 873e 0f62 6dbe 776c d1bd e366 e3be
00000060: 595e e13e 22b1 b6be a6d2 dcbe 07ca 1dbf
00000070: b149 32bf 34b7 22bf 2557 23be bd32 20bf
00000080: 4d4f 74be 3d7a a33f 4ea2 713f 2181 cd3f
00000090: 7742 a1bf 2401 6dbf f377 4dbf 16df 023f
000000a0: eb51 7f3e 60f7 003f 1c83 de3e 2b30 1fbe
000000b0: 710f ee3e b47e c5be e0dd 5dbe bdef 83bf
000000c0: 5e81 8c3e c374 58bc aa7f b1be 255b a93f
000000d0: 1c1a 063f d160 753f f709 82bf bb43 cd3a
000000e0: cea3 0bbf 40ad 94be ad2c e73e 3516 b43c
000000f0: 1d37 e33e d1f5 7f3f 0616 b0bd eccd 9cbe
00000100: b4d7 943c 4db7 a73e e4de 363e 365c b93e
00000110: bdbd 353e cff1 25bf 8981 53bf 8b1c ccbe
00000120: 07f6 08be bf98 bc3d ba7d 1cbe d207 8e3d
00000130: 1578 2e3e 4558 b63c 1d70 f63e 6b2a 603e
00000140: e3ee 133f fa44 80bf 72ca 8e3e b76c 33b8
00000150: 1002 03bf 61c2 4dba 0103 1ebf 8760 963f
00000160: 99a8 183f 7942 df3d eb99 06bf b1bb be3d
00000170: b75e a8bd 370a efbe 8602 0b3f bb9b 36bf
00000180: acfd 073c 2c4d c83e 5f64 eebd 766e 59bf
00000190: 1899 05bf 7728 7cbf eda3 413d a577 9bbe
000001a0: a0f3 0bbe 7bce 4e3f 3563 1e3f 0039 663f
000001b0: c569 c2be 3af3 713e d96a afbd 01f7 7ebf
000001c0: 1b40 9ebe 611e debe a6c6 603e bda4 193f
000001d0: 523a 813e 234e 96be 6aa3 fa3d d9fd e53d
000001e0: a98d 26bf 1e20 64bc 3d74 1fbe c785 db3c
000001f0: 47e8 ff3d f403 433d 0d22 d03c 0549 883e
00000200: 7f1e babe 2cf4 bbbe 503a 3bba 0278 383e
00000210: 313b 15bd f26b c7be 1604 a43e ddea a6bf
00000220: 075e 8dbf 947b 5ebf d89a 36bf 069b b1be
00000230: ab0d 7dbe 20db 7f3f 78c7 aa3f 2287 b13f
00000240: 17a4 39be fb38 b83e 4291 f93d 906d 96be
00000250: 5c0a 6abe 90ee e1be d4ba 933e 43dc 8dbd
00000260: 6997 a4be 6b43 dbbd 02b9 13be a124 94bf
00000270: ae18 edbd c9fb 06bf 4e4f 09bd 2b26 e73e
00000280: af86 2a3e 7ff7 bf3f b9c5 c23f eb0f cd3f
00000290: ec49 823f 682e 0e3f 519f 89bd c921 06be
000002a0: e2f1 23bd b916 87bf e8cb 5bbf e2a3 003f
000002b0: 197e 523f 6b2d cf3e 1b0a 47bf 32e3 28bf
000002c0: c953 13bf bac3 10bf 0305 753d aedd d9bd
000002d0: 6421 45be 989d fabe 75a1 25bf f475 9f3d
000002e0: bf43 1dbf 3792 ecbe b361 7f3f da40 873f
000002f0: 322c 033f 65d2 233e 27b0 9fbd 3728 95bf
00000300: 7dfe d03e cbde bfbe 9572 67bf 9d84 553f
00000310: 2a10 873f e4f6 d43f e550 c7bf 54eb 92bf
00000320: f229 a7bf 4b85 8fbe c15b 0bbd 30f8 23be
00000330: ca44 403f 3bfd 153f 9090 853f b6d0 eebf
00000340: 37de 59bf a012 9abf 6697 21bf 6807 2d3e
00000350: dc42 cabe 9002 c63f 588e eb3f 52bd 683f
00000360: d867 3b3f e94c 853f 3279 3f3f 2393 7cbf
00000370: dd5b fd3d 9db5 d8bd 0059 afbf 7849 90be
00000380: 7eff 4fbf fc87 42bf 13df f5be 7ee7 eabe
00000390: e975 b8be e625 a7bd 7fcf 16bf c341 1b3f
000003a0: f1e1 c73e 166c 273e 5727 76bf ad6a 27bf
000003b0: 576d a5bf 3250 97be e5fc 98bd 5079 ebbe
000003c0: 4335 603f bb81 5b3f ddb7 a33f 9142 2a3f
000003d0: f6fb 41bd 77ab 08bf f77f 023f f8f2 15bf
000003e0: 41b6 82be 9020 653f d9d9 8b3d 2478 e03f
000003f0: 15f2 403e 8467 e5bd e756 01bf 45ae 0f3f

weight f4 [32]
1.3958106 1.634758 1.559353 1.3743931 1.4572368 0.93078405 1.7916962 1.5752623
1.9471037 1.6533574 0.9744058 1.1421547 1.6549615 0.68851423 1.5150157 1.5897715
0.9899099 1.5171893 0.7744772 1.5759271 1.4302127 1.1036376 1.3577819 1.3820937
1.0877563 1.1119417 0.76673496 0.64819795 1.6918972 0.87511164 0.774277 1.5468842
00000000: eca9 b23f c03f d13f e198 c73f 1dec af3f
00000010: bc86 ba3f dd47 6e3f 4d56 e53f 32a2 c93f
00000020: b23a f93f 37a1 d33f a972 793f 2032 923f
00000030: c7d5 d33f 7842 303f 09ec c13f a27d cb3f
00000040: bc6a 7d3f 4233 c23f 2344 463f fbb7 c93f
00000050: 3611 b73f ff43 8d3f cccb ad3f 72e8 b03f
00000060: 993b 8b3f 1b54 8e3f be48 443f 4df0 253f
00000070: 1690 d83f 5107 603f 0437 463f 4d00 c63f

bias f4 [32]
-0.15873422 -0.54589677 -0.88730496 -0.6418419 -0.19478516 -0.11498095 -0.7172347 -0.77453417
-0.87487656 -0.9203786 -0.54705495 0.0378999 -1.15977 -0.2553536 0.42216825 -0.19192828
-0.3477233 -0.71272594 -0.27713862 0.2909437 -0.3346652 -0.39014626 -0.33581498 -0.002707444
-0.20981872 -0.4114198 -0.3618247 -0.2757024 -0.7954143 -0.50320274 -0.47468346 -0.6953261
00000000: 398b 22be e4bf 0bbf 6b26 63bf c04f 24bf
00000010: c375 47be 227b ebbd b19c 37bf df47 46bf
00000020: e9f7 5fbf ef9d 6bbf cb0b 0cbf ed3c 1b3d
00000030: 5873 94bf b5bd 82be 7026 d83e d988 44be
00000040: ca08 b2be 3575 36bf 1de5 8dbe 93f6 943e
00000050: 3d59 abbe 40c1 c7be f1ef abbe 5f6f 31bb
00000060: b8da 56be 9ea5 d2be 1641 b9be dd28 8dbe
00000070: 46a0 4bbf e5d1 00bf b609 f3be e400 32bf

running_mean f4 [32]
3.8004138 -1.9806669 -1.6295183 -1.7276636 -1.305136 2.5370007 -2.8727968 2.2757747
0.007072539 2.3268485 0.43128404 1.0436326 5.069458 1.6296003 -2.3279195 -7.9169374
-5.4534087 -7.46997 3.1159418 -0.5134973 0.51436836 -9.142082 0.3863528 -3.6211362
3.0283272 3.374614 1.5021806 5.7809505 -1.7402904 -11.571138 -0.22160983 -1.9333208
00000000: fb39 7340 7e86 fdbf 0e94 d0bf 1524 ddbf
00000010: b20e a7bf 385e 2240 e7db 37c0 4ba6 1140
00000020: c2c0 e73b 16eb 1440 43d1 dc3e c195 853f
00000030: 0039 a240 be96 d03f a2fc 14c0 8d57 fdc0
00000040: 5382 aec0 ff09 efc0 976b 4740 8f74 03bf
00000050: a5ad 033f f845 12c1 09d0 c53e b2c0 67c0
00000060: 1dd0 4140 adf9 5740 7447 c03f 8cfd b840
00000070: d6c1 debf 6223 39c1 b0ed 62be 0e77 f7bf

running_var f4 [32]
20.0652 38.341316 26.817703 53.248665 36.159225 44.288246 24.355587 32.75099
30.517248 26.223583 23.608398 40.682465 22.936224 46.039253 54.800724 44.315662
28.787264 62.064915 32.583706 39.05577 31.272453 24.487993 15.364741 38.26529
37.919857 42.452946 43.455883 42.54746 30.100327 64.96751 29.296125 45.2538
00000000: 8885 a041 825d 1942 a88a d641 a2fe 5442
00000010: 0ca3 1042 2a27 3142 3ed8 c241 0401 0342
00000020: 5323 f441 e6c9 d141 00de bc41 d8ba 2242
00000030: 637d b741 3228 3842 f133 5b42 3d43 3142
00000040: 514c e641 7942 7842 b755 0242 1c39 1c42
00000050: fc2d fa41 69e7 c341 fbd5 7541 a80f 1942
00000060: efad 1742 d1cf 2942 d3d2 2d42 9930 2a42
00000070: 78cd f041 5def 8142 775e ea41 e403 3542

weight f4 [32, 32, 3, 3]
0.76859766 -0.2595971 0.78652626 0.41911426 -0.45581084 0.16853045 0.21619703 -0.5124982
-0.01124899 -1.996991 -1.4148341 -1.0683987 -1.0238819 -0.735801 -0.37116385 -0.21051826
-0.17568424 -0.04747733 -1.2059246 -0.2248121 -0.90430105 -1.2169914 0.03011862 -1.2759713
-1.7206796 -0.3255855 -1.9505981 -0.51176816 0.045257665 -0.031848766 -1.0079929 -0.78388137
-0.637071 -0.0625232 -0.102879725 0.119265445 0.77023107 0.28092986 0.7848914 0.12972489
-0.27139324 0.10318121 0.32915092 -0.30540064 0.7038295 -0.10615575 -0.5854522 -0.12875023
0.26648575 -0.4437225 0.02629401 0.11282773 -0.53562874 -0.0025015648 -0.016491262 -0.17601727
0.42104533 0.13622993 -0.051564086 0.37532282 0.016334841 0.022195855 0.44919643 0.35125336
0.50650257 -0.48325488 0.11686611 0.28514493 -0.3883811 0.3102897 0.5644713 0.349522
0.43147275 -0.2869308 0.05773972 0.8080624 -0.037601043 0.34820536 0.6565475 -0.005924531
0.3507553 0.12563102 0.1369582 -0.2258262 -0.41072395 -0.5058437 -1.0532553 -0.29181916
-0.5778482 -0.9227811 -2.641681 -0.7293912 -1.249405 -1.8503833 -0.46499565 -0.853952
-2.2467146 -2.4961863 -1.8039765 -0.51769257 0.52015543 -0.114596315 -0.8642896 0.41101885
-0.4721566 -2.1042092 -0.32514834 -1.8604814 0.4130143 0.89140415 0.52925164 0.2705727
0.6920822 0.44428632 0.44425005 0.6997846 0.32491663 -3.1569114 -1.4459637 -3.2715883
-1.8151945 -0.16479692 -2.2288177 -1.8747407 -0.37621978 -2.3965604 -0.6124295 -0.4155273
-0.04620565 -0.027207304 0.048511487 0.09926139 -0.15714398 0.41240522 0.27352276 0.9749668
-0.13129821 0.056861833 0.1975198 -0.3597918 -0.28631628 0.22482638 -0.45499092 -0.26440603
-0.44993237 -0.3355576 -0.6644635 -0.05027334 -0.30427685 -0.28379852 0.69190013 -0.3097431
0.2167278 -0.81194067 -0.5700261 -0.6184292 -1.3190079 -0.68921626 -0.9237827 -1.5082247
-0.8756768 -0.97454816 -0.8908095 -0.69444764 -2.1458008 -0.8720419 -0.25185654 -1.3813294
-1.5298467 -0.75436664 -1.686282 0.13196363 -0.24941112 -1.0376968 -0.13704792 -0.09855826
-0.16878656 -0.084610395 -0.036537636 0.16000836 1.0210265 0.10816719 0.4550724 0.59971195
-0.09232922 0.18347444 0.5054741 -0.04896162 0.64319116 -0.7310473 0.3303163 0.0623344
-0.46827307 0.65176964 0.46248645 -0.72223157 0.081827015 0.122387715 -0.5124149 0.452631
-0.8349112 -0.23281264 0.6358194 -0.5934051 0.3441391 0.92586035 -0.113974825 0.45587724
0.4519703 0.53089315 -0.068816386 0.085437365 0.015383303 -0.73011386 -0.41007435 -0.92941415
-1.399213 -1.2673064 -0.69223607 -0.7543798 -0.80736005 -0.22233781 -0.26068205 -0.36115426
0.49888915 -0.78113884 -0.21641372 -0.7828512 0.15891704 0.22445065 0.033430684 -0.1881257
-0.15240677 -0.12664679 -0.25442833 -0.59020394 -0.5799339 0.009510594 -0.2900242 -0.5111783
-0.09565376 -0.50302005 -0.7676481 -3.658942 -1.808375 -2.6053343 -3.502266 -0.81172854
-1.8284056 -3.9638014 -1.0311009 -1.8741755 0.57249296 0.5648258 1.1890188 0.46517235
00000000: d1c2 443f e9e9 84be c959 493f 2596 d63e
00000010: 0a60 e9be 3f93 2c3e c162 5d3e 1533 03bf
00000020: af4d 38bc 679d ffbf 4919 b5bf 4ac1 88bf
00000030: 900e 83bf 745d 3cbf 3009 bebe 1992 57be
00000040: 92e6 33be 9777 42bd bd5b 9abf 2535 66be
00000050: 4680 67bf 60c6 9bbf 53bb f63c 0753 a3bf
00000060: 3b3f dcbf 25b3 a6be 33ad f9bf 3d03 03bf
00000070: 1a60 393d da73 02bd e905 81bf 73ac 48bf
00000080: 1617 23bf 2a0c 80bd 9bb2 d2bd 7141 f43d
00000090: dd2d 453f 0ad6 8f3e a5ee 483f 9ad6 043e
000000a0: 0ef4 8abe ac50 d33d 7886 a83e 795d 9cbe
000000b0: 2c2e 343f 3068 d9bd 32e0 15bf 1ad7 03be
000000c0: d270 883e 982f e3be 8966 d73c 3a12 e73d
000000d0: f71e 09bf 4bf1 23bb af18 87bc df3d 34be
000000e0: 4193 d73e dc7f 0b3e dd34 53bd 502a c03e
000000f0: a5d0 853c 15d4 b53c 13fd e53e 7bd7 b33e
00000100: 27aa 013f 2f6d f7be 8057 ef3d 84fe 913e
00000110: e3d9 c6be 4bde 9e3e 3181 103f 8cf4 b23e
00000120: ffe9 dc3e 98e8 92be 7c80 6c3d 2ddd 4e3f
00000130: 8d03 1abd f947 b23e 7f13 283f 9122 c2bb
00000140: 3396 b33e 6ba5 003e c53e 0c3e fc3e 67be
00000150: 694a d2be f97e 01bf 12d1 86bf 5269 95be
00000160: dced 13bf 623b 6cbf 4d11 29c0 62b9 3abf
00000170: 81ec 9fbf 5cd9 ecbf e913 eebe 999c 5abf
00000180: 2cca 0fc0 84c1 1fc0 b4e8 e6bf 8087 04bf
00000190: e828 053f 79b1 eabd 1542 5dbf 1071 d23e
000001a0: 83be f1be 5dab 06c0 d879 a6be 4124 eebf
000001b0: 9c76 d33e 1033 643f 097d 073f 8188 8a3e
000001c0: 4d2c 313f 7f79 e33e be74 e33e 1525 333f
000001d0: 795b a63e d60a 4ac0 5715 b9bf b461 51c0
000001e0: 4b58 e8bf 86c0 28be f3a4 0ec0 81f7 efbf
000001f0: e19f c0be 3f61 19c0 2ec8 1cbf ffbf d4be
00000200: 2342 3dbd dae1 debc fbb3 463d 8e49 cb3d
00000210: 5aea 20be c726 d33e 2d0b 8c3e 6d97 793f
00000220: 0a73 06be f4e7 683d a142 4a3e a136 b8be
00000230: 0c98 92be e338 663e 92f4 e8be 3a60 87be
00000240: 895d e6be 35ce abbe 481a 2abf 6beb 4dbd
00000250: 2dca 9bbe 0a4e 91be 5e20 313f a696 9ebe
00000260: e4ed 5d3e 58db 4fbf 3bed 11bf 6051 1ebf
00000270: 40d5 a8bf 7a70 30bf 067d 6cbf 820d c1bf
00000280: 5b2c 60bf fd7b 79bf 170c 64bf 52c7 31bf
00000290: cd54 09c0 233e 5fbf 57f3 80be 67cf b0bf
000002a0: 04d2 c3bf 2c1e 41bf 17d8 d7bf 7921 073e
000002b0: a165 7fbe 40d3 84bf 4a56 0cbe ead8 c9bd
000002c0: 62d6 2cbe 3748 adbd 7da8 15bd 3bd9 233e
000002d0: ffb0 823f c286 dd3d 40ff e83e b986 193f
000002e0: 1a17 bdbd b9e0 3b3e c066 013f fb8b 48bd
000002f0: 2da8 243f ea25 3bbf 381f a93e 5b52 7f3d
00000300: 7dc1 efbe 60da 263f 06cb ec3e 2be4 38bf
00000310: ec94 a73d 69a6 fa3d 9f2d 03bf 40bf e73e
00000320: bebc 55bf 7066 6ebe 0fc5 223f 66e9 17bf
00000330: 0033 b03e 2f05 6d3f a26b e9bd be68 e93e
00000340: a768 e73e 9de8 073f 9bef 8cbd c9f9 ae3d
00000350: 400a 7c3c bee8 3abf 44f5 d1be 16ee 6dbf
00000360: 6919 b3bf 1937 a2bf 6236 31bf 091f 41bf
00000370: 26af 4ebf 86ac 63be 1e78 85be 36e9 b8be
00000380: 666e ff3e b7f8 47bf 8f9b 5dbe f068 48bf
00000390: 26bb 223e 64d6 653e 9dee 083d 06a4 40be
000003a0: 8510 1cbe b2af 01be 6e44 82be 9b17 17bf
000003b0: 8c76 14bf 53d2 1b3c 0d7e 94be 95dc 02bf
000003c0: 1ee6 c3bd ecc5 00bf 9684 44bf 1b2c 6ac0
000003d0: d578 e7bf ccbd 26c0 2025 60c0 71cd 4fbf
000003e0: 3209 eabf ecae 7dc0 1dfb 83bf fce4 efbf
000003f0: e68e 123f 6c98 103f c531 983f 122b ee3e

weight f4 [32]
1.8944377 2.061202 3.4047635 1.5846846 1.9549108 2.332008 2.5526266 2.1736782
3.0076072 1.5155596 3.382025 2.8674684 1.9797289 1.7268872 3.1408596 1.643946
3.1025214 1.7323687 2.0924044 2.4180593 1.6779832 2.399688 2.6555123 2.4071877
1.3078624 1.6118815 2.4770803 2.4820788 2.8496308 2.0064378 1.5117605 1.5231576
00000000: ef7c f23f bcea 0340 a5e7 5940 f2d6 ca3f
00000010: 843a fa3f 9e3f 1540 3c5e 2340 8b1d 0b40
00000020: a37c 4040 dbfd c13f 1973 5840 9a84 3740
00000030: c267 fd3f a40a dd3f d803 4940 d36c d23f
00000040: b68f 4640 42be dd3f f4e9 0540 7cc1 1a40
00000050: 27c8 d63f 7d94 1940 eaf3 2940 5d0f 1a40
00000060: 0968 a73f 2252 ce3f 7c88 1e40 61da 1e40
00000070: 5a60 3640 7a69 0040 5e81 c13f d4f6 c23f

bias f4 [32]
-0.7057079 -1.3622097 -1.4725226 -0.034520328 -0.19030221 -0.44494322 -0.9263457 0.07103515
-0.32731417 -0.17202643 -1.8235798 -1.0587449 -0.038451277 0.1842338 -1.570889 0.12720351
0.40466028 -0.50522435 -1.873008 -1.0841516 -0.65695256 -0.68063843 -0.7622861 0.3406195
-0.49907246 -0.64217424 -0.47165114 -0.055667996 -0.46638694 -0.496734 -1.0887845 -0.38044158
00000000: 46a9 34bf e35c aebf 9f7b bcbf 3065 0dbd
00000010: 95de 42be 99cf e3be fe24 6dbf e07a 913d
00000020: b995 a7be b227 30be 106b e9bf f484 87bf
00000030: 167f 1dbd c9a7 3c3e e412 c9bf a341 023e
00000040: a22f cf3e 6256 01bf babe efbf 7bc5 8abf
00000050: 0b2e 28bf 523e 2ebf 2f25 43bf ae65 ae3e
00000060: 6d86 ffbe 8865 24bf 427c f1be 2004 64bd
00000070: 45ca eebe eb53 febe 4a5d 8bbf 3dc9 c2be

running_mean f4 [32]
-12.453635 -3.0378091 -2.3709846 -12.546502 1.9399047 -3.964863 -3.367419 -6.8787036
-8.4959755 -5.94781 -5.000402 -8.958292 -5.495608 -6.6576447 -3.2971067 -11.865044
0.66844624 -1.7007887 3.955301 -2.8426173 -4.975401 -21.591484 -2.908779 4.8113055
-5.2124863 3.2052133 -4.512131 -13.876841 -1.3462402 -7.7121286 -7.545786 -7.482136
00000000: 1742 47c1 776b 42c0 36be 17c0 79be 48c1
00000010: cc4e f83f 51c0 7dc0 cb83 57c0 571e dcc0
00000020: 84ef 07c1 7654 bec0 4b03 a0c0 2a55 0fc1
00000030: 05dc afc0 6d0b d5c0 cc03 53c0 38d7 3dc1
00000040: 4b1f 2b3f 72b3 d9bf a723 7d40 71ed 35c0
00000050: 7c36 9fc0 5cbb acc1 6f29 3ac0 37f6 9940
00000060: b0cc a6c0 3722 4d40 6163 90c0 8a07 5ec1
00000070: 9951 acbf c2c9 f6c0 1477 f1c0 a86d efc0

running_var f4 [32]
56.497498 19.442974 43.213963 67.325775 79.38422 42.42994 26.915186 59.075718
84.64941 62.613407 42.732697 71.77414 70.232025 68.86415 52.999943 85.48101
101.76374 34.89648 39.984577 21.569433 48.657196 157.72723 35.89314 84.404564
56.20847 93.12186 61.503864 120.74116 37.921604 57.113987 70.380325 71.18756
00000000: 70fd 6142 368b 9b41 19db 2c42 cca6 8642
00000010: b8c4 9e42 42b8 2942 4d52 d741 894d 6c42
00000020: 7f4c a942 2174 7a42 48ee 2a42 5c8c 8f42
00000030: cc76 8c42 72ba 8942 f1ff 5342 47f6 aa42
00000040: 0987 cb42 ff95 0b42 35f0 1f42 338e ac41
00000050: f8a0 4242 2cba 1d43 9392 0f42 23cf a842
00000060: 79d5 6042 643e ba42 f503 7642 797b f142
00000070: b9af 1742 b974 6442 bac2 8c42 0860 8e42

weight f4 [64, 32, 3, 3]
1.6363378 1.176378 1.2862312 1.21803 0.7273525 0.89547527 1.3940984 0.7810058
1.0140998 -1.3978747 0.22580908 -1.0758173 -0.45398122 0.7975759 -0.19510655 -2.0002549
-0.822605 -1.7749662 0.43766204 0.225576 -0.2002307 0.28108734 -0.01939322 -0.56561404
0.4480409 0.2778452 -0.4689993 -1.9024475 -0.7431514 -1.5790235 -0.9755202 0.22500505
-0.78562707 -1.0137613 -0.06723174 -0.16975805 0.1520531 0.10728767 0.10735652 0.6394675
0.48042887 0.54672664 0.5209965 0.11524806 0.04523405 0.23528537 -0.026282897 0.14673087
0.079766095 -0.2761359 -0.1329204 0.3672768 -0.19924676 -0.19413644 0.6786964 0.06048679
0.33608064 1.1785724 0.25520512 0.51512337 1.7131051 0.42437866 0.39210397 0.93933797
1.5015031 1.2551234 0.039085384 0.6556115 0.082576655 -0.3039249 0.83228064 -0.36488664
-0.47212458 -0.6050089 0.20001052 0.11038029 0.09523893 0.8939726 0.19720274 -0.15525886
0.45329925 0.31295022 -0.06083405 -0.55740005 -0.59697175 -0.7148428 -0.97654647 -1.3654759
-1.169908 -1.3299347 -0.2476623 -0.110744 0.53963464 -0.5711315 -0.7845186 0.347442
0.09801551 -0.17103316 0.854255 -0.3393918 -0.10732449 0.24873483 -0.4317428 -0.5094405
-0.3493785 0.18355106 -0.20655918 -0.31438008 0.83348083 0.57224464 0.33476183 0.35125193
0.21993695 0.08044153 0.3994888 0.56906134 0.9600438 -0.358868 -0.30988774 -0.3004997
-0.5667257 -0.37758598 0.21811768 -0.096730046 -0.3918192 0.16497917 -1.1219474 -0.4716615
-0.93074393 -0.50863546 -0.16451399 0.09231246 -0.4243296 0.14270966 0.4775514 -0.4165476
-0.007279754 -1.0758575 0.5183998 0.8245386 0.039060403 0.15025418 0.5240323 -0.50187576
-0.22711138 -0.018090947 -0.39274308 0.007842455 0.14505607 0.0051362244 0.21766137 -0.022171855
-0.23567021 0.69575346 0.9269234 1.3041557 -0.32375765 -0.15254594 0.003030898 0.20950116
0.12160501 0.11018401 0.7711021 0.22489609 0.5497575 0.21809608 -0.25885984 0.22749965
1.0028087 0.42342192 0.8200439 0.41538176 0.28053302 0.16013035 -0.8937364 -0.71800774
-0.8201518 0.20139025 0.5364204 0.6228476 1.247579 0.514163 1.3688959 0.27165383
-0.2611706 1.0752096 0.41306219 0.45836833 1.520014 -1.5761074 -0.30122298 -1.886834
-0.32874912 0.6755549 -0.44485188 -1.7170708 -0.061554845 -1.6245522 1.3576039 0.8400568
0.33190465 -0.66000897 -1.2358248 -1.5192738 0.063158244 -0.79102623 -1.14024 0.03023545
0.28266206 0.5842501 -0.024059141 0.17010923 0.08739576 0.06574337 0.3584293 0.0038262906
-0.111557685 -0.1625715 0.483692 0.043326005 -0.07774614 0.5359751 0.52275014 0.3707045
0.6690485 -0.1020025 -0.6015065 -0.34776202 -0.3049929 -0.88144374 -0.8363309 -0.47462103
-1.2339655 -1.0481172 -0.538772 -0.8052624 -0.6928624 -0.06824474 -0.2560581 -0.23037538
-0.9000526 -1.0858736 -1.161752 -1.6648146 -1.2561325 -1.8996247 -1.1337605 -0.663001
-1.6367937 -1.3599961 -0.811851 -1.5136979 -1.0480639 -0.23140536 -0.8421006 -0.63228023
00000000: 8473 d13f 8e93 963f 39a3 a43f 68e8 9b3f
00000010: c633 3a3f de3d 653f d171 b23f ffef 473f
00000020: 06ce 813f 8fed b2bf 7f3a 673e 62b4 89bf
00000030: 3a70 e8be ef2d 4c3f 03ca 47be 2d04 00c0
00000040: 3e96 52bf 1832 e3bf 3d15 e03e 65fd 663e
00000050: 4709 4dbe aeea 8f3e 88de 9ebc 15cc 10bf
00000060: 9e65 e53e ba41 8e3e ad20 f0be 6683 f3bf
00000070: 2c3f 3ebf 711d cabf b1bb 79bf b967 663e
00000080: db1e 49bf eec2 81bf cbb0 89bd 0ed5 2dbe
00000090: cfb3 1b3e a3b9 db3d bcdd db3d 24b4 233f
000000a0: c6fa f53e 47f6 0b3f 0760 053f 2d07 ec3d
000000b0: 5747 393d a6ee 703e 3b4f d7bc 9e40 163e
000000c0: 685c a33d af61 8dbe 491c 08be b40b bc3e
000000d0: 5807 4cbe b4cb 46be 0cbf 2d3f ffc0 773d
000000e0: c312 ac3e 76db 963f 3faa 823e 20df 033f
000000f0: 0747 db3f 2948 d93e dac1 c83e 7478 703f
00000100: 4131 c03f e2a7 a03f ff17 203d 28d6 273f
00000110: f31d a93d 0b9c 9bbe 5810 553f 6cd2 babe
00000120: 50ba f1be dde1 1abf 8fcf 4c3e 100f e23d
00000130: a10c c33d 63db 643f 84ef 493e 2efc 1ebe
00000140: d716 e83e 033b a03e 202d 79bd c5b1 0ebf
00000150: 24d3 18bf f0ff 36bf f3fe 79bf eac7 aebf
00000160: 8cbf 95bf 4d3b aabf 309b 7dbe c0cd e2bd
00000170: 7f25 0a3f ad35 12bf 36d6 48bf ebe3 b13e
00000180: 5bbc c83d 5123 2fbe 75b0 5a3f c3c4 adbe
00000190: f1cc dbbd 58b4 7e3e 640d ddbe b16a 02bf
000001a0: bde1 b2be cff4 3b3e 4084 53be 6df6 a0be
000001b0: 005f 553f a07e 123f e765 ab3e 4bd7 b33e
000001c0: 2737 613e 87be a43d cc89 cc3e 01ae 113f
000001d0: 6ec5 753f 8cbd b7be 9ba9 9ebe 19db 99be
000001e0: ef14 11bf f352 c1be 3e5a 5f3e 671a c6bd
000001f0: 879c c8be 4df0 283e f99b 8fbf 9e7d f1be
00000200: 3c45 6ebf ef35 02bf 5b76 28be 510e bd3d
00000210: bb41 d9be 7b22 123e 9e81 f43e ba45 d5be
00000220: 018b eebb b3b5 89bf d9b5 043f f614 533f
00000230: cdfd 1f3d 3bdc 193e fb26 063f ee7a 00bf
00000240: e38f 68be 7733 94bc 9f15 c9be a47d 003c
00000250: 9489 143e c64d a83b 9fe2 5e3e c0a1 b5bc
00000260: 8853 71be e61c 323f da4a 6d3f 93ee a63f
00000270: 90c3 a5be 0135 1cbe 08a2 463b 7987 563e
00000280: 0c0c f93d 27a8 e13d f266 453f 294b 663e
00000290: e8bc 0c3f 9454 5f3e 4789 84be abf5 683e
000002a0: 095c 803f c2ca d83e 66ee 513f ebac d43e
000002b0: 06a2 8f3e 36f9 233e e9cb 64bf 5bcf 37bf
000002c0: 78f5 51bf 3f39 4e3e d952 093f f172 1f3f
000002d0: abb0 9f3f 30a0 033f fb37 af3f 3616 8b3e
000002e0: 27b8 85be 78a0 893f e37c d33e 41af ea3e
000002f0: d28f c23f e3bd c9bf e639 9abe c783 f1bf
00000300: ce51 a8be 2af1 2c3f a0c3 e3be fac8 dbbf
00000310: ef20 7cbd 54f1 cfbf f7c5 ad3f f60d 573f
00000320: 68ef a93e 59f6 28bf 822f 9ebf 9077 c2bf
00000330: 1c59 813d b280 4abf 62f3 91bf 56b0 f73c
00000340: 15b9 903e 6a91 153f ad17 c5bc 1d31 2e3e
00000350: 8cfc b23d 76a4 863d 0c84 b73e 81c2 7a3b
00000360: 5b78 e4bd 2579 26be 7aa6 f73e 9c76 313d
00000370: 5e39 9fbd aa35 093f f4d2 053f fbcc bd3e
00000380: c346 2b3f b0e6 d0bd 54fc 19bf dd0d b2be
00000390: 0828 9cbe 4ca6 61bf c819 56bf 8701 f3be
000003a0: 95f2 9dbf b428 86bf f6ec 09bf ad25 4ebf
000003b0: 6e5f 31bf e6c3 8bbd 0c1a 83be 86e7 6bbe
000003c0: d969 66bf e8fd 8abf 4ab4 94bf a518 d5bf
000003d0: f3c8 a0bf e726 f3bf 101f 91bf 6fba 29bf
000003e0: 7582 d1bf 5a14 aebf 78d5 4fbf dac0 c1bf
000003f0: f526 86bf 87f5 6cbe e893 57bf 1edd 21bf

weight f4 [64]
1.0306726 1.5280733 1.5685937 1.4336814 1.3358096 1.1965802 1.9053979 1.5095876
1.3947879 1.0254214 1.2461759 1.3439137 1.1412047 1.3962919 1.4687438 1.7551013
1.6295075 0.9956285 1.4029244 1.3762966 1.0626394 1.5251498 1.5752664 1.5015341
0.9033494 1.596178 1.4573971 1.3562679 1.2811216 1.1623518 1.4096938 1.1033975
0.94098413 1.6405344 1.4608744 1.6387742 1.3606585 0.9485057 1.7485236 0.87701046
1.667279 1.2259746 1.2904699 0.9421936 1.5871928 1.3474393 1.4724022 1.3625793
1.0917792 1.6266245 1.0238272 1.4923635 1.3214495 0.9430723 1.534188 1.8045143
1.3117235 0.92435455 1.4110935 1.412238 1.408222 1.1817666 1.0206165 1.3139918
00000000: 14ed 833f e897 c33f aec7 c83f df82 b73f
00000010: cffb aa3f 8a29 993f 14e4 f33f 2b3a c13f
00000020: 6988 b23f 0241 833f b182 9f3f 5d05 ac3f
00000030: ff12 923f b1b9 b23f ccff bb3f 29a7 e03f
00000040: b493 d03f 82e1 7e3f 0793 b33f 7d2a b03f
00000050: 9104 883f 1c38 c33f 54a2 c93f 4532 c03f
00000060: e841 673f 904f cc3f fd8b ba3f 309a ad3f
00000070: cbfb a33f f2c7 943f d970 b43f 213c 8d3f
00000080: 56e4 703f 08fd d13f effd ba3f 5ac3 d13f
00000090: 0f2a ae3f 45d1 723f 9fcf df3f c283 603f
000000a0: 6669 d53f bcec 9c3f 1e2e a53f 9a33 713f
000000b0: 2229 cb3f e478 ac3f ad77 bc3f 0069 ae3f
000000c0: 6cbf 8b3f 3b35 d03f c50c 833f c405 bf3f
000000d0: 4225 a93f 306d 713f 4660 c43f 53fa e63f
000000e0: 8ee6 a73f 80a2 6c3f b69e b43f 37c4 b43f
000000f0: 9e40 b43f 2144 973f 90a3 823f e230 a83f

bias f4 [64]
-1.1518521 -1.1151613 -1.4741881 -0.88336456 -1.0474792 -1.0490476 -1.4895244 -1.2609459
-0.42491245 -0.8360601 -1.1216713 -1.0182654 -0.8103052 -1.071717 -0.8140746 -1.3329173
-1.3814319 -1.0294877 -0.52211404 -0.89279366 -1.0492384 -1.270855 -1.4337659 -1.1784292
-0.9293029 -1.314054 -1.0791273 -0.3787599 -1.6191275 -0.71747077 -0.8393203 -0.5836277
-0.6543304 -0.97582734 -1.2053617 -1.111517 -1.0558065 -0.75188965 -1.4205825 -0.96214986
-1.2679245 -1.0953809 -1.2027353 -0.78407264 -1.4620224 -0.55489284 -1.2192603 -0.9456247
-0.5101702 -1.0725114 -0.8122443 -1.2307369 -1.1338756 -0.50423163 -1.3349283 -1.6149684
-1.4673319 -0.74032086 -1.5718968 -0.9007717 -0.30581215 -0.9606979 -0.79967314 -0.7787504
00000000: e46f 93bf 9bbd 8ebf 32b2 bcbf 2e24 62bf
00000010: cc13 86bf 3147 86bf bca8 bebf ad66 a1bf
00000020: 208e d9be 0908 56bf ed92 8fbf 8556 82bf
00000030: 2970 4fbf 062e 89bf 3167 50bf 099d aabf
00000040: c3d2 b0bf 41c6 83bf 44a9 05bf 208e 64bf
00000050: 724d 86bf 60ab a2bf a485 b7bf c5d6 96bf
00000060: cbe6 6dbf ec32 a8bf d820 8abf d1ec c1be
00000070: 923f cfbf 2aac 37bf b2dd 56bf a068 15bf
00000080: 3282 27bf d2cf 79bf 4b49 9abf 3046 8ebf
00000090: ab24 87bf d77b 40bf a6d5 b5bf 744f 76bf
000000a0: 5a4b a2bf 7135 8cbf 3bf3 99bf fcb8 48bf
000000b0: 8d23 bbbf 750d 0ebf b910 9cbf 7614 72bf
000000c0: 849a 02bf 0e48 89bf 3eef 4fbf c988 9dbf
000000d0: d622 91bf 5315 01bf eede aabf 49b7 cebf
000000e0: 88d1 bbbf ab85 3dbf ea33 c9bf f998 66bf
000000f0: 6993 9cbe 4cf0 75bf 61b7 4cbf 305c 47bf

running_mean f4 [64]
-31.927423 -33.800205 -14.884906 -19.220402 -6.2618504 -25.57828 -14.442028 -12.652049
-30.5967 -17.689753 -17.686178 -16.733017 -9.849749 -41.9385 -33.572144 -12.543781
-14.011642 5.702881 -24.45937 -35.62603 -34.721058 -28.479067 -18.912312 -2.118375
-43.2404 -30.767374 -13.487253 -35.330402 2.6418498 -16.707794 -27.645416 -28.661652
-11.247479 -6.202643 -15.779529 -7.429268 -32.81371 -12.8011 -6.244043 6.985968
-10.307907 -27.625496 -11.479144 1.1144725 -37.14856 -36.650524 -22.728481 -21.364498
-23.692919 -8.825647 -32.136738 -20.986073 -22.187403 17.742525 -23.164928 -14.797826
-15.260347 -15.136664 -3.37308 -34.017864 -42.79169 -9.490008 -25.988853 -16.573633
00000000: 5d6b ffc1 6933 07c2 9328 6ec1 62c3 99c1
00000010: 1461 c8c0 51a0 ccc1 8c12 67c1 cb6e 4ac1
00000020: 0bc6 f4c1 9d84 8dc1 4b7d 8dc1 38dd 85c1
00000030: 9298 1dc1 06c1 27c2 e049 06c2 54b3 48c1
00000040: b02f 60c1 007e b640 caac c3c1 0e81 0ec2
00000050: 5de2 0ac2 21d5 e3c1 6a4c 97c1 7593 07c0
00000060: 2bf6 2cc2 9523 f6c1 cacb 57c1 5552 0dc2
00000070: 1114 2940 90a9 85c1 d029 ddc1 104b e5c1
00000080: adf5 33c1 0d7c c6c0 f378 7cc1 90bc edc0
00000090: 3d41 03c2 4ed1 4cc1 33cf c7c0 0d8d df40
000000a0: 30ed 24c1 0401 ddc1 93aa 37c1 09a7 8e3f
000000b0: 2098 14c2 239a 12c2 eed3 b5c1 7eea aac1
000000c0: 198b bdc1 da35 0dc1 058c 00c2 7ae3 a7c1
000000d0: cd7f b1c1 b1f0 8d41 c651 b9c1 e5c3 6cc1
000000e0: 622a 74c1 c72f 72c1 8be0 57c0 4b12 08c2
000000f0: b12a 2bc2 13d7 17c1 2ce9 cfc1 cd96 84c1

running_var f4 [64]
331.10446 507.7848 197.49945 306.23242 343.62778 261.74567 447.1699 186.15808
666.2945 291.08685 386.79233 360.4835 204.73053 538.83765 510.77756 301.13138
368.47076 253.63954 609.4106 568.1568 369.13705 336.82892 224.99123 343.79578
254.53831 364.1041 127.05574 605.4022 246.9603 193.79434 495.74893 435.68008
352.21808 210.70969 485.38605 230.8223 444.605 405.06937 198.48882 243.44629
291.95227 434.10675 305.57974 362.3875 341.10773 572.18225 310.87653 530.91895
447.12622 189.33597 349.41522 285.52036 418.0257 342.21707 326.94012 204.9948
213.67438 318.00684 325.6186 274.38184 806.19525 343.9904 361.3863 327.65985
00000000: 5f8d a543 74e4 fd43 dc7f 4543 c01d 9943
00000010: 5bd0 ab43 72df 8243 bf95 df43 7828 3a43
00000020: d992 2644 1e8b 9143 6b65 c143 e33d b443
00000030: 04bb 4c43 9cb5 0644 8763 ff43 d190 9643
00000040: 423c b843 b9a3 7d43 475a 1844 090a 0e44
00000050: 8b91 b843 1a6a a843 c1fd 6043 dce5 ab43
00000060: cf89 7e43 530d b643 8a1c fe42 be59 1744
00000070: d6f5 7643 5acb 4143 dddf f743 0dd7 d943
00000080: ea1b b043 aeb5 5243 6ab1 f243 82d2 6643
00000090: 714d de43 e188 ca43 237d 4643 4072 7343
000000a0: e4f9 9143 aa0d d943 35ca 9843 9a31 b543
000000b0: ca8d aa43 aa0b 0f44 3270 9b43 d0ba 0444
000000c0: 2890 df43 0256 3d43 26b5 ae43 9bc2 8e43
000000d0: 4a03 d143 c91b ab43 5678 a343 abfe 4c43
000000e0: a4ac 5543 e000 9f43 2ecf a243 e030 8943
000000f0: 7f8c 4944 c5fe ab43 72b1 b443 76d4 a343

weight f4 [6, 64]
0.68215436 0.21969593 -3.456561 -1.7518328 0.3679792 -1.0855037 0.6495568 -3.910093
0.25000972 0.9045011 1.4748074 0.86228514 -0.9525728 -0.25279376 0.14527246 0.35366496
0.6219747 1.4681903 0.6131156 -0.15612468 0.08489553 -1.0641998 -2.5787277 -1.0628912
0.67787385 -4.8231015 -3.2441828 0.06907175 -6.791448 1.6181056 0.5499086 0.40492865
0.23847303 -0.42599764 0.31802705 -5.0987267 0.07035854 0.62034506 -5.3193383 1.4277724
0.51667446 0.88911724 0.15902671 -0.79458654 -4.937115 -0.038400605 3.368192 0.20042504
-0.30332235 -1.8943423 0.4953026 -1.6772116 2.218677 -0.66533303 -1.326124 -5.537662
-0.25303444 -0.08060113 -1.2508751 3.1719365 0.114787385 0.9136191 1.7761598 1.0805165
-1.6959121 -0.9496584 1.5456246 0.44635022 0.23070845 -0.6411549 1.055581 1.2597117
-1.2499375 -0.548572 -1.6277813 -0.009234636 -0.0802521 1.910501 -1.3150758 0.59403545
0.19003965 -0.8022172 -1.8604387 2.190268 -1.0248157 0.5464566 0.7181783 0.03648802
-0.7220755 0.23197654 1.1062922 -1.1482967 -0.5689089 -0.6455754 -0.46573308 -0.2312499
0.34152517 -0.24466088 0.8306589 0.29106316 2.6301384 -1.339475 0.6774471 -0.92197067
0.46312886 -0.16277747 -0.5220897 0.014753564 0.5168631 0.4209486 0.87839407 -0.03632574
0.8267862 1.5353774 -0.5778243 0.6238385 0.46161535 0.24229082 1.2084072 -0.026777422
-0.5382192 0.7224022 -0.35087296 -0.061436333 -2.060516 -0.8665063 -0.40054625 0.5294338
0.7333065 -1.7565823 0.58436257 -0.78468573 0.2554278 -0.4482656 1.4565842 -1.1451486
-0.5241198 0.34320867 0.4475567 1.2137852 0.93826973 -0.1774271 -0.9522546 0.24612394
1.0994272 0.49333876 0.28616083 0.007537738 1.2721107 0.17555688 0.6142602 -0.3072494
1.1790016 -0.22351138 -0.45678174 0.15881819 0.88646114 -0.018315554 0.39120984 -0.81944865
0.6198104 -0.6131806 0.28257143 0.24422212 -0.92908955 0.37799922 0.2371545 -0.6232096
0.12609182 0.9192137 0.65295506 0.4979711 0.22021477 0.6072622 -1.696964 0.8073269
-0.82242554 -1.179215 0.54753786 -1.1145545 1.1329156 -0.7188126 -1.6839963 0.08190568
-1.5344065 -0.2617743 -1.731431 0.050242513 0.15968366 -0.74829197 0.7452983 -0.34646276
0.5131737 0.47515553 -0.88507974 -0.42527595 0.61869776 0.60211325 -0.005429828 0.44685447
-0.07971721 -0.4341827 0.2674059 0.20483682 -0.43397725 0.34037447 0.69553 1.4005612
0.3911306 -0.6168648 -0.39995492 -0.33218256 0.67341375 -0.9387041 -0.89386505 -1.6662624
-0.5203548 0.47801176 -0.719494 -0.6448104 0.63516223 0.06575428 -1.6434902 0.4519823
-0.56984335 -0.16316329 0.89672375 -0.19578129 0.11760794 -0.16945657 -0.45081443 0.6165281
1.1966563 -1.1777989 1.668229 -0.26612636 -0.16615419 0.078902505 -1.2748346 -1.187831
-0.62143624 -0.0240449 -0.48747674 0.29096738 -0.4313307 0.6114347 1.036588 0.40115514
0.04257391 -1.1851187 -0.11078383 -0.16562892 0.28941646 0.48555738 0.046162404 0.7158031
00000000: aba1 2e3f f8f7 603e 4c38 5dc0 0f3c e0bf
00000010: c567 bc3e c9f1 8abf 5b49 263f f73e 7ac0
00000020: 4601 803e 628d 673f 7dc6 bc3f b8be 5c3f
00000030: d0db 73bf 2f6e 81be 4ec2 143e 9313 b53e
00000040: bc39 1f3f a9ed bb3f 25f5 1c3f 26df 1fbe
00000050: b5dd ad3d b337 88bf e009 25c0 d20c 88bf
00000060: 2489 2d3f d956 9ac0 b1a0 4fc0 7d75 8d3d
00000070: 8b53 d9c0 161e cf3f cfc6 0c3f cf52 cf3e
00000080: 4632 743e 5d1c dabe 71d4 a23e c528 a3c0
00000090: 2318 903d efce 1e3f 0538 aac0 3fc1 b63f
000000a0: c744 043f 309d 633f e6d7 223e 066a 4bbf
000000b0: d9fc 9dc0 f449 1dbd 7590 5740 393c 4d3e
000000c0: 114d 9bbe cf79 f2bf 4d98 fd3e dfae d6bf
000000d0: cefe 0d40 4453 2abf 6ebe a9bf 8734 b1c0
000000e0: bb8d 81be 3512 a5bd ad1c a0bf 0201 4b40
000000f0: a615 eb3d f1e2 693f 3459 e33f 5d4e 8a3f
00000100: a613 d9bf d01c 73bf 07d7 c53f 0488 e43e
00000110: d63e 6c3e ba22 24bf 471d 873f 3c3e a13f
00000120: f4fd 9fbf 376f 0cbf 235b d0bf df4c 17bc
00000130: 375b a4bd 4c8b f43f 6754 a8bf b512 183f
00000140: c199 423e 1b5e 4dbf db22 eebf 5a2d 0c40
00000150: 292d 83bf 94e4 0b3f 88da 373f 7674 153d
00000160: f1d9 38bf 428b 6d3e fc9a 8d3f 63fb 92bf
00000170: 03a4 11bf 6e44 25bf 9174 eebe c6cc 6cbe
00000180: 63dc ae3e 6288 7abe 10a6 543f 3b06 953e
00000190: 3054 2840 eb73 abbf 2c6d 2d3f 4506 6cbf
000001a0: 3a1f ed3e 23af 26be aca7 05bf efb8 713c
000001b0: 2451 043f 9386 d73e 6fde 603f 4dca 14bd
000001c0: 43a8 533f 3f87 c43f 4bec 13bf e1b3 1f3f
000001d0: d958 ec3e 161b 783e 16ad 9a3f 535c dbbc
000001e0: bcc8 09bf 5aef 383f 9fa5 b3be aaa4 7bbd
000001f0: 7fdf 03c0 5bd3 5dbf 6614 cdbe f988 073f
00000200: fab9 3b3f b0d7 e0bf c998 153f 2ae1 48bf
00000210: 6fc7 823e 1283 e5be 5a71 ba3f 3b94 92bf
00000220: b72c 06bf 0cb9 af3e 2726 e53e 505d 9b3f
00000230: 7232 703f 73af 35be f5c6 73bf ea07 7c3e
00000240: 08ba 8c3f e696 fc3e ac83 923e 21ff f63b
00000250: 86d4 a23f 2fc5 333e 2840 1d3f cb4f 9dbe
00000260: 86e9 963f 2be0 64be 4cdf e9be 3ca1 223e
00000270: 1eef 623f 800a 96bc a84c c83e 63c7 51bf
00000280: e5ab 1e3f 67f9 1cbf 34ad 903e 5d15 7a3e
00000290: d0d8 6dbf 1d89 c13e a1d8 723e aa8a 1fbf
000002a0: 371e 013e 9751 6b3f 1028 273f 11f6 fe3e
000002b0: fb7f 613e 8975 1b3f 1e36 d9bf faac 4e3f
000002c0: 7b8a 52bf 84f0 96bf 712b 0c3f b9a9 8ebf
000002d0: 6103 913f 1a04 38bf 318d d7bf 2abe a73d
000002e0: 6f67 c4bf 4807 86be 889f ddbf 18cb 4d3d
000002f0: 1d84 233e 1090 3fbf dfcb 3e3f 9163 b1be
00000300: 5a5f 033f 9647 f33e 9694 62bf c5bd d9be
00000310: fa62 1e3f 1824 1a3f b3ec b1bb 1cca e43e
00000320: c742 a3bd 324d debe 6de9 883e bec0 513e
00000330: 4432 debe 9045 ae3e 410e 323f 9745 b33f
00000340: 4542 c83e daea 1dbf e4c6 ccbe d513 aabe
00000350: d864 2c3f e94e 70bf 57d4 64bf 1648 d5bf
00000360: f935 05bf f5bd f43e c230 38bf 4b12 25bf
00000370: fe99 223f 2eaa 863d e35d d2bf 396a e73e
00000380: 41e1 11bf 4714 27be b08f 653f e47a 48be
00000390: 6fdc f03d 0686 2dbe 26d1 e6be c9d4 1d3f
000003a0: 092c 993f 1dc2 96bf 8788 d53f b741 88be
000003b0: 5324 2abe a397 a13d c82d a3bf d90a 98bf
000003c0: 7216 1fbf cff9 c4bc 8d96 f9be adf9 943e
000003d0: 61d7 dcbe fc86 1c3f eaae 843f 3564 cd3e
000003e0: fb61 2e3d f8b1 97bf a2e2 e2bd a19a 29be
000003f0: 652e 943e fa9a f83e ca14 3d3d df3e 373f

bias f4 [6]
0.24948396 -0.2093471 0.014072426 0.009153237 -0.02855697 0.17746241
00000000: b978 7f3e 165f 56be 0890 663c 75f7 153c
00000010: 4ff0 e9bc b5b8 353e
