encoding_test_v13/models/cnn_models/QP32_32x32.pt (torch, 209464 bytes, 27 tensors)

weight f4 [16, 1, 3, 3]
00000000: 6e95 f8be cc28 9bbe 892f 8abe d344 10bf
00000010: fd1b a0be ccb2 8f3e b88c 093d 396c 2e3f
00000020: c71e 6e3f 3aa4 5d3f 8752 52bf efb6 5dbe
00000030: 9f1b 9b3e 9fc5 7abf 612a 8abd 2f75 e63d
00000040: 788a 183f 8e8e 463e f66a 0e3f 6802 20bf
00000050: c890 66bc 5b9d 24bf 4529 c0be 4e8d 173f
00000060: 73bf 6e3e 1e9a 0cbf 8daf 4d3f 99f6 f33e
00000070: 8ec9 ca3e f7d5 aa3d 3bd2 c13e b290 d1be
00000080: ce08 46bf e8e5 123f 9aa1 903d 8fc0 4cbf
00000090: 63f9 483e e45a e6be 7288 3ebf 9f1d 263e
000000a0: edd5 2fbe 4277 8cbe 2019 933f 1a91 9cbc
000000b0: a175 123e ada3 313f 8aa7 163f c247 2b3f
000000c0: 12dc b8be f3c1 20bd 8fbe 56be 69dc 09bf
000000d0: 55c3 16bf 1383 5fbe 04cc 76bf 71b0 303f
000000e0: 5e6b 5f3e 1570 23bc 8f4f c73d 0581 e1bc
000000f0: 3888 673f 3a0d 32bf 501b 6cbe 4155 51bf
00000100: c10d 993e c7d7 4b3e 025f 813f 3343 533e
00000110: efa9 2ebf 5210 32bf 2714 aa3e f756 343e
00000120: 69d8 eb3d c8a4 fdbe c0b7 bfbe c71a 903f
00000130: d4c0 203e c921 e13d eaf3 423e 77a5 41bf
00000140: e7ad d2bd 864a 08bf 83da a13d ba18 473f
00000150: 7bf1 3bbf d2c1 4aba e7e5 ed3e 42f0 22bf
00000160: a595 563d 224f 063f 4f72 a23f 714c 2fbd
00000170: 25f2 303e 89cd c03d 5c6d b53d 97a5 c8be
00000180: 37e3 59be 24e3 eabe 8c3c 07bf d907 713f
00000190: 09d4 873e 2117 1a3f 38c0 6dbf dbc2 dcbd
000001a0: fc17 e7be 18fb 79bd ca3a 04bf 5841 6e3e
000001b0: 0223 bcbe 09a3 12bf 337b 633f 4020 743e
000001c0: 3252 36bf 930e 4a3f 0b5c 093e a693 1dbf
000001d0: cf83 593e 93f2 2bbe dc1a eb3e e5ea 8cbe
000001e0: 2c85 953e 73a5 95bc 5f78 3f3f d46d f3bf
000001f0: d3c9 74bf b821 debe d667 db3d bba3 2abf
00000200: 0a98 18bf 9d92 94be d7db fe3e ff40 98be
00000210: 382f 2cbe ddc6 ed3e ef5d 6c3f 6094 fdbe
00000220: 5504 00bf b281 a8be 85ab 5abe a971 023c
00000230: 883d d2be b17d 293f cc2b 4a3f 1f7e fb3e
-0.48551506 -0.30304563 -0.2698939 -0.5635502 -0.31271353 0.280661 0.033581465 0.68133885
0.9301571 0.86578715 -0.82157177 -0.21651815 0.3029451 -0.97957796 -0.067463644 0.1125282
0.59586287 0.19390318 0.5563196 -0.6250367 -0.0140726045 -0.64302605 -0.37531486 0.5919999
0.2331522 -0.54922664 0.80345994 0.47649077 0.396069 0.08341592 0.37855706 -0.40930706
-0.77357185 0.5738206 0.07062073 -0.7998132 0.19626383 -0.4499122 -0.7442695 0.16222237
-0.1717145 -0.27434736 1.1492043 -0.019112159 0.14302684 0.69390374 0.58849394 0.6690637
-0.361054 -0.039247464 -0.2097113 -0.53851944 -0.58891803 -0.21827345 -0.96405053 0.6901923
0.21818301 -0.009975453 0.097319715 -0.027527342 0.9044223 -0.6955143 -0.23057294 -0.8177071
0.29893306 0.19906531 1.0107119 0.20631103 -0.6822805 -0.6955615 0.332185 0.176113
0.11515886 -0.4953978 -0.37444878 1.1258172 0.15698558 0.10992772 0.19038358 -0.75643104
-0.102870755 -0.53238714 0.07903006 0.77772105 -0.73415345 -0.000773457 0.46464464 -0.63647854
0.052388806 0.524645 1.2691134 -0.04279751 0.17279871 0.09414203 0.08858749 -0.39188835
-0.21278082 -0.4587642 -0.5282676 0.941526 0.26528957 0.6019154 -0.9287143 -0.10779353
-0.45135486 -0.061030477 -0.51652205 0.23267114 -0.3674546 -0.5728002 0.8885986 0.23840427
-0.7121917 0.7892849 0.13414018 -0.6155342 0.21241687 -0.16791753 0.4591893 -0.2752296
0.29203165 -0.018267369 0.74793047 -1.9017892 -0.9562046 -0.433851 0.107131645 -0.6665608
-0.59606993 -0.29018107 0.497771 -0.29737088 -0.16814888 0.46440783 0.9233083 -0.49527264
-0.5000661 -0.3291145 -0.21354492 0.007961669 -0.4106257 0.66207415 0.7897308 0.4911966

weight f4 [16]
00000000: 5fef 903f dfeb a83f 7bc6 903f 8aa7 a33f
00000010: 01a6 563f 0120 893f 166e 763f 7f0d 8a3f
00000020: b8f6 7d3f 6181 cd3f b096 1c3f 43be 903f
00000030: 0936 c93f 5b27 f33e 2769 1a3f c77f ae3f
1.132305 1.3196982 1.1310571 1.2785504 0.8384705 1.0712892 0.9626173 1.0785369
0.9920459 1.6055108 0.6116743 1.1308063 1.5719615 0.47490963 0.603167 1.3632745

bias f4 [16]
00000000: b939 9f3d 64da 33bf 6d2c 8f3f b255 1a3f
00000010: 55db e93d eae7 2c3f 3392 dfbe 1b24 41bf
00000020: 2083 a03f 6462 623f 478d 1e3d a45a 14bf
00000030: d569 23bf f13c d6be 6d3d a6be 1a81 633f
0.077746816 -0.7025511 1.1185433 0.6028701 0.114187874 0.6754137 -0.4366623 -0.7544572
1.2540016 0.8843138 0.03870895 -0.57950807 -0.6383336 -0.4184337 -0.3246874 0.8886887

running_mean f4 [16]
00000000: 6e75 24bc c84a efbc 4758 03bd 592b 23bc
00000010: 64a7 66bc 354e 16bc 4de7 94bb 3a80 d93c
00000020: 41b9 edbb 933e 80bb 3c83 2cbc 6adc fbbc
00000030: f3f7 abbc 3cf2 52bf dc11 f5bb 4c11 49bb
-0.010037763 -0.029210463 -0.03206661 -0.009959065 -0.014077995 -0.009173919 -0.0045441748 0.026550401
-0.00725475 -0.0039137094 -0.010529336 -0.03074475 -0.020992255 -0.8240087 -0.0074789356 -0.0030680476

running_var f4 [16]
00000000: d39d 453d e02b b73c a64a 983c 223b 2f3d
00000010: b691 3b3d 6b1c 483d 3c2d 873b 94da cc3b
00000020: 3899 d53c a5c3 5f3d d1bd 333d e39d fa3c
00000030: af2a ee3c 627d ae3e 9d89 df3c d3db 423d
0.048246216 0.022359788 0.018590283 0.042781003 0.045793258 0.048855226 0.0041252654 0.0062516425
0.026074037 0.05462994 0.043882195 0.030592864 0.029073087 0.34080034 0.027287299 0.047572922

weight f4 [32, 16, 3, 3]
00000000: 0e98 15be 8d9a b0be dce0 65be 3587 e0be
00000010: e65d d0be 9820 b5be d20d 8e3e 94f6 a7be
00000020: e9f6 23bf 892b 1cbe 89eb 8f3d 0428 aabe
00000030: 52e0 6bbf eb9a 09bf ed80 ccbd 88df 9abf
00000040: 3ecf 77bf c532 81bd 1fc2 0abf 61e7 88be
00000050: 7fb0 49be 8531 fabd 83f3 ae3c 0722 223f
00000060: 8ce2 143e 5b4d 52bd ddfa 423e d625 9fbe
00000070: dbac 97bf d79c 42bf c51f a13f 33ab 813e
00000080: 957a 3f3d 0bab babe 1693 ffbe aa45 613d
00000090: 146f cbbd 999d 54be 03b0 b13d d512 2abd
000000a0: d3d8 9ebe 93cb d3ba ab2f 0d3f e414 e63d
000000b0: 1397 6e3e 6f3d eabf f713 f9bf e677 f7bf
000000c0: 66f0 a8ba 3932 f1be 8f6b 12bd 1da0 9d3e
000000d0: b6dc 39be cf7e b53e 65bd 5dbf c0bd 5bbe
000000e0: 916a 0a3d 5e23 22bf 3350 2abf fd1b 55be
000000f0: bb73 3abf c3ad 08bf c24c 5fbf f643 08be
00000100: e0ea 30bf 4605 46bf f2ca f13d cd4c f6be
00000110: 65e9 aebe 8419 17be e461 2abf 66fa 13bb
00000120: 554a 203d 6331 48be 1f02 303e 9993 debd
00000130: 2fe1 22bf 2d7f b53d bb4f d83e 2dac 4c3d
00000140: 2cda 3b3f 8c27 cabe d72b a8bf 6842 d6bf
00000150: 3a77 e5bd 97df 1fbf b974 1dbf caaf 043e
00000160: f9fd 11bf 9290 8cbe 10cd eebd 0b62 f0be
00000170: 34bb 86bf e292 d0bc 9f25 47bf 1e62 21bf
00000180: b935 1a3e b180 a8be 6312 bcbe bf7c 55be
00000190: ccc5 25bf ad21 00bf 74b7 f23d 9772 febe
000001a0: fd48 8abe 3ee5 093e 4dca f33d a111 96be
000001b0: a7d4 53be d3df 3ebf f9a8 153e 4b3e 8b3e
000001c0: df18 36bf 594d c6bd 7c96 923d 8f6c 1bbf
000001d0: 11ef 1abf c895 5e3d 097b a43d 659f 853e
000001e0: 80f0 81bc 001c 963d f103 f13e 926e 33be
000001f0: e0da 50be e0df 53bc fd47 43be 4f50 74be
00000200: a43e 6fbe f8b0 25bf 2768 0cbf 88d6 08be
00000210: 19e3 bfbe fe46 c1be 4d87 1ebe 9b8f 203e
00000220: 208d 333e a743 173f b52b f7bc e31b 373e
00000230: e000 1d3f d229 1dbe 655d f63e c365 213f
00000240: 33aa 6a3d ce76 18bf 05c7 963e 898f 66be
00000250: 912d 75be 4673 36bf 7097 1f3f 7784 823d
00000260: 0396 91bf 6d0a 063e d27e cbbe 30fa 62bf
00000270: 3468 f5be e0e0 94bd ba63 9cbc 797b d7be
00000280: aa99 3a3e f222 3f3f 9148 7d3f 9e6d 1a3f
00000290: b438 3c3e b92e dfbe a309 a73d d50a 6ebe
000002a0: bc0b 90bd d214 a5bd 62dc adbf ad6a e0bf
000002b0: b391 40bf b6ca 6bbf 5c46 87be 22da 95bd
000002c0: c448 5e3d a7b2 6b3e d938 3e3f a740 8a3f
000002d0: 3b37 a93e c141 64bd f0c1 6ebf 4a8c 333e
000002e0: 721b 0a3e 779d 8ebe ebe1 acbe 7a59 d93c
000002f0: 5f2a 233f f03c aabf aad7 bbbe fb81 e5be
00000300: 9d76 e2be 81f1 733e 69a8 cc3e 563f c5be
00000310: 1d4d 53bd c809 2c3f f30c 8ebe 79d6 863e
00000320: e626 d5bd 0ac1 053e d4f7 bfbe c1c3 ecbd
00000330: 550b 7abe df10 913e e5f7 c13e b4c4 74bf
00000340: d6d0 0abe 8362 fc3d 888f 463e 5fe5 9f3d
00000350: 1bf7 13be fff9 a2be 3a23 543d bba5 0abf
00000360: 97b0 86bf 7964 75be 8ef0 8fbe 3e83 28bd
00000370: 389d 533e ad12 8f3e 8a29 0e3d 92da b33e
00000380: 5e46 0a3f c717 f53e cb18 1e3f 83fe 443d
00000390: e3e4 9d3d 2017 4c3e 88e2 5a3e 9024 26bf
000003a0: 0fa3 8cbf eb84 16bf e39c 66bf a596 46bf
000003b0: b9c5 2abe 9b29 5ebe b728 7dbe ce96 ec3d
000003c0: ccbf 7d3e e57b ba3d f301 95be ac1a 313f
000003d0: f67e 4f3e c9a2 64bd 5f64 64bf faa5 adbe
000003e0: 3f61 5dbe 6c03 a9bf 6d5e 04be ea58 a13e
000003f0: 9670 063f 45d2 f4be 604b 4dbe 76e4 113e
-0.14608786 -0.34492913 -0.22449058 -0.43853155 -0.4069664 -0.3537643 0.2774492 -0.32805312
-0.6404863 -0.15250982 0.07027347 -0.33233654 -0.9213916 -0.5375201 -0.09985528 -1.2099466
-0.968006 -0.06308512 -0.54202455 -0.26739028 -0.19696234 -0.12216476 0.02135635 0.6333317
0.14539546 -0.051343303 0.19041009 -0.31083554 -1.1849626 -0.7602057 1.258782 0.25325927
0.046747763 -0.3645862 -0.49916905 0.054998077 -0.09933296 -0.20763244 0.0867615 -0.041521866
-0.310248 -0.0016158692 0.5515086 0.11234453 0.23299818 -1.8299998 -1.9459218 -1.9333465
-0.0012889027 -0.4710863 -0.035747107 0.3078622 -0.18150601 0.3544831 -0.8661712 -0.21459103
0.033793036 -0.63335216 -0.66528624 -0.20811458 -0.7283284 -0.5339014 -0.872265 -0.13307175
-0.6910839 -0.77351797 0.11806287 -0.4810547 -0.3416244 -0.14755827 -0.6655562 -0.002257967
0.03913339 -0.1955009 0.17188309 -0.10867996 -0.6362485 0.088621475 0.4224833 0.049968887
0.7337978 -0.39483297 -1.3138379 -1.6739016 -0.11204381 -0.62450546 -0.6150623 0.12957683
-0.57028157 -0.27454048 -0.11660206 -0.469498 -1.052588 -0.025460664 -0.7779178 -0.6304034
0.15059556 -0.32910684 -0.36732778 -0.20848368 -0.6475494 -0.50051385 0.11851397 -0.496968
-0.2700881 0.13466355 0.1190382 -0.29310325 -0.20686589 -0.7456028 0.14615239 0.27195963
-0.711317 -0.09682722 0.07157609 -0.6071252 -0.60521036 0.05434206 0.080312796 0.2609817
-0.01586175 0.07329559 0.4707332 -0.17522648 -0.20395994 -0.012931794 -0.1907043 -0.2385876
-0.23363739 -0.6472316 -0.54846424 -0.13363087 -0.3747795 -0.37749475 -0.154813 0.15679781
0.17534304 0.59087604 -0.030172208 0.17881732 0.6132946 -0.15347984 0.4811813 0.630459
0.05729122 -0.5955628 0.29448715 -0.22515692 -0.23943163 -0.71269643 0.6234045 0.06372922
-1.1373905 0.13089915 -0.39745194 -0.88663006 -0.47931063 -0.07269454 -0.019090522 -0.4208639
0.1822268 0.746627 0.9893885 0.6032351 0.18381006 -0.43590334 0.08156135 -0.2324632
-0.07033488 -0.08060612 -1.358288 -1.7532555 -0.7522232 -0.9210619 -0.26420867 -0.07316996
0.054268613 0.23017369 0.7430549 1.080098 0.3304995 -0.05572677 -0.93264675 0.17533985
0.13487032 -0.2785451 -0.33766112 0.026531924 0.6373653 -1.3299847 -0.36687976 -0.4482573
-0.4423112 0.23822595 0.39972237 -0.38524884 -0.051587213 0.67202425 -0.27744254 0.26335505
-0.1040781 0.1306192 -0.37493765 -0.115607746 -0.24418385 0.28333184 0.3788444 -0.95612645
-0.13556227 0.12323477 0.1939069 0.07807421 -0.14449732 -0.31831357 0.051791407 -0.54159135
-1.0522641 -0.23964109 -0.28113216 -0.041140787 0.20665443 0.27943936 0.034707583 0.35127693
0.5401362 0.47869703 0.6175658 0.048094284 0.07709672 0.19930696 0.21375477 -0.6489954
-1.0987262 -0.58796567 -0.9008314 -0.77573615 -0.16676988 -0.21695559 -0.24722563 0.11552201
0.24780196 0.09105662 -0.2910305 0.69181323 0.20263276 -0.055819307 -0.89215654 -0.33915693
-0.21619128 -1.3204169 -0.12926646 0.3151315 0.5251554 -0.47816673 -0.20048285 0.14247307

weight f4 [32]
00000000: 6af0 e13e ebb7 173f 82cb 433f b960 263f
00000010: 51c3 173f 6dca 173f afd1 2b3f 540a fc3e
00000020: 1e01 273f bef2 5c3f af58 493f 6dc0 0b3f
00000030: 78b8 3f3f d29f 123f e8b9 2a3f 1985 483f
00000040: 61a9 393f e9d3 133f 118d 6d3f 06d4 453f
00000050: 2769 d53e 1a64 3f3f d043 633f 525d f83e
00000060: 318c 3b3f 316c cd3e 5556 3e3f 9c56 f63e
00000070: 2f0a 453f f369 763f 0775 9e3e 141b 573e
0.44128734 0.5926501 0.76482403 0.6499134 0.59282404 0.5929325 0.67116827 0.4922663
0.6523608 0.86307895 0.78650945 0.54590493 0.7489085 0.57275116 0.6668992 0.7832809
0.72524077 0.57745224 0.92793375 0.7727665 0.41681787 0.7476212 0.8877535 0.48508698
0.7326079 0.40121606 0.7435048 0.48112953 0.76968664 0.96255416 0.3094866 0.21006423

bias f4 [32]
00000000: c106 d6bd dd0b fcbd 8b87 5cbe 7f8f 48be
00000010: 83fb 61be bd11 4dbe b46f fcbe 9eaa 11be
00000020: cda2 30be 7d42 e1be 3619 bcbe 8743 5fbe
00000030: e3a6 44be 8c14 d1be 9a59 a4bd 1695 6fbe
00000040: 2714 16be e98f adbd 1460 e03b c186 203e
00000050: 5459 233e 1dab c3be 5d3c a4be 69bb a2bd
00000060: ad7d 6abe 1a6c 39be d161 05be 50a8 9e3e
00000070: e42d 6fbe 632d 2ebe 37da b33e f91b 513f
-0.10450507 -0.1230695 -0.2153608 -0.1958599 -0.220686 -0.20026298 -0.49303973 -0.14225242
-0.17249604 -0.4399604 -0.36737984 -0.21803103 -0.19204287 -0.4083599 -0.08024903 -0.23396716
-0.14656125 -0.08474714 0.006847391 0.15676405 0.15952045 -0.38216487 -0.32077304 -0.07945902
-0.22899504 -0.18107644 -0.13025595 0.30987787 -0.2335735 -0.17009501 0.35127422 0.8168331

running_mean f4 [32]
00000000: efc7 26c1 3cec adc0 d7d4 31c1 cc9b 7ec0
00000010: 9f61 c5bf 888b 78c0 49d1 8bc0 5eec 19c0
00000020: c0c7 d2bf 3787 b0bf f647 81c0 eeab 9dc0
00000030: ae9e c4c0 1c53 11c1 0021 8dc0 d8a5 5cc1
00000040: 6a2e 92c0 1178 27c0 a99e 47c1 4b45 52c1
00000050: 2478 08c0 b94e c4c0 b189 8abf dd15 1cc1
00000060: 1b02 5cc1 c3f2 cebf c447 d3bf e310 29c0
00000070: 58e1 b5c0 aab4 0bc1 8e41 4bc1 d99a 74c0
-10.423812 -5.435087 -11.114463 -3.978259 -1.5420417 -3.8835163 -4.3692975 -2.4050517
-1.6467209 -1.3791264 -4.0400343 -4.9272375 -6.14437 -9.08279 -4.4102783 -13.790489
-4.568166 -2.6167033 -12.476235 -13.141917 -2.1323328 -6.1346097 -1.082327 -9.755338
-13.750514 -1.6167835 -1.6506276 -2.6416557 -5.683758 -8.731607 -12.703505 -3.8219512

running_var f4 [32]
00000000: ae52 6d42 3b45 c041 1c86 a742 dafd 6542
00000010: d338 5041 5763 1242 3998 1b41 b6a3 c041
00000020: 2258 3342 be78 be41 b990 d841 6dde d841
00000030: a1e7 2242 dcec 7741 afe9 4642 dd0a 4a42
00000040: c364 5242 7df7 9241 1719 9342 9138 f842
00000050: 08f1 ed41 3808 1842 6ad6 4742 ce9d 2642
00000060: 05d9 6242 f4f0 b741 1745 2e42 18ec 4b41
00000070: d02e 6f42 4e77 9142 e856 3b42 a673 6942
59.33074 24.033804 83.76193 57.497902 13.013873 36.59701 9.724664 24.079937
44.836067 23.808956 27.070665 27.108606 40.7262 15.495327 49.728207 50.51061
52.5984 18.370844 73.549 124.11048 29.742691 38.008026 49.95939 41.654106
56.711933 22.992653 43.56747 12.74514 59.795715 72.73302 46.83487 58.362938

weight f4 [32, 32, 3, 3]
00000000: 2f4c 93be 2a8b 86be d14b 4dbe 102a 49be
00000010: c49f 583d 21f7 ab3e 0305 a9be 9fea f1bd
00000020: 23a5 5c3e a047 d6be 2e00 8fbd f324 10bf
00000030: fb4f 91be 3168 82be 5ae6 98be 6c9f 163f
00000040: 2332 043f d993 833f ae67 34bf f957 71bc
00000050: 669e 9f3e 3490 8fbe 742e b0bd 3bd6 96be
00000060: 964b 763e 1e47 7abe 104d 82be b5ac 03bf
00000070: 40b7 34bf 179a 27bf 5639 44be c121 02bf
00000080: 112a 8bbe 5b12 5d3f 886f 343f cc84 a53f
00000090: d279 acbf 1d70 43bf cfb9 56bf 7d88 803e
000000a0: caf0 2c3e c2fa a03e b3b5 ac3e 23f7 d43d
000000b0: aa30 893e 55af 8fbe 0d8f 83be 59d1 35bf
000000c0: 4810 dc3d db1d 8abd 0d5f a3be 86f4 353f
000000d0: af25 c03e 4237 643f 560e d7be 3c69 a13d
000000e0: 1e84 5abe f3c8 053e 0c8c 0a3f dd76 d53d
000000f0: 2dbd 153f cf46 473f 99c7 89bb 19ae a7be
00000100: 1e25 00be d3e8 e63e 0aab 47be c3e0 8a3e
00000110: 76a6 c23e 9411 45bf 4128 85bf 818e 06bf
00000120: c719 e8be ed8a 613d 4889 3b3e ac0c 9c3d
00000130: d408 493e 06e5 bf3c 9436 933e be9a b83d
00000140: 5ae0 d63e 1418 44bf 1749 863e 8ad7 473e
00000150: 6fc7 00bf b3ce 24be bdd4 ecbe e25d 773f
00000160: d8ad 183f 5824 c7bd 0b32 0cbf c488 56be
00000170: 25bd 3d3e 99e3 79be db23 bd3c 5a9d 62bf
00000180: b21e 0b3f 0d8d 0a3f 24a0 8cbe 7e6e 52bf
00000190: faa5 60be 35bb 25bf 2b92 4ebd 09d5 9e3b
000001a0: 49b0 9ebd c904 163f 4613 063f de9b 2b3f
000001b0: 620e 04bf 5a20 d9bd 7044 f9bd 7300 55bf
000001c0: 4675 a9be b30a 5dbe 4deb 783e fee0 dc3e
000001d0: 6722 9b3e 101d 71bd 0176 6c3e 0428 923e
000001e0: 76b5 08bf 9be6 7a3e 5c69 393e 5f74 acbd
000001f0: 9e24 873e cb4e 9c3e cb52 17be e3f6 a43d
00000200: 0491 f8bd 7860 34be b52a 103e bb8c a53e
00000210: d789 8abe 31db b6be eff0 1abd 4dc2 33bf
00000220: 2c64 2fbf 4b45 08bf 169e c2be 0fac 2dbe
00000230: 07e4 70be 458a 693f 2e89 a73f feaa 8a3f
00000240: 5236 93be cdf6 a03e f385 303e c181 d0be
00000250: e776 94be 270d d0be bf63 6a3e c9fc 8abc
00000260: 9300 2abe c71f cb3c 039f d4bd db86 6ebf
00000270: 6cd8 bebd 009a a9be 2d42 97be 54ca b63e
00000280: b372 2d3e a02c 973f 09ac 973f dd6c 933f
00000290: ffa4 703f a2fe a83e 3655 aebe 2f85 e0bd
000002a0: c5a2 09be 8b95 84bf 565d 28bf 3cbf bf3e
000002b0: 207d 153f 5a2a e43e 7a34 44bf 1e7c 08bf
000002c0: 5ba2 0abf 7176 2abf a48c 833b 8107 03be
000002d0: c5f9 0f3e af81 b0be 150f 543d 59d0 debd
000002e0: b623 33bf 0f0c f4be 9fa9 fe3e 9e41 273f
000002f0: 1c13 863e d858 7dbc ca11 51be 14a5 3dbf
00000300: 0ebf 3a3e 3dc1 c9be 30bd 15bf ef5a 133f
00000310: a39d 423f 08f7 af3f cb14 7cbf 8970 4dbf
00000320: 67e3 48bf 064e b2bd a88a 493d f3f4 703d
00000330: 9cc5 3c3f 9f22 0b3f 0499 273f caab cbbf
00000340: 363e 54bf 5724 77bf 188f 2ebf 4ee1 4cbd
00000350: 3f43 9ebe 990b 993f 4ef7 b23f 7cb3 303f
00000360: f6d0 293f 291d 6d3f 5cdc 323f 198b 62bf
00000370: 9c5b ff3d e6ca 32bd d757 a9bf 8aea 83be
00000380: b6e9 2ebf 9f9a 1abf dc26 94be 2ed3 d5be
00000390: a35a e5be 17cf aabd 46af 12bf 9292 bf3e
000003a0: 68bf 8d3e bbad 0d3e 359a 3abf f375 23bf
000003b0: b908 6bbf 0669 9cbe c281 76be cb0c a9be
000003c0: 3999 043f dff1 0d3f bd58 9f3f 1d1f e63e
000003d0: ffb9 e1bc 7a3a 3bbf b4e9 dc3e bde4 06bf
000003e0: dfa9 cbbe 705e 2d3f a7f1 583e 9b19 bf3f
000003f0: 622f ac3d 9c90 80bd e2e5 a3be 1d37 e43e
-0.2876906 -0.2627805 -0.20048453 -0.19644952 0.05288674 0.33586982 -0.33011636 -0.118123285
0.2154737 -0.4185152 -0.06982456 -0.5630638 -0.28381333 -0.25470117 -0.29863244 0.5883701
0.51639 1.0279495 -0.704707 -0.014730447 0.31175536 -0.28039706 -0.0860261 -0.2946032
0.24052271 -0.24441192 -0.2544942 -0.51435405 -0.7059212 -0.654695 -0.19162497 -0.50832754
-0.27180532 0.86356133 0.70482683 1.2931151 -1.3474677 -0.76342946 -0.8387727 0.25104132
0.16888729 0.31441313 0.33732376 0.103987 0.2679494 -0.28063455 -0.25695077 -0.71022564
0.10745293 -0.06743976 -0.31908455 0.7107624 0.3752875 0.89146817 -0.42003125 0.078814
-0.21339461 0.13064937 0.54119945 0.10423062 0.58491784 0.7784242 -0.004204702 -0.32750013
-0.12514159 0.45099506 -0.1949884 0.27124605 0.38017625 -0.7697995 -1.040291 -0.52561194
-0.45332167 0.05506413 0.18314087 0.076196045 0.19632274 0.023424637 0.28752577 0.0901389
0.41968042 -0.7659924 0.26227638 0.19515815 -0.5030431 -0.16094474 -0.46256056 0.9662763
0.59640265 -0.09723729 -0.5476386 -0.2095061 0.18529184 -0.24403228 0.023088386 -0.8852135
0.5434371 0.54121476 -0.27465928 -0.8219985 -0.21938315 -0.6473878 -0.050432365 0.004847173
-0.077484675 0.5860105 0.5237316 0.6703471 -0.51584446 -0.10601874 -0.121712565 -0.8320381
-0.33097285 -0.21586113 0.2430851 0.43140405 0.30299684 -0.058865607 0.2309189 0.28546154
-0.5340189 0.24502032 0.18106598 -0.084206335 0.26395124 0.30528864 -0.14777677 0.080549024
-0.121370345 -0.17614925 0.14078791 0.3233393 -0.27058288 -0.35714105 -0.03782743 -0.70218354
-0.68512225 -0.5323073 -0.38011235 -0.16960166 -0.23524486 0.9122661 1.3088739 1.0833433
-0.2875238 0.31438294 0.17238598 -0.40723994 -0.28996965 -0.40635034 0.22889613 -0.01696624
-0.16601782 0.024795426 -0.103818916 -0.93174523 -0.09318623 -0.33125305 -0.29542676 0.3570124
0.16938286 1.1810493 1.1849376 1.1517597 0.94001764 0.3300677 -0.34049386 -0.10962903
-0.13440998 -1.0358137 -0.6576742 0.37450588 0.5839405 0.44563562 -0.7664257 -0.5331439
-0.54153985 -0.6658698 0.0040145684 -0.12795831 0.14060123 -0.3447394 0.051772196 -0.10879583
-0.69976366 -0.4766545 0.49738786 0.653345 0.26186454 -0.0154630765 -0.20416942 -0.74080014
0.18236944 -0.39405242 -0.584918 0.5756063 0.76021785 1.3747263 -0.9846923 -0.8024984
-0.7847199 -0.08706288 0.0492045 0.05882735 0.7373903 0.543497 0.6546786 -1.5911801
-0.82907426 -0.96539825 -0.68187094 -0.050019555 -0.3091068 1.1956664 1.3981721 0.6902387
0.66334474 0.9262262 0.6986749 -0.88493496 0.12468645 -0.04365053 -1.3229932 -0.25764877
-0.68325365 -0.60392183 -0.28935897 -0.4176268 -0.44795713 -0.083402805 -0.57298696 0.37416512
0.27685094 0.13835804 -0.7289155 -0.6385185 -0.91810185 -0.30548877 -0.24072936 -0.33017573
0.517963 0.5544719 1.2448956 0.44945613 -0.02755451 -0.73136103 0.4314705 -0.52692777
-0.3977804 0.67722225 0.21185933 1.4929689 0.08407475 -0.06277582 -0.32011324 0.44573298

weight f4 [32]
00000000: 3d86 a43f 3861 ca3f 4791 bf3f 3051 953f
00000010: 9a3b a43f fc2d 513f f971 ce3f d90b c13f
00000020: 623c e53f 2051 c13f 3ed4 603f e6ce 663f
00000030: 08ed b23f b8fc 473f 480c b13f 0fa7 c73f
00000040: d0bc 6a3f 4224 bf3f e15a 4c3f 1ff9 b63f
00000050: 8b7b a53f 827d 873f 10e2 ac3f f579 973f
00000060: 5390 7c3f e233 843f c478 3e3f b820 2e3f
00000070: 934b cd3f 6f58 443f d1a8 2a3f 7150 b53f
1.2853466 1.5810919 1.496621 1.1665401 1.2830689 0.8171079 1.6128532 1.5081741
1.7909052 1.5102882 0.87823856 0.9015945 1.3978586 0.78119993 1.3831873 1.5597857
0.91694355 1.493294 0.7982617 1.4294776 1.2928327 1.0585177 1.3506489 1.1834093
0.9865772 1.0328333 0.74403024 0.68018675 1.6038688 0.7669744 0.66663843 1.4165174

bias f4 [32]
00000000: 62d0 9dbd 121a eebe fb40 46bf f8cc 00bf
00000010: 6888 1abe 3c05 85bd aa8a 19bf 22cd 33bf
00000020: a10f 1dbf d636 3ebf 75f8 02bf 64ef a83d
00000030: 86b8 6dbf 4bea 85be 0695 d83e 0c18 5cbd
00000040: 3056 4cbe 4a1b 21bf 4e97 6fbe 0650 aa3e
00000050: 1c9b 8ebe 453e ebbe 1677 99be f27e 583e
00000060: fcfc 80be fe28 e7be b259 aebe 97c5 88be
00000070: b9ed 15bf ebc6 cfbe b87b 12bf 6dce e1be
-0.077057615 -0.46504265 -0.774429 -0.5031276 -0.15091097 -0.06495139 -0.5997721 -0.7023488
-0.6135197 -0.74302423 -0.51160365 0.08248785 -0.92859685 -0.26155314 0.42301196 -0.05373387
-0.19954753 -0.62932265 -0.23397562 0.33264178 -0.27852714 -0.45945945 -0.29973668 0.21142176
-0.25193012 -0.45148462 -0.34052807 -0.2671325 -0.5856586 -0.4058145 -0.5722003 -0.44102803

running_mean f4 [32]
00000000: 463b 0840 239f 18c0 01ea 75bf c527 493d
00000010: dc3c 17bf f757 7d40 1662 15c0 52b5 5840
00000020: 36c6 0440 aa15 403f f618 93be 4802 2740
00000030: 215e d740 0040 2dbf 970e d4bf c920 aec0
00000040: f84e 7dc0 b4df 8dc0 7080 0e40 d2f4 54be
00000050: 941b a53f bc07 09c1 09a4 19bf 2097 1ac0
00000060: c5fa 7d40 f800 f03f a4ae f2bd d1e2 3440
00000070: 580e cebf 753a d9c0 e40c 98bf b1ab cfbf
2.1286178 -2.384713 -0.96060187 0.049110193 -0.5907724 3.958494 -2.3341117 3.386067
2.0745978 0.75033057 -0.2872998 2.6095142 6.7302403 -0.6767578 -1.6566952 -5.441502
-3.9579449 -4.4335575 2.2265892 -0.20796517 1.2899041 -8.564388 -0.6001592 -2.415474
3.9684308 1.8750296 -0.11849716 2.8263438 -1.6098127 -6.788386 -1.1878934 -1.6224271

running_var f4 [32]
00000000: d34a 4941 937f c341 046b 8541 0474 dd41
00000010: c493 a141 84ec 0242 e8f4 5841 6e88 9b41
00000020: 06f3 9641 b243 8241 5f73 8d41 6cfc 9641
00000030: 730b 5541 cd03 f341 7df6 0042 6045 1d42
00000040: ddef 9941 99d2 0742 fffc a541 911e b341
00000050: 86da 9841 7d53 9641 f068 2c41 f02c a841
00000060: ebda 9f41 de1e c741 fc9d ca41 379e ed41
00000070: 1ab2 aa41 9137 f541 9044 6341 2026 d941
12.580768 24.437292 16.677254 27.681648 20.197151 32.730972 13.559792 19.441616
18.868664 16.283054 17.681334 18.873253 13.315295 30.376856 32.24071 39.31775
19.24212 33.95566 20.748533 22.389925 19.1067 18.790766 10.7756195 21.021942
19.981894 24.890072 25.32714 29.702253 21.336964 30.652132 14.204239 27.143616

weight f4 [32, 32, 3, 3]
00000000: 1ce3 843f d925 de3c f74f 403f 4ee9 053f
00000010: ede4 bdbe 2147 f43d 5ff1 833e 5a48 01bf
00000020: b8ae 06be 8a15 a5bf fb65 78bf 83e4 41bf
00000030: df0c 33bf d967 11bf 287f c6be c97c b3bd
00000040: 6fec 63be e7af 72be dcc9 49bf d4a7 d4be
00000050: b92f 29bf 08a0 3bbf bd12 6dbe fcf1 89bf
00000060: 3938 70bf 740a cdbe 60e1 d5bf add0 babd
00000070: ba22 3ebc 2af2 16be 1f0c 54bf 1782 5ebf
00000080: b318 23bf 687f 1ebe 71ac 70be 74b7 443d
00000090: ae0c 4f3f 5810 d93e 6164 543f 2c04 0fbe
000000a0: c0f5 e0be 110e 86be d9f1 9d3e deac cebd
000000b0: 0ad8 dc3e 02f7 3cbe 5d59 cebe fb5e cbbc
000000c0: 5df3 e8bd 9aca 1dbf 5d9a 72bd 00f6 0fbe
000000d0: 6188 2bbf bfb4 b13c 513b d3bd 206d 82be
000000e0: 2da0 563e 8c2a c53d 5131 92be 137e 523e
000000f0: 095d da3d 328c 413c 93d8 0f3f fed4 583e
00000100: 0500 d73e b352 89bd f324 683d cd96 2f3e
00000110: a331 5cbe 84fa bd3e 0fc6 0a3f 15f5 813e
00000120: fdf4 003c 7196 c7be 48da cb3c c152 b73e
00000130: 1ac0 f8bd 5290 8b3e b754 2f3e 9a5d 46be
00000140: 3cae 403e 60c5 ba3e c7f9 3f3e 1fbc 8abe
00000150: 1db5 56be 2cdd 6dbe f97c 52bf 3cff afbe
00000160: 4b30 a7be 0dd4 34bf 6fdd d5bf de10 95be
00000170: 6f6a 38bf d1f6 debf 7e66 c5be 71df 01bf
00000180: 2413 ddbf d33c d3bf 26cb b9bf bfbe 80be
00000190: 0ac3 d33e 99af 823e d690 ffbe ed82 a93e
000001a0: 8e1a 77be 504e 82bf 7648 debd 8591 a5bf
000001b0: 145e ba3e 7e04 2d3f f108 723e 5656 df3e
000001c0: 2343 143f 6cab 8c3e 72f2 f33e d17d 043f
000001d0: c221 873c fcd2 20c0 23ff b1bf fe90 2ac0
000001e0: 516c b9bf 822b 0cbf 4aff f5bf fd30 cfbf
000001f0: 41d8 6abf 4272 fabf a3f3 c0be 31d6 84be
00000200: d0c6 95bb cc45 e33b b366 543d 4cb4 943d
00000210: ba18 74be 17bf 3e3e 5e94 a83d dced 3e3f
00000220: 96d0 94be ab44 38be d491 873d b833 b3be
00000230: 8bf5 c8be ca99 093e e37d b8be 351c abbe
00000240: b030 093d c86f 4a3d 9076 5abe 7964 2f3d
00000250: 7317 16be 2f39 5a3d 0a2f f93e e430 03be
00000260: ad91 d03e 97b0 8dbf 87d0 44bf 0802 4dbf
00000270: 9151 a4bf 422a 2abf b7a0 5abf e0ca babf
00000280: a2ec 61bf e05b 83bf 69a6 f6be 175d ecbe
00000290: 6755 adbf c906 fbbe d02d 59be 7c8a 68bf
000002a0: 6628 30bf 5d25 91be 89ad 49bf 97ee a13e
000002b0: 5fad e9bd b159 58bf ecf8 f03d 80af 0fbe
000002c0: 8fb5 b6be 67aa 283e ef8b 24be 75d5 8fbe
000002d0: 34bf 733f 9000 0d3e 623f 413e f38a 153f
000002e0: e6a2 82bd e0c4 063e ac96 103f f71d 4b3d
000002f0: 60fd ee3e 045d b5be 0788 ce3e 384e ad3e
00000300: 43ad 82be 8f86 253f 76bd 3e3f 64c7 0abf
00000310: 4462 523e d700 d23e 102c 1fbe 1d9e 4d3e
00000320: 7830 23bf 99f9 abbb dfae 5c3e 457b 33bf
00000330: 11a8 cc3e 3542 bc3e b8d5 afbe 5830 923e
00000340: 4bef 953e fcb9 bc3e dc08 39be 719f 983c
00000350: a863 6b3c 17de 92be 2723 4bbd 3902 bbbe
00000360: 3c1b 28bf ee63 23bf 0fde 0dbe d277 3abf
00000370: 9aa1 28bf 8b96 08be eb7b 88be fc2f 54be
00000380: 5aa1 1c3f 0b39 17bf 9c19 1abf 3140 93bf
00000390: c6eb 0a3d 178d 4cbe 668a c1be e7ce 9dbe
000003a0: fc49 c9be 0687 c3be 22bb a93d a46f 23be
000003b0: b81d 1dbe aa46 b63e 0078 463d 22ee 11be
000003c0: 81f3 923e ec1b 4fbd c25f 82be 2c21 14c0
000003d0: ebc1 9ebf 2436 10c0 b8ad 23c0 05cc 41bf
000003e0: f6c0 efbf a7e0 35c0 e420 61bf 7a48 fcbf
000003f0: 6f88 133f 5fbd d83e afcc 803f f0b3 e73e
1.0381808 0.027117657 0.75122017 0.5230912 -0.3708872 0.11927629 0.2577009 -0.50501025
-0.13152587 -1.2897198 -0.9703061 -0.75739306 -0.69941515 -0.56799084 -0.38768888 -0.08764035
-0.22258161 -0.23699914 -0.7882364 -0.41534293 -0.66088444 -0.73291063 -0.2315168 -1.0776973
-0.9383579 -0.40047038 -1.6709404 -0.09121833 -0.011604959 -0.14740816 -0.82830995 -0.8691725
-0.63709563 -0.15478289 -0.23503281 0.048026517 0.8087872 0.42395282 0.82965666 -0.13966435
-0.43937492 -0.26182607 0.30848578 -0.100915655 0.43133575 -0.18453601 -0.40302554 -0.024825564
-0.11374543 -0.6163727 -0.059229244 -0.14058685 -0.6700497 0.021692632 -0.10314048 -0.2547388
0.2095954 0.09627256 -0.2855325 0.20555906 0.10662276 0.01181321 0.5618984 0.21175
0.41992202 -0.06705227 0.056675863 0.1714737 -0.2150331 0.3710519 0.54208463 0.25382295
0.00787091 -0.38981965 0.024884358 0.35805324 -0.121460155 0.27258545 0.1712216 -0.19371644
0.18816465 0.3647871 0.18747626 -0.2709665 -0.20967527 -0.23228902 -0.82221943 -0.34374416
-0.32654032 -0.70636064 -1.6708201 -0.2911443 -0.72037405 -1.7419072 -0.38554758 -0.5073157
-1.7271466 -1.6502937 -1.4515121 -0.25145528 0.4135974 0.25524595 -0.4991519 0.331077
-0.24131224 -1.0180149 -0.108536646 -1.2935034 0.363999 0.6758498 0.23636223 0.43620557
0.5791494 0.27474535 0.4764591 0.5175448 0.01649559 -2.5128775 -1.3905987 -2.6650996
-1.448618 -0.5475389 -1.9218533 -1.6186825 -0.9173623 -1.9566119 -0.3768588 -0.25944665
-0.0045708194 0.0069358107 0.051855754 0.072609514 -0.23837557 0.18627582 0.08231424 0.74581695
-0.29065388 -0.17994945 0.066196114 -0.35000396 -0.39249834 0.13437572 -0.36033544 -0.33419958
0.033493698 0.04942301 -0.2133429 0.042820428 -0.14657383 0.05327719 0.486687 -0.12811619
0.40736142 -1.1069516 -0.7688069 -0.80081224 -1.2837392 -0.6647073 -0.8540148 -1.4593163
-0.882517 -1.0262413 -0.48173836 -0.46164772 -1.3541688 -0.49028614 -0.21208882 -0.9083631
-0.68811643 -0.28348818 -0.7878042 0.31627342 -0.11410021 -0.8451186 0.11766228 -0.14031792
-0.35685393 0.16471253 -0.16069005 -0.28092542 0.9521363 0.13769746 0.18871835 0.58415145
-0.06378727 0.1316104 0.5647991 0.049589124 0.46677685 -0.35422528 0.40338156 0.3384874
-0.25522813 0.64658445 0.74507844 -0.54210496 0.20545298 0.41016266 -0.15544152 0.20079847
-0.6374583 -0.00524826 0.21551083 -0.7010997 0.39971974 0.36769262 -0.34342742 0.28552508
0.2928413 0.36860645 -0.18069786 0.018630715 0.014367022 -0.28685066 -0.04959407 -0.36525133
-0.65666556 -0.63824356 -0.1385424 -0.7283908 -0.65871584 -0.13338678 -0.26657042 -0.2072143
0.611837 -0.59071416 -0.60195327 -1.1503965 0.033916257 -0.19975697 -0.37800902 -0.30821916
-0.39314258 -0.38188952 0.08287646 -0.15960556 -0.15343368 0.35600787 0.048454285 -0.14250997
0.28701404 -0.050563738 -0.25463682 -2.3145247 -1.2402929 -2.2533045 -2.557478 -0.75701934
-1.8730762 -2.8418367 -0.8794081 -1.9709618 0.57630056 0.4233198 1.0062464 0.4525447

weight f4 [32]
00000000: 2942 c53f 8cd7 fa3f 1aae 4240 09ad c03f
00000010: 7050 e83f f8be 0240 fd4b 0040 17da 0940
00000020: 1a95 2b40 2ced b63f 926a 3b40 412a 1b40
00000030: 7e1e d43f b4b8 d43f 0a6f 3140 1137 ab3f
00000040: 77cf 3340 cccd d43f 2416 e13f a420 1040
00000050: ced8 c43f f8ef 0140 9d6f 1f40 7dd9 1140
00000060: a6ac a43f 2616 a63f 927c 0640 fed0 0140
00000070: 87ba 2740 c53f f83f dad3 b13f 1cdf a63f
1.5410815 1.959703 3.0418763 1.5052806 1.8149548 2.0429058 2.004638 2.1539361
2.6809754 1.4291129 2.9283795 2.424454 1.6571805 1.6618867 2.7724023 1.337618
2.8095376 1.6625304 1.7584882 2.2519922 1.5378664 2.0302715 2.4911873 2.2788994
1.2865188 1.2975509 2.1013532 2.0283809 2.6207597 1.9394461 1.3892777 1.3036838

bias f4 [32]
00000000: a665 00bf 87ea 88bf d62e 85bf 0aeb 1fbe
00000010: a5bd 7cbe 884d cbbe ac64 3cbf 8dee 50be
00000020: f346 0bbe a11e 7bbe e360 b8bf 62a6 53bf
00000030: 85a0 6abe 5592 573e 0018 9fbf e57f 443e
00000040: 68bd 8b3e 5c20 2cbf 7505 d9bf e883 85bf
00000050: 7f4d f3be 3fda a4be 3f56 04bf ede2 e53e
00000060: 68c8 18bf e821 d4be 0c40 8bbe 2f9b a1bd
00000070: 81c4 f3be 5e02 03bf 5c6d 67bf 9ad5 a1be
-0.50155103 -1.0696572 -1.0404918 -0.15617004 -0.24681719 -0.3970759 -0.73591113 -0.204035
-0.13601284 -0.24523403 -1.4404567 -0.82675755 -0.22912796 0.21051915 -1.2429199 0.19189413
0.27292943 -0.67236876 -1.695479 -1.043088 -0.47520062 -0.3219776 -0.516941 0.44899693
-0.59680796 -0.41432118 -0.271973 -0.07890927 -0.47610858 -0.5117549 -0.90401244 -0.31608278

running_mean f4 [32]
00000000: 373f 08c1 292f 37c0 a3de fdbf 9929 3dc1
00000010: 2931 cf3f 8292 61c0 e1a9 d9bf 48f5 d7c0
00000020: 3b2b ddc0 c879 c4c0 3832 6ec0 1296 f1c0
00000030: 2a59 8bc0 6ee4 9fc0 ba5c ddbf 327d dec0
00000040: 2a7f 03bc abcf c4bf 078f 8040 3ad1 20c0
00000050: 6fdc 6fc0 f4aa 9fc1 4a9f 55c0 2f59 f53f
00000060: d528 0abe 9ffe e440 7510 88c0 9144 2ac1
00000070: a577 91bf 2a69 aec0 f2d2 90c0 6f95 b2c0
-8.515433 -2.8622534 -1.9833568 -11.822656 1.6186877 -3.5245671 -1.7004968 -6.7486916
-6.911527 -6.139866 -3.721815 -7.549569 -4.3546343 -4.9966345 -1.7293923 -6.9527826
-0.008025924 -1.5375875 4.0174594 -2.5127702 -3.7478292 -19.958473 -3.3378472 1.9167842
-0.13492139 7.1560817 -4.252009 -10.64174 -1.1364638 -5.4503374 -4.52575 -5.5807414

running_var f4 [32]
00000000: 7a80 0542 574c 8041 13fd dc41 07b5 2f42
00000010: 88c0 6342 fe90 d541 27ab 8741 d169 0742
00000020: f114 7f42 7e43 3242 e4ef ca41 3502 2942
00000030: a8d5 2242 4326 3942 a5ea e041 76d0 6042
00000040: f40e 5042 94bd 9c41 cc52 d741 8b8e 8241
00000050: c671 0842 6ff7 ae42 4366 e741 e676 5442
00000060: e6c5 ff41 a520 7d42 b064 2c42 54c0 9f42
00000070: 104c f441 d702 0d42 a770 2142 7e32 2042
33.375465 16.037275 27.623571 43.926785 56.93802 26.695797 16.95857 33.853336
63.77045 44.56591 25.367134 42.252155 40.70865 46.287365 28.114573 56.203575
52.014603 19.592567 26.915428 16.319601 34.111107 87.48327 28.924932 53.11611
31.97163 63.28188 43.098328 79.87564 30.53714 35.252773 40.360012 40.04931

weight f4 [64, 32, 3, 3]
00000000: a069 af3f a2bd 743f 3362 983f 81d5 803f
00000010: 1d20 ed3e d75a 483f 4b7e 9d3f 67e1 203f
00000020: 430d 783f 2571 aabf cca6 2bbf 1dd4 a5bf
00000030: e1f1 56be d7fa 6b3e b0f5 8bbe f343 69bf
00000040: 2847 42bf 5f16 81bf 2379 1e3e 6ea3 ad3e
00000050: 67fa b9bd 1be3 85bc c94f 7c3e 5bc5 a0be
00000060: d401 b5be 4790 5c3e 9427 c7be 1362 7cbf
00000070: 93ea 62be 39e6 45bf 7fe2 28bf 2ec4 653e
00000080: 5d99 12bf cffe 67bf 9482 07be 0f3a 55be
00000090: 3a3f c93e 787c bcbc 1b92 3dbe e20f 8e3e
000000a0: 3d87 20bd 7769 94bd 1ed2 e13e 15a5 d639
000000b0: 2128 06bc 86fc 8abe 03d8 88be 3294 91bc
000000c0: bfd0 afbe f30e 0bbf aef0 a6be f26a 9ebe
000000d0: 0c2e 20bf 3773 03bf 15aa 413f 7e6c 553e
000000e0: 68e8 cb3e 5575 5e3f 13dd 2f3e c759 a83e
000000f0: 9bdd 943f 3f9a af3e 12ad b83e 925c 723f
00000100: e823 973f dd78 b03f 3c2c 9c3e 7927 0d3f
00000110: 1b52 323f 7cde b1be e234 af3e 0bd9 0abd
00000120: 85d6 72be 3d75 00bf 4590 843d 4f6c 2f3d
00000130: feca 8a3d a5c2 273f 92b6 173e 8277 c1bd
00000140: 8a26 be3e 49cd d03e 72e1 a03e 727e d93d
00000150: cf8f 46be f667 edbd 7715 39be aed8 4abf
00000160: b997 17bf 6710 49bf 6895 fbbd d34b e43d
00000170: 6081 8c3e 0660 82be 1cb1 dabe e1f1 8cbc
00000180: 27e6 543e 4975 abba a7cf e83e 005e d1be
00000190: 6bb6 8ebe ea90 99bd b366 55bf 0205 58bf
000001a0: cc1d 59bf f8f2 b1be 558a 0bbf 6150 39bf
000001b0: 4413 393f 166a 073f 947b ef3e 8945 af3e
000001c0: 7368 683e 3f3a 343e 1aaf c23e 2087 ac3e
000001d0: 6edd 213f 3d0e 5bbe 5b30 a3be a9d8 6bbe
000001e0: be9d 2cbe 6ac6 7bbe 35c5 2b3e e61b 103e
000001f0: e7d8 b9be 29cf 193d f34b 5abf 3d63 5fbe
00000200: 2308 34bf 986f 53be b147 d6bb eb22 173c
00000210: 1627 20bf b765 15be 3cb7 873d 8532 02bf
00000220: 178d 81be 082c 59bf f97a ba3d 3569 ae3e
00000230: b0ea 03be 1522 a5be 3ad4 9cbd 425b 21bf
00000240: 1b3a a5be 5c8c e9bd f339 9cbe 52a4 d9bd
00000250: dbf6 f53b cbc0 d8bc db26 f33d d643 b7bd
00000260: b625 76be 4d97 203f b2ed 0d3f d35f 6e3f
00000270: c5fb 56be f4ff 69be 7c6b ff3c 0a6f 5c3e
00000280: 1ae9 173e 3744 d83e f6e9 1f3f 3304 7d3e
00000290: 4fd3 053f 76d7 673e 3388 12be d0e5 8a3e
000002a0: 0f73 563f e5fc cf3e 65ff 3d3f e059 5a3e
000002b0: 102a f53c 4b7b 903e 697c f7be e97b 2dbf
000002c0: 63e2 fcbe a868 c0bc b050 b83d 98f6 283e
000002d0: 59dd 4c3f 67f9 d23e 0f5f 8f3f b26e bf3e
000002e0: 15fa aabd 4378 3c3f 21eb 363f 0811 053f
000002f0: b1f2 853f c1de f0be 1738 06bc a176 1bbf
00000300: 3a32 053e 3abb a83e 5366 30be 8e18 0ebf
00000310: ded3 f2bd 305b 3dbf 177e 8a3f 4c56 243f
00000320: 417d be3e 59f3 74bf 18d8 a3bf 8220 a5bf
00000330: 36de 25be d61b 20bf 5b2d 3dbf fb66 2d3e
00000340: c00a a83e e25e 093f 2a94 e73d 5790 933e
00000350: 6476 b43e 8332 89bd 090c 7e3e cd71 2b3e
00000360: e69d 853e f3fe 983d bce1 113f 8e5f ab3e
00000370: 2d83 db3d 3031 2b3f ee6d 263f bc9b f83e
00000380: 7632 513f ee0f aabe b064 1cbf 7fe2 9fbe
00000390: 21e3 c3be 70ad 20bf 05e2 e1be c71d 8abe
000003a0: 9eed 3ebf 3c71 06bf 8919 d23d f298 8f3c
000003b0: 8213 cfbe cf01 d23e b20b b13e fa3b e5bd
000003c0: 1c0c 32bf ae69 39bf 5651 6ebf be3a 82bf
000003d0: d6bd 35bf 9f9a 96bf 96ad 00bf 7088 10be
000003e0: b4a1 53bf af9f 24bf e888 c8be 31dd 25bf
000003f0: 696c 59bf ec5d b5be c697 3bbf c4a9 13bf
1.3704109 0.95601857 1.1904968 1.0065156 0.46313563 0.7826361 1.2304167 0.62843937
0.96895236 -1.3315779 -0.67051387 -1.2955357 -0.20990707 0.23044907 -0.27335882 -0.9111931
-0.75889826 -1.0084952 0.15475897 0.3391375 -0.090809636 -0.016343644 0.2463981 -0.3140057
-0.35352957 0.21539412 -0.38897383 -0.9858715 -0.22159795 -0.77304417 -0.65970606 0.22438118
-0.57265264 -0.9062318 -0.13233405 -0.20822929 0.3930605 -0.02300857 -0.18512766 0.27746493
-0.039191473 -0.07246678 0.4410562 0.00040940256 -0.008188278 -0.27145785 -0.26727304 -0.01777086
-0.34338948 -0.54319686 -0.326055 -0.30940968 -0.6257026 -0.5134768 0.7565015 0.20842168
0.3982575 0.86897784 0.17174177 0.32880995 1.1630129 0.34297368 0.36069542 0.946725
1.1807833 1.3786885 0.30502498 0.55138355 0.69656533 -0.34740055 0.34220034 -0.033898395
-0.23714645 -0.5017889 0.0647283 0.0428279 0.06776999 0.6553138 0.14815739 -0.094466224
0.37138778 0.4078162 0.31422 0.10619821 -0.19390796 -0.115920946 -0.18074594 -0.79236877
-0.59215885 -0.78540653 -0.12284356 0.11147275 0.27442455 -0.25463885 -0.4271325 -0.01720518
0.20790921 -0.0013081218 0.45470926 -0.4089203 -0.2787355 -0.07498343 -0.8335983 -0.8438264
-0.8481109 -0.34755683 -0.5450795 -0.72388273 0.7229502 0.5289625 0.4677397 0.3423274
0.22696094 0.17600344 0.38024217 0.33696842 0.632285 -0.2139215 -0.3187283 -0.23031868
-0.16857049 -0.24587408 0.16774447 0.14073142 -0.36298296 0.03755108 -0.8527214 -0.218152
-0.70324916 -0.20648038 -0.006539308 0.009224634 -0.6255964 -0.14589582 0.06626746 -0.50858337
-0.25302956 -0.8483281 0.091054864 0.34064642 -0.12882495 -0.32252565 -0.076576665 -0.63029873
-0.32270893 -0.114037246 -0.30512962 -0.10627045 0.007506234 -0.026459118 0.118726455 -0.089484856
-0.24037823 0.62730867 0.5544082 0.93114966 -0.2099448 -0.22851545 0.031179182 0.21526733
0.14835015 0.42239544 0.6246637 0.24708633 0.52275556 0.22640786 -0.14309768 0.27128458
0.83769315 0.4062263 0.74217826 0.21323347 0.029927284 0.28219065 -0.48337105 -0.67767197
-0.4939147 -0.023487404 0.08999765 0.16500318 0.8002525 0.41205904 1.1200885 0.3738914
-0.083484806 0.73621005 0.7145253 0.5197911 1.0464689 -0.47044948 -0.008192084 -0.6072789
0.13007441 0.32955343 -0.17226534 -0.5550622 -0.11856817 -0.73967266 1.081973 0.6419418
0.37204936 -0.9568382 -1.2800322 -1.2900546 -0.16198048 -0.62542474 -0.7389733 0.16933815
0.32820702 0.53660405 0.11307557 0.2882106 0.35246575 -0.066990875 0.24809279 0.1674263
0.2609703 0.07470503 0.5698507 0.3347134 0.10718379 0.6687193 0.6501149 0.48556316
0.8171762 -0.33215278 -0.61091137 -0.3122749 -0.38259223 -0.62764645 -0.44117752 -0.26975843
-0.74581325 -0.5251653 0.10258777 0.017528985 -0.4044457 0.41017005 0.34579235 -0.1119308
-0.6954973 -0.7242688 -0.9309286 -1.0174177 -0.7099279 -1.1765937 -0.5026487 -0.14114547
-0.82668614 -0.6430616 -0.3916695 -0.64790636 -0.84931046 -0.3542322 -0.7327846 -0.57680917

weight f4 [64]
00000000: cc10 7e3f ed45 c13f 25f7 bc3f df44 b33f
00000010: c99d b33f 0144 8f3f cc05 f83f 6229 b53f
00000020: 18e9 ba3f a822 863f 9e07 993f 82ab a03f
00000030: cfa4 973f 2123 b53f fcbb b43f ab6b ce3f
00000040: d60a c73f 1a77 763f 78ff b73f 0777 b83f
00000050: 3f2b 663f 5b75 bc3f 483e c43f dde5 ae3f
00000060: f0e3 5b3f c678 c43f f9dc b33f 24e2 af3f
00000070: a2e5 953f 61e5 8c3f af3b b23f 14c3 8c3f
00000080: 95ed 613f 6a57 d03f a6e5 b23f c885 c83f
00000090: e91b a13f 1f63 7f3f a77e c83f 3e5f 493f
000000a0: 6373 cb3f e3bb 963f 0dbd 953f e1b0 7b3f
000000b0: 9de2 bd3f c61c ad3f 947a ad3f c7a3 a73f
000000c0: 49fa 843f b141 bb3f 8c0e 963f b9ab b73f
000000d0: cf5a a03f 46b1 7b3f 7c2e b83f 9891 d73f
000000e0: 5230 a03f cc1a 5e3f c3db b13f 1938 a63f
000000f0: a2b1 c23f d326 a03f 4e62 6b3f 3f0b a93f
0.9924438 1.5099465 1.4762923 1.4005393 1.4032527 1.1192628 1.9376769 1.4153254
1.4602385 1.0479326 1.195545 1.255234 1.184717 1.4151345 1.4119868 1.6126608
1.5550182 0.96275485 1.4374838 1.4411324 0.8990974 1.4723314 1.5331507 1.3663899
0.8589468 1.5349357 1.405181 1.3740888 1.1710703 1.1007501 1.3924464 1.0997033
0.88253146 1.6276677 1.3976333 1.5665827 1.2586643 0.9976062 1.5663651 0.78660953
1.5894588 1.1776088 1.1698319 0.9831677 1.4834782 1.3524406 1.3553033 1.3096856
1.0388881 1.4629422 1.1723189 1.434928 1.2527713 0.9831737 1.4389186 1.6841307
1.2514746 0.8675964 1.3895191 1.298587 1.5210459 1.2511848 0.91946876 1.3206557

bias f4 [64]
00000000: c508 67bf f5df 83bf 5b3b a0bf 61c3 48bf
00000010: 5b54 64bf c5a3 5cbf 23b7 96bf 718a 87bf
00000020: 36ca 99be e531 27bf d2f1 77bf 74f5 44bf
00000030: 3072 16bf f445 4bbf 3ffd 0fbf 5528 78bf
00000040: bf2c 8cbf 3956 5fbf 922c cebe 234d 29bf
00000050: 4be1 6abf 23ce 89bf 1abb 98bf aed4 83bf
00000060: 2099 3dbf 63c8 91bf a5a4 66bf db02 b4be
00000070: 5621 c0bf 856e 48bf 50af 2bbf b502 ecbe
00000080: be18 12bf c331 4abf 47aa 5dbf 8bbc 91bf
00000090: 17ff 1bbf bdfd 07bf 75cd a9bf 5dd6 41bf
000000a0: 8f86 75bf 5b82 6bbf 997a 69bf 5a8a 21bf
000000b0: ee51 a5bf 8cbd d0be 559d 93bf 3772 47bf
000000c0: 771d 09bf ea35 5ebf 58c4 10bf dfd3 76bf
000000d0: 21e5 7abf 60b8 e1be 91c4 8ebf 9567 cabf
000000e0: e0f5 94bf 8c8a 2fbf b95f b3bf bde6 48bf
000000f0: 4f7b 27be 655c 4dbf 5748 21bf f0c6 38bf
-0.90247756 -1.0302721 -1.2518114 -0.78423125 -0.89191216 -0.8618739 -1.1774639 -1.0589124
-0.30037087 -0.6531051 -0.96853364 -0.7693703 -0.58767986 -0.79403615 -0.562458 -0.9693654
-1.0951155 -0.8724094 -0.4026838 -0.66133326 -0.9175002 -1.0766033 -1.1932099 -1.029928
-0.74061775 -1.1389278 -0.9009498 -0.3515843 -1.5010173 -0.7829364 -0.6706438 -0.46095815
-0.57069004 -0.7898218 -0.8658795 -1.1385664 -0.6093611 -0.5312155 -1.3265826 -0.7571772
-0.95908445 -0.9199578 -0.91202694 -0.6310173 -1.2915628 -0.40769613 -1.1532389 -0.77908653
-0.53560585 -0.86801016 -0.56549597 -0.9641704 -0.9800587 -0.4408598 -1.1153737 -1.5812861
-1.1637535 -0.6857078 -1.4013587 -0.7847708 -0.16355632 -0.8021911 -0.63001007 -0.72178555

running_mean f4 [64]
00000000: dbd5 a9c1 6323 d0c1 1a59 4fc1 dbaa 06c1
00000010: e84b a5c0 8013 8ac1 c119 11c1 f8d9 0ec1
00000020: 39b6 cac1 ef11 30c1 dfbd 2fc1 5aa0 43c1
00000030: 62f1 27c1 095b c0c1 b895 d5c1 1512 e2c0
00000040: 45b2 08c1 e727 a641 5a9a 4ac1 e405 b7c1
00000050: f28a bac1 5078 88c1 2d69 56c1 dbce f9bf
00000060: 1dd3 04c2 d2c5 bec1 b690 27c1 b066 f9c1
00000070: 8263 df3f 5a3a 7ec1 2bb3 bec1 ad47 bec1
00000080: 34e3 bfc0 6e9a 9dc0 10ae 37c1 4d5f fbc0
00000090: 1e23 c2c1 1e3b 51c1 3e1a d5c0 8b3a 8741
000000a0: 8f0b b8c0 ce0b bac1 2300 23c1 fb95 9a40
000000b0: f5f4 bdc1 bf42 efc1 bde4 a8c1 b486 8ec1
000000c0: 5bfb 9bc1 89ed e3c0 1b50 b6c1 5b3f 8ac1
000000d0: e9fd 49c1 4d2f 1041 5c79 65c1 34f3 2ec1
000000e0: e2d5 4dc1 c462 8bc0 0213 67bf 4568 a8c1
000000f0: d1dc f9c1 1304 80c0 8c0a bbc1 3e8d 93c1
-21.229422 -26.017279 -12.959253 -8.416713 -5.165516 -17.259521 -9.068788 -8.928215
-25.338976 -11.004378 -10.983855 -12.226648 -10.496431 -24.04445 -26.698105 -7.0647073
-8.543523 20.769484 -12.6626835 -22.877876 -23.317844 -17.058746 -13.400678 -1.9516252
-33.206165 -23.846592 -10.47283 -31.17514 1.7452242 -15.889246 -23.837484 -23.784998
-5.9964848 -4.9251013 -11.479996 -7.8553834 -24.267147 -13.076933 -6.6594534 16.903585
-5.751411 -23.255764 -10.187533 4.830808 -23.744608 -29.90759 -21.111689 -17.815773
-19.497732 -7.122746 -22.789114 -17.280935 -12.62449 9.011548 -14.342129 -10.934376
-12.8647175 -4.3558064 -0.9026338 -21.050913 -31.23282 -4.0004973 -23.38015 -18.443966

running_var f4 [64]
00000000: 9f35 2743 1413 8843 d396 d842 57e9 1143
00000010: 4209 5f43 dec0 0d43 8ec7 6a43 9de4 de42
00000020: f215 d843 b160 4843 9311 4d43 05fc 6443
00000030: 6734 f142 ba49 a543 1141 8f43 90b5 3943
00000040: 446b 7343 3111 3843 81bd b443 c9df 9943
00000050: 9f82 4e43 9e4c 2443 0f1f 0543 eedc 2f43
00000060: deeb 2143 97c4 3e43 dfb8 a242 26a4 a843
00000070: 643f 0143 7f43 f842 f260 9143 19d4 8a43
00000080: 7da7 2443 453e fc42 081f 6f43 2674 0043
00000090: 4cca 9243 1448 7843 2549 de42 f906 2643
000000a0: 90bc 4943 9b99 8543 59ac 3f43 ce65 2243
000000b0: f4fd 2843 0a29 a843 40b5 2843 07a9 9043
000000c0: 71b2 8c43 92b8 e742 3a33 6843 51a0 1743
000000d0: f682 7643 4231 4543 3f79 2d43 1582 d342
000000e0: 6b7e ee42 4a30 1543 3439 3b43 768e fd42
000000f0: d92c e543 4bff 6943 48ad 2243 8149 4d43
167.20946 272.14905 108.29458 145.91148 223.03616 141.75339 234.77951 111.44651
432.17145 200.3777 205.06865 228.98445 120.60235 330.576 286.50833 185.70923
243.419 184.06715 361.4805 307.74832 206.51024 164.29929 133.12132 175.863
161.92136 190.76793 81.36108 337.2824 129.24762 124.13183 290.7574 277.657
164.65425 126.12162 239.12122 128.4537 293.58044 248.28156 111.14286 166.02724
201.73657 267.20004 191.67323 162.39767 168.992 336.32062 168.70801 289.32053
281.39407 115.86049 232.2001 151.62624 246.51157 197.19241 173.47362 105.75407
119.24691 149.18863 187.22345 126.778244 458.35037 233.99724 162.67688 205.28712
