encoding_test_v13/models/cnn_models/QP37_32x32.pt (torch, 206230 bytes, 27 tensors)

weight f4 [16, 1, 3, 3]
-0.31925014 -0.19261762 -0.24591178 -0.41977245 -0.24491549 0.20785458 0.011716866 0.53972083
0.6593092 0.5987357 -0.56112665 -0.25690842 0.20631792 -0.7250925 -0.05346121 0.13689451
0.41159442 0.18132044 0.22352453 -0.4590096 -0.10570043 -0.44159502 -0.14152212 0.427951
0.21261124 -0.33407187 0.6302735 0.2493087 0.34164613 0.1414868 0.27923867 -0.32081935
-0.559382 0.42587322 0.07958469 -0.6300348 0.118850775 -0.34812474 -0.52990097 0.08312671
-0.09963255 -0.14606231 0.8805388 -0.09125 0.12264655 0.48992062 0.38077673 0.47065514
-0.30646735 -0.0152047025 -0.153936 -0.3947343 -0.46627444 -0.022231564 -0.6946242 0.5564376
0.13328317 0.04143834 0.083526656 -0.026807047 0.58686435 -0.5190402 -0.18730147 -0.60615385
0.15503056 0.18421057 0.71026444 0.2706777 -0.532917 -0.4483513 0.1815784 0.12862928
0.07666721 -0.27966982 -0.25242352 0.7642674 0.17897326 -0.07153496 0.17135234 -0.48785222
-0.1379801 -0.37722012 0.10090909 0.59428024 -0.5967587 0.036143314 0.29990396 -0.49812427
0.06203375 0.37293237 0.9547971 -0.11435958 0.16205464 0.0031390167 0.097328804 -0.27610993
-0.16141964 -0.32897696 -0.3349923 0.61738366 0.12553942 0.4839097 -0.6197551 0.0064548673
-0.31571186 -0.049755506 -0.41148058 0.17524433 -0.37689865 -0.39615825 0.71884894 0.21940485
-0.41743848 0.4704082 0.09013646 -0.5122367 0.1884194 -0.24451055 0.48599094 -0.14685735
0.11790363 -0.15648346 0.49016312 -1.1033471 -0.4715567 -0.44105223 0.035631787 -0.562858
-0.44574 -0.19043092 0.39513192 -0.12545466 -0.026434328 0.24189733 0.6132775 -0.3447051
-0.39107865 -0.17381945 -0.14564316 0.053977285 -0.35375738 0.47471237 0.5908288 0.2788927
00000000: c174 a3be 8e3d 45be 4cd0 7bbe 6aec d6be
00000010: 20cb 7abe d5d7 543e 19f8 3f3c 252b 0a3f
00000020: 7dc8 283f be46 193f ffa5 0fbf 8089 83be
00000030: 0145 533e a99f 39bf 24fa 5abd 132e 0c3e
00000040: 81bc d23e 11ac 393e 9de3 643e 4e03 ebbe
00000050: 7879 d8bd be18 e2be 2deb 10be 651c db3e
00000060: c3b6 593e 780b abbe 9b59 213f c84a 7f3e
00000070: 3eec ae3e eae1 103e 5ff8 8e3e 6f42 a4be
00000080: a933 0fbf 0e0c da3e 4cfd a23d f649 21bf
00000090: 0968 f33d 683d b2be 97a7 07bf 563e aa3d
000000a0: 260c ccbd 5c91 15be fe6a 613f 48e1 babd
000000b0: 1d2e fb3d e0d6 fa3e 2bf5 c23e b6f9 f03e
000000c0: 4ae9 9cbe 251d 79bc 66a1 1dbe 9d1a cabe
000000d0: 86bb eebe f81e b6bc e4d2 31bf b272 0e3f
000000e0: 627b 083e 40bb 293d 0610 ab3d 749a dbbc
000000f0: be3c 163f d2df 04bf f5cb 3fbe e62c 1bbf
00000100: 55c0 1e3e b2a1 3c3e e4d3 353f 4496 8a3e
00000110: 406d 08bf 4d8e e5be b0ef 393e 65b7 033e
00000120: b303 9d3d e230 8fbe a83d 81be 07a7 433f
00000130: c444 373e ec80 92bd fd76 2f3e c4c7 f9be
00000140: a84a 0dbe ff22 c1be 6da9 ce3d c022 183f
00000150: 2ec5 18bf 030b 143d 038d 993e 250a ffbe
00000160: 1a17 7e3d fef0 be3e 956d 743f 5b35 eabd
00000170: a7f1 253e f6b7 4d3b 5354 c73d 485e 8dbe
00000180: 314b 25be ab6f a8be 1c84 abbe db0c 1e3f
00000190: 688d 003e 03c3 f73e 45a8 1ebf 5a83 d33b
000001a0: fca4 a1be 6ecc 4bbd 95ad d2be 4073 333e
000001b0: dcf8 c0be 41d5 cabe 7c06 383f aaab 603e
000001c0: 7fba d5be 58d9 f03e 7799 b83d f221 03bf
000001d0: 04f1 403e f960 7abe ced3 f83e c661 16be
000001e0: 7577 f13d 333d 20be a9f6 fa3e 7a3a 8dbf
000001f0: e16f f1be 99d1 e1be a3f2 113d 7617 10bf
00000200: 0938 e4be 5300 43be bb4e ca3e 3077 00be
00000210: ce8c d8bc efb3 773e c1ff 1c3f 307d b0be
00000220: 763b c8be bafd 31be 7b23 15be 4917 5d3d
00000230: b01f b5be 800d f33e 8e40 173f 06cb 8e3e

weight f4 [16]
1.034594 0.8549777 0.86217946 1.133654 0.82430834 0.82416236 0.85943997 1.0265542
0.80946374 1.2854081 0.57416975 0.8164114 1.3407845 0.47158825 0.41100034 1.0758532
00000000: 946d 843f d2df 5a3f cbb7 5c3f 931b 913f
00000010: df05 533f 4efc 523f 4204 5c3f 2166 833f
00000020: 0439 4f3f 4188 a43f cafc 123f 5600 513f
00000030: d49e ab3f 0474 f13e a36e d23e 8fb5 893f

bias f4 [16]
0.064069115 -0.5078604 0.9598809 0.62365735 0.014668299 0.68349546 -0.62043804 -0.96637523
1.2925847 0.9981248 0.012618604 -0.4943217 -0.7426431 -0.46373612 -0.07735523 0.91809833
00000000: ab36 833d 2403 02bf c1ba 753f 02a8 1f3f
00000010: 4e53 703c 8ff9 2e3f 07d5 1ebf 5e64 77bf
00000020: 6a73 a53f 1b85 7f3f 43be 4e3c bc17 fdbe
00000030: dc1d 3ebf d26e edbe 6b6c 9ebd 7e08 6b3f

running_mean f4 [16]
-0.0053693154 -0.039946858 -0.007853607 -0.0038883258 -0.011976465 -0.013341665 -0.007492348 0.028807374
-0.010526595 -0.0024332202 -0.0061057345 -0.010118698 -0.018339189 -0.5330524 -0.021858035 -0.0058674477
00000000: 15f1 afbb 519f 23bd 6aac 00bc 48d3 7ebb
00000010: ef38 44bc 0097 5abc 5f82 f5bb 71fd eb3c
00000020: bd77 2cbc a976 1fbb 9d12 c8bb e5c8 25bc
00000030: 113c 96bc 1f76 08bf 9f0f b3bc b843 c0bb

running_var f4 [16]
0.024595227 0.013429631 0.010601272 0.020935887 0.023008334 0.022982111 0.002227556 0.0034371798
0.013227806 0.030292714 0.020682 0.014252768 0.015418479 0.13956791 0.015124903 0.022845471
00000000: ee7b c93c f407 5c3c f5b0 2d3c bd81 ab3c
00000010: f97b bc3c fb44 bc3c 30fc 113b 4f42 613b
00000020: 71b9 583c 6d28 f83c 4c6d a93c 7184 693c
00000030: ca9d 7c3c e4ea 0e3e 71ce 773c 6d26 bb3c

weight f4 [32, 16, 3, 3]
0.0047861943 -0.20452131 -0.013423025 -0.28696775 -0.26400605 -0.12586097 0.06305574 -0.41272277
-0.46366036 -0.1231334 0.185774 0.106992245 -0.24710329 -0.07376707 0.21540481 -0.37308595
-0.38335583 0.16940872 -0.3041403 0.026756536 0.022959255 -0.112735316 0.2823675 0.3743954
-0.026526082 0.04764602 0.01019005 -0.20790866 -0.6352273 -0.2865692 0.65194505 -0.13912687
-0.25489557 0.025039315 -0.14467049 -0.001666703 -0.16879961 -0.075986564 0.15569419 -0.32724327
-0.30365053 0.0044328053 0.09866745 -0.2558258 -0.1429129 -1.1712234 -1.0026191 -1.0695248
-0.5468718 -0.6725551 -0.4012668 0.13495395 -0.11312187 0.35817218 -0.47444397 -0.5049768
-0.20945388 -0.90315676 -0.6281522 -0.55668956 -0.7061668 -0.5246597 -0.79306704 0.12460223
-0.37105945 -0.39027166 0.08620585 -0.4284712 -0.14159754 0.19632463 -0.51133865 -0.11818036
-0.13709195 -0.15536702 -0.034309097 -0.23352513 -0.38074893 0.02619808 0.27806574 0.08143564
0.41103172 -0.01445654 -0.7875061 -0.68663704 0.027159465 -0.57144105 -0.22803715 0.18356195
-0.39255112 0.0004661627 -0.4912431 -0.36434177 -0.5924512 -0.3733366 -0.6346937 -0.6455207
-0.032593265 -0.2960916 -0.32837987 -0.17993161 -0.40172857 -0.28461686 -0.5423774 -0.65324986
-0.67549944 0.15783241 0.013558317 -0.435053 -0.010762221 -0.25290924 0.11089001 -0.06498633
-0.264286 0.02954369 0.012737833 -0.08831512 -0.15406464 0.22463153 0.1589672 0.21828532
-0.064914815 -0.06922494 0.21866061 -0.027488843 -0.02143441 0.023406943 0.04404564 0.056309626
0.055292297 -0.35390756 -0.24854584 0.011280501 -0.1012645 -0.16856368 -0.21580915 0.28623483
0.25687563 0.5743437 -0.11119549 0.011895344 0.4152707 0.07891048 0.26241902 0.29287642
0.0033907776 -0.40978876 0.11153824 -0.24113528 -0.23792884 -0.24009249 0.14820945 -0.051103123
-0.56363964 0.1348625 -0.22373603 -0.34670904 -0.43981203 -0.06802579 0.0155936405 -0.55268353
-0.069895 0.2857122 0.54560417 0.4240061 0.17138799 -0.15124448 0.0031011128 -0.23620169
-0.05642782 0.12951224 -1.170051 -0.9942551 -0.49903962 -0.6010741 -0.10374704 -0.020528218
0.14793228 0.32467568 0.6304375 0.915994 0.17313787 -0.1375796 -0.6462801 0.028379746
0.10625972 -0.18331212 -0.3746156 -0.08280568 0.37390202 -0.85130566 -0.24725416 -0.49668682
-0.33161002 0.178494 0.17002748 -0.33446693 -0.09503211 0.36026576 0.04258519 0.028485484
-0.04313688 -0.02652165 -0.14829105 0.114079155 0.038146254 0.2782167 0.13031818 -0.5051604
-0.33456704 0.24336909 0.07447887 -0.11986904 -0.07986286 0.0208093 0.15679872 -0.28913426
-0.7295039 -0.2736963 -0.31059423 -0.03945126 0.1271012 0.13440661 -0.10343603 0.29633725
0.47034588 0.39535698 0.3458519 0.048961405 0.075177364 0.11154128 0.04210588 -0.40593156
-0.6370414 -0.34164152 -0.6006154 -0.54039127 -0.13617983 -0.19061723 -0.18958905 0.20163895
-0.06912498 -0.03009024 -0.09449452 0.31521177 -0.076911926 -0.276206 -0.4005323 -0.10276289
-0.02433187 -0.83843386 -0.25493172 0.24485491 0.39305145 -0.06400684 -0.27174723 0.269675
00000000: 82d5 9c3b 096e 51be 3fec 5bbc 70ed 92be
00000010: cd2b 87be b3e1 00be 5e23 813d 6650 d3be
00000020: e464 edbe 5d2d fcbd 8a3b 3e3e c01e db3d
00000030: a508 7dbe 3113 97bd 1493 5c3e 1f05 bfbe
00000040: 3747 c4be 7b79 2d3e 47b8 9bbe 8630 db3c
00000050: 0c15 bc3c c6e1 e6bd 7992 903e c1b0 bf3e
00000060: 3a4d d9bc 7928 433d 2bf4 263c 02e6 54be
00000070: 429e 22bf 33b9 92be dfe5 263f 4677 0ebe
00000080: ac81 82be 401f cd3c 8024 14be 4675 daba
00000090: ced9 2cbe d89e 9bbd 4c6e 1f3e 6e8c a7be
000000a0: 1578 9bbe 1141 913b 2912 ca3d 99fb 82be
000000b0: c257 12be a6ea 95bf d355 80bf 30e6 88bf
000000c0: caff 0bbf 922c 2cbf d872 cdbe 5e31 0a3e
000000d0: 70ac e7bd 5862 b73e 52ea f2be 2946 01bf
000000e0: 147b 56be 4835 67bf 95ce 20bf 3583 0ebf
000000f0: 59c7 34bf 1950 06bf 7106 4bbf 742f ff3d
00000100: 81fb bdbe b0d1 c7be b18c b03d 9460 dbbe
00000110: f2fe 10be 5309 493e 17e7 02bf 8b08 f2bd
00000120: d561 0cbe 8818 1fbe b287 0cbd 3621 6fbe
00000130: 86f1 c2be 5b9d d63c a25e 8e3e bbc7 a63d
00000140: c072 d23e 20db 6cbc 009a 49bf 72c7 2fbf
00000150: 877d de3c f649 12bf 9282 69be aaf7 3b3e
00000160: 76fc c8be 4c67 f439 3784 fbbe 018b babe
00000170: e2aa 17bf fa25 bfbe 497b 22bf d840 25bf
00000180: 8480 05bd 5199 97be 6821 a8be fe3f 38be
00000190: 5eaf cdbe 4db9 91be 3fd9 0abf 623b 27bf
000001a0: 88ed 2cbf d29e 213e b423 5e3c 44bf debe
000001b0: 0754 30bc 527d 81be 4d1a e33d 8e17 85bd
000001c0: 7f50 87be 9c05 f23c 58b2 503c 8fde b4bd
000001d0: 1fc3 1dbe cf05 663e 4cc8 223e 3086 5f3e
000001e0: 0ff2 84bd cec5 8dbd 91e8 5f3e 4830 e1bc
000001f0: 3797 afbc ebbf bf3c 3369 343d eca4 663d
00000200: 2d7a 623d 5f33 b5be cd82 7ebe dad1 383c
00000210: c363 cfbd f59b 2cbe 13fd 5cbe 5f8d 923e
00000220: 3485 833e 3008 133f 76ba e3bd b0e4 423c
00000230: 5c9e d43e d19b a13d c95b 863e e6f3 953e
00000240: cf37 5e3b d5cf d1be 296e e43d 2bec 76be
00000250: 9ea3 73be ceda 75be 38c4 173e 8251 51bd
00000260: b04a 10bf 6519 0a3e 0f1b 65be d983 b1be
00000270: 0b2f e1be 1b51 8bbd 787c 7f3c ab7c 0dbf
00000280: 1c25 8fbd df48 923e b7ac 0b3f 5417 d93e
00000290: 5580 2f3e d5df 1abe 0a3c 4b3b dbde 71be
000002a0: dc20 67bd db9e 043e 3bc4 95bf 8187 7ebf
000002b0: 1f82 ffbe fedf 19bf 5479 d4bd cb2a a8bc
000002c0: 8f7b 173e e43b a63e 5a64 213f 957e 6a3f
000002d0: 0e4b 313e abe1 0cbe 9d72 25bf a47c e83c
000002e0: b29e d93d 2cb6 3bbe 9ecd bfbe 0696 a9bd
000002f0: 1670 bf3e 2bef 59bf 3230 7dbe bc4d febe
00000300: cac8 a9be 22c7 363e af1b 2e3e 403f abbe
00000310: 32a0 c2bd c174 b83e cf6d 2e3d 645a e93c
00000320: 4cb0 30bd ee43 d9bc 9cd9 17be 55a2 e93d
00000330: 3f3f 1c3d 6b72 8e3e 2172 053e 3152 01bf
00000340: 5f4c abbe bf35 793e 6188 983d e67d f5bd
00000350: 248f a3bd 4478 aa3c d88f 203e 6809 94be
00000360: c5c0 3abf ec21 8cbe 3506 9fbe a597 21bd
00000370: d126 023e e3a1 093e 45d6 d3bd 84b9 973e
00000380: 2dd1 f03e 3b6c ca3e 8013 b13e c18b 483d
00000390: 97f6 993d c16f e43d 3777 2c3d 43d6 cfbe
000003a0: 2515 23bf a3eb aebe eec1 19bf 1557 0abf
000003b0: ba72 0bbe 2a31 43be a223 42be 717a 4e3e
000003c0: 6691 8dbd cf7f f6bc 5886 c1bd 7063 a13e
000003d0: 0084 9dbd df6a 8dbe 9212 cdbe 5a75 d2bd
000003e0: a153 c7bc 9aa3 56bf 6986 82be 3fbb 7a3e
000003f0: 0a3e c93e 0516 83bd 7422 8bbe d712 8a3e

weight f4 [32]
0.3280796 0.5904076 0.686384 0.7556299 0.5808889 0.5848051 0.6630657 0.49857816
0.6145893 0.81965846 0.6415014 0.47193044 0.80675423 0.5897349 0.76283157 0.7147434
0.7516075 0.652506 0.8003915 0.7107268 0.44995013 0.71350276 0.8777525 0.60332304
0.6870888 0.4287725 0.8175884 0.494596 0.75978446 0.8353508 0.35433972 0.24662343
00000000: 0dfa a73e f424 173f ddb6 2f3f f670 413f
00000010: 23b5 143f c9b5 153f acbe 293f a345 ff3e
00000020: b955 1d3f 23d5 513f 7039 243f dea0 f13e
00000030: 7287 4e3f def8 163f ee48 433f 6cf9 363f
00000040: 5969 403f a20a 273f 75e6 4c3f 31f2 353f
00000050: dd5f e63e 1ea8 363f 63b4 603f 6173 1a3f
00000060: 0de5 2f3f 1288 db3e 794d 513f b03b fd3e
00000070: 3c81 423f 8dd9 553f 046c b53e da8a 7c3e

bias f4 [32]
-0.05371196 -0.09111307 -0.18312734 -0.21944791 -0.19225818 -0.18599674 -0.5730427 -0.20466027
-0.14617425 -0.42428267 -0.26482815 -0.1694893 -0.23047066 -0.58095574 -0.17150378 -0.1679799
-0.114311084 -0.10194409 0.13075988 0.23713507 0.20985436 -0.4007443 -0.30739382 -0.12866601
-0.21803105 -0.43945575 -0.20015538 0.4214132 -0.24565992 -0.12656668 0.2696366 0.5170725
00000000: 1201 5cbd 7d99 babd bc85 3bbe f4b6 60be
00000010: 54df 44be ee75 3ebe edb2 12bf 7692 51be
00000020: b4ae 15be 943b d9be 8e97 87be 9a8e 2dbe
00000030: 8000 6cbe 84b9 14bf b09e 2fbe ec02 2cbe
00000040: ee1b eabd 10c8 d0bd ebe5 053e 89d3 723e
00000050: 10e4 563e 5b2e cdbe b962 9dbe 06c1 03be
00000060: 8843 5fbe 5800 e1be 88f5 4cbe 79c3 d73e
00000070: 468e 7bbe b29a 01be cf0d 8a3e dd5e 043f

running_mean f4 [32]
-6.3009696 -3.9302988 -8.639126 -1.1552931 -0.2085839 -3.9728112 -2.7674375 -2.825146
-1.2118421 -2.1960294 -2.0271473 -4.5839896 -3.7836695 -8.626795 -1.805115 -9.391373
-3.4420831 -2.2829978 -7.942745 -8.6738 -1.4150112 -4.466946 0.19773263 -8.631957
-9.327822 3.1559908 0.14913246 -1.7930886 -2.8296666 -5.800078 -8.063302 -3.599262
00000000: 8ba1 c9c0 048a 7bc0 dc39 0ac1 a5e0 93bf
00000010: 0597 55be 8a42 7ec0 b21d 31c0 31cf 34c0
00000020: a41d 9bbf bf8b 0cc0 c8bc 01c0 0bb0 92c0
00000030: a427 72c0 5a07 0ac1 020e e7bf 1043 16c1
00000040: 174b 5cc0 a31c 12c0 f82a fec0 e3c7 0ac1
00000050: 161f b5bf 39f1 8ec0 6c7a 4a3e 7f1c 0ac1
00000060: c23e 15c1 c1fb 4940 2eb6 183e ed83 e5bf
00000070: 4219 35c0 3d9a b9c0 4903 01c1 4f5a 66c0

running_var f4 [32]
22.613445 8.783715 30.583866 18.81471 3.6288717 10.745482 3.8652804 6.748823
17.039717 11.010432 8.773125 11.023242 17.388384 7.1612816 26.387594 20.491302
19.866682 9.684533 21.267365 40.5213 11.657933 15.537682 20.130123 15.400877
28.348803 10.893694 17.445639 6.2135596 24.691942 27.263594 15.440042 18.651997
00000000: 56e8 b441 198a 0c41 c2ab f441 8784 9641
00000010: 6f3f 6840 7fed 2b41 c160 7740 5cf6 d740
00000020: 5751 8841 bb2a 3041 b85e 0c41 335f 3041
00000030: 691b 8b41 3829 e540 cb19 d341 30ee a341
00000040: f7ee 9e41 d9f3 1a41 9023 aa41 d015 2242
00000050: e586 3a41 589a 7841 7e0a a141 fe69 7641
00000060: 59ca e241 924c 2e41 ab90 8b41 7bd5 c640
00000070: 1989 c541 d71b da41 690a 7741 4a37 9541

weight f4 [32, 32, 3, 3]
-0.2736357 -0.36052296 -0.3217831 -0.15654467 -0.038810313 0.10491432 -0.11231331 0.04129753
0.22049984 -0.33545434 -0.33936998 -0.46666616 -0.16188556 -0.13486257 -0.27141017 0.45231092
0.29074308 0.55431986 -0.46692666 0.13427773 0.12799086 -0.08338394 0.17897516 -0.076367274
0.024961954 -0.04399347 -0.18714935 -0.4258366 -0.49810082 -0.5376512 -0.1620153 -0.26779976
-0.2425827 0.5014762 0.56847054 0.9634466 -0.7702962 -0.6076542 -0.46434292 -0.09597093
0.12509729 0.29037827 0.45299846 0.4318738 0.14870891 -0.013682048 -0.06604407 -0.08986946
0.29719853 -0.08216437 -0.27152586 0.4852612 0.17396636 0.55441797 -0.19083011 -0.07750013
-0.2911106 -0.08920734 0.014884969 -0.017413698 0.44293234 0.42989498 -0.044672247 -0.14515105
0.060080137 0.2221559 -0.030721061 0.1599085 0.0886942 -0.5215383 -0.5854596 -0.2419813
-0.3497457 0.014639922 0.12236973 0.06555146 0.17069644 -0.065026954 -0.01990492 0.006396327
0.03943957 -0.53577536 0.27578986 0.48219842 -0.26030236 -0.18200758 -0.44875163 0.58212316
0.26323712 -0.11961831 -0.5663827 -0.089094296 -0.10814265 0.0661264 0.22927304 -0.38772136
0.5104925 0.5335286 0.028288132 -0.23941317 0.17154062 -0.2530057 0.023280304 0.15852849
0.07697068 0.34457916 0.30729347 -0.051067743 -0.35832334 -0.24953644 -0.06370661 -0.4280316
-0.3373711 -0.14720267 0.16156553 0.17026497 0.19691475 0.05492083 0.29944268 0.3123098
-0.43312562 0.066028155 -0.03632699 0.003824508 0.2353514 0.25760424 -0.26121676 -0.1381991
-0.13520694 -0.18882702 -0.00327485 -0.007815419 -0.27783543 -0.08974467 0.14126389 -0.26454535
-0.43562135 -0.16345741 -0.24508825 -0.41742736 -0.24516611 0.5474959 0.6552493 0.83423847
-0.4186582 0.07795012 0.069723636 -0.33585325 -0.20233299 -0.16123506 0.12473749 0.03841421
0.18352985 0.06970087 -0.05126604 -0.7957898 -0.0941758 -0.3079105 -0.36289585 0.23318091
0.22926621 0.7755629 0.72558147 0.61252916 0.54766315 0.1226466 -0.15155283 -0.09598159
-0.12361968 -0.44548824 -0.4462811 0.20637718 0.37773606 0.3470532 -0.5912232 -0.484412
-0.4174439 -0.2634321 -0.04124103 -0.15346262 0.36946484 0.18373613 0.11916909 -0.14116362
-0.34648138 -0.3597828 0.14013708 0.3306284 0.05982303 -0.47709015 -0.36096168 -0.4970657
0.06516098 -0.08091279 -0.067839295 0.36934543 0.5855121 1.0683142 -0.41797996 -0.66273344
-0.4475583 0.011179591 -0.057246484 0.0056529217 0.48445332 0.38951865 0.52158076 -0.99209344
-0.60670173 -0.6998622 -0.41027746 -0.20154874 -0.32550606 0.88296497 0.9271903 0.55994344
0.43274528 0.61334544 0.5735178 -0.63166237 0.017354382 -0.0009462484 -0.903633 -0.23499148
-0.43410352 -0.25670356 0.032077514 -0.1139823 -0.34597668 -0.12641615 -0.48282796 0.4690401
0.18515992 -0.0942711 -0.40684962 -0.4075837 -0.6463668 -0.13047887 -0.18849233 -0.35952622
0.46118167 0.4877463 0.86475414 0.44042405 0.0544455 -0.41110387 0.42801923 -0.26625115
-0.21913487 0.52548784 0.14976832 0.92808044 0.18026027 0.047839485 -0.007049551 0.4384469
00000000: fa19 8cbe 7796 b8be c1c0 a4be 3f4d 20be
00000010: 90f7 1ebd 52dd d63d 8504 e6bd 9927 293d
00000020: b6ca 613e acc0 abbe e7c1 adbe deee eebe
00000030: 54c5 25be 6a19 0abe 46f6 8abe 4c95 e73e
00000040: 47dc 943e e8e7 0d3f 0311 efbe 1a80 093e
00000050: 0910 033e 33c5 aabd 4445 373e 7266 9cbd
00000060: 037d cc3c 7f32 34bd 14a4 3fbe 4107 dabe
00000070: 1207 ffbe 82a3 09bf 57e7 25be 0d1d 89be
00000080: 9967 78be bf60 003f 4987 113f 70a4 763f
00000090: 2232 45bf 3a8f 1bbf 5bbe edbe 688c c4bd
000000a0: 8119 003e 76ac 943e 6aef e73e 901e dd3e
000000b0: 2647 183e ab2a 60bc 1d42 87bd 7b0d b8bd
000000c0: 682a 983e cb45 a8bd 7005 8bbe 2874 f83e
000000d0: 3d24 323e 56ee 0d3f f868 43be 63b8 9ebd
000000e0: 730c 95be 56b2 b6bd 16e0 733c 2ca7 8ebc
000000f0: 07c8 e23e 321b dc3e 3ffa 36bd 7aa2 14be
00000100: 9716 763d d67c 633e bcaa fbbc 0ebf 233e
00000110: 4ea5 b53d 8983 05bf aee0 15bf f2c9 77be
00000120: de11 b3be 49dc 6f3c fb9c fa3d d83f 863d
00000130: 0ccb 2e3e da2c 85bd a50f a3bc 4898 d13b
00000140: 638b 213d 9328 09bf 5434 8d3e b6e2 f63e
00000150: 5a46 85be 3260 3abe c6c2 e5be 0606 153f
00000160: 04c7 863e 72fa f4bd 75fe 10bf 1277 b6bd
00000170: e579 ddbd 476d 873d 8dc6 6a3e 6a83 c6be
00000180: a3af 023f 5595 083f 83bc e73c ba28 75be
00000190: 58a8 2f3e f789 81be 56b6 be3c 4b55 223e
000001a0: cea2 9d3d ae6c b03e 9255 9d3e 692c 51bd
000001b0: 2876 b7be 7b86 7fbe 9c78 82bd f526 dbbe
000001c0: e8bb acbe 4cbc 16be 6f71 253e f159 2e3e
000001d0: 05a4 493e aaf4 603d 8d50 993e 12e7 9f3e
000001e0: a4c2 ddbe c539 873d 9ccb 14bd 99a4 7a3b
000001f0: f5ff 703e b4e4 833e 34be 85be 1184 0dbe
00000200: b073 0abe df5b 41be de9e 56bb 3e0c 00bc
00000210: 7240 8ebe 0ecc b7bd 7ba7 103e 7d72 87be
00000220: c309 dfbe 6161 27be 6af8 7abe 0ab9 d5be
00000230: d30c 7bbe b128 0c3f 6bbe 273f a790 553f
00000240: 5e5a d6be 50a4 9f3d 44cb 8e3d f5f4 abbe
00000250: 6130 4fbe ce1a 25be 5f76 ff3d 3858 1d3d
00000260: 40ef 3b3e 54bf 8e3d 57fc 51bd e1b8 4bbf
00000270: 3edf c0bd 72a6 9dbe 7ccd b9be fac6 6e3e
00000280: c3c4 6a3e 4a8b 463f b5bf 393f b6ce 1c3f
00000290: a733 0c3f 242e fb3d aa30 1bbe ff91 c4bd
000002a0: 512c fdbd 0917 e4be f57e e4be 8a54 533e
000002b0: 9f66 c13e f5b0 b13e 675a 17bf da04 f8be
000002c0: 35bb d5be 92e0 86be 5bec 28bd 4e25 1dbe
000002d0: 7f2a bd3e 5325 3c3e ed0e f43d 328d 10be
000002e0: 0266 b1be 7335 b8be 1880 0f3e 2048 a93e
000002f0: fe08 753d 2945 f4be f8cf b8be 657f febe
00000300: 1f73 853d 9bb5 a5bd 54ef 8abd d81a bd3e
00000310: 1fe4 153f 85be 883f 7801 d6be e6a8 29bf
00000320: 5d26 e5be 9a2a 373c 4a7b 6abd 253c b93b
00000330: 440a f83e fd6e c73e 5186 053f d6f9 7dbf
00000340: ce50 1bbf 2b2a 33bf e30f d2be cb62 4ebe
00000350: bba8 a6be fe09 623f 585c 6d3f 7458 0f3f
00000360: ca90 dd3e 3504 1d3f 10d2 123f a0b4 21bf
00000370: c72a 8e3c a80d 78ba 7e54 67bf 9ba1 70be
00000380: d142 debe a66e 83be b663 033d 8d6f e9bd
00000390: db23 b1be 3c73 01be 3a35 f7be 0626 f03e
000003a0: 909a 3d3e 3511 c1bd 984e d0be d0ae d0be
000003b0: 4b78 25bf 419c 05be 2204 41be d213 b8be
000003c0: 0120 ec3e e2b9 f93e 8760 5d3f 437f e13e
000003d0: 3f02 5f3d 357c d2be 5625 db3e 1252 88be
000003e0: e464 60be 5f86 063f de5c 193e ae96 6d3f
000003f0: 2696 383e 56f3 433d ebff e6bb 1d7c e03e

weight f4 [32]
1.2704558 1.6445938 1.2146765 0.94047874 1.1754396 0.7796609 1.3958656 1.259121
1.5900525 1.2807176 0.85009706 0.8103535 1.2204062 0.74346197 1.1706152 1.4431721
0.9054838 1.3690817 0.84014034 1.2850618 1.1803001 1.0270861 1.2922637 1.0577086
0.87381953 0.90974647 0.7642708 0.66916853 1.3590864 0.70411074 0.67704266 1.2538906
00000000: 4c9e a23f 0d82 d23f 857a 9b3f 37c3 703f
00000010: ce74 963f db97 473f b9ab b23f e02a a13f
00000020: d786 cb3f 8eee a33f f69f 593f 5473 4f3f
00000030: 4536 9c3f 8653 3e3f b8d6 953f ddb9 b83f
00000040: c9cd 673f 123e af3f 7013 573f e87c a43f
00000050: 1314 973f 8f77 833f e668 a53f ff62 873f
00000060: a3b2 5f3f 25e5 683f 40a7 433f a14e 2b3f
00000070: 8bf6 ad3f 9a40 343f ab52 2d3f 7d7f a03f

bias f4 [32]
0.009342592 -0.2598651 -0.55180115 -0.36373264 -0.15564126 0.06301013 -0.33089462 -0.5346999
-0.38293597 -0.51289225 -0.46941924 0.0270726 -0.5523425 -0.278233 0.48881605 -0.06545857
-0.16090395 -0.49897772 -0.19508423 0.4295075 -0.115352206 -0.36821377 -0.25853953 0.43211243
-0.20214343 -0.37498862 -0.45578408 -0.27112114 -0.4833593 -0.42319885 -0.7372857 -0.17678659
00000000: ac11 193c 0a0d 85be d742 0dbf 2a3b babe
00000010: 6c60 1fbe 740b 813d 056b a9be 18e2 08bf
00000020: 2f10 c4be e84c 03bf b857 f0be 5bc7 dd3c
00000030: 5166 0dbf 8e74 8ebe 1946 fa3e 250f 86bd
00000040: 01c4 24be 027a ffbe 29c4 47be 68e8 db3e
00000050: c73d ecbd 8486 bcbe 4b5f 84be d73d dd3e
00000060: b0fe 4ebe 82fe bfbe 885c e9be 64d0 8abe
00000070: df7a f7be 85ad d8be c1be 3cbf 8b07 35be

running_mean f4 [32]
0.84980774 -1.5101507 -0.701802 -0.43649748 -0.5376286 0.9699189 -1.6314772 1.0723873
2.9509873 -1.058229 -2.0990016 0.8966556 4.2130413 -0.95037436 -1.0998145 -3.4915686
-2.5887475 -4.558902 0.60704434 -1.0748844 0.2807682 -4.724953 -0.6587167 -1.480885
1.6689644 0.07281147 -1.6151136 0.676865 0.14442447 -4.208175 -0.39781234 -0.47571653
00000000: 008d 593f 9e4c c1bf 4ca9 33bf 997c dfbe
00000010: 07a2 09bf 9b4c 783f 3fd4 d0bf fd43 893f
00000020: fadc 3c40 0c74 87bf 0b56 06c0 398b 653f
00000030: 3cd1 8640 bc4b 73bf b9c6 8cbf dc75 5fc0
00000040: 0aae 25c0 86e2 91c0 4267 1b3f d095 89bf
00000050: d9c0 8f3e d132 97c0 a8a1 28bf a48d bdbf
00000060: a0a0 d53f 2e1e 953d 0bbc cebf 0647 2d3f
00000070: 02e4 133e 5fa9 86c0 0fae cbbe 1e91 f3be

running_var f4 [32]
6.8540077 11.934552 7.933326 16.381693 10.056415 15.057583 6.4973965 8.75665
8.847667 7.887663 8.51711 8.9762 7.7181077 18.42688 17.116617 22.637186
9.228707 20.23506 9.675704 11.744975 7.6362963 12.118038 6.0131116 12.349305
8.736758 12.471518 13.025045 13.567717 9.715865 14.443376 7.6360154 12.526681
00000000: 0854 db40 edf3 3e41 cedd fd40 b50d 8341
00000010: 13e7 2041 dceb 7041 acea cf40 3d1b 0c41
00000020: 0b90 0d41 bc67 fc40 1546 0841 849e 0f41
00000030: bdfa f640 406a 9341 d5ee 8841 f518 b541
00000040: c9a8 1341 67e1 a141 afcf 1a41 6beb 3b41
00000050: 8a5c f440 7ce3 4141 696b c040 c196 4541
00000060: c3c9 0b41 568b 4741 9666 5041 5e15 5941
00000070: 2f74 1b41 1118 6741 3d5a f440 496d 4841

weight f4 [32, 32, 3, 3]
0.8068064 0.2386305 0.6156556 0.25784248 -0.12730482 0.11146365 0.09338187 -0.13744129
0.102230765 -0.724766 -0.37837002 -0.49320504 -0.42454842 -0.14500922 -0.23219648 -0.14328475
-0.08917787 -0.19114721 -0.5750395 -0.3337182 -0.32843494 -0.36212373 -0.23494585 -0.64071923
-0.35015896 -0.21939905 -0.93147415 -0.09005228 -0.06784355 -0.17417435 -0.47237384 -0.5704915
-0.5005272 -0.09941255 -0.1836094 -0.20623437 0.55892396 0.17877662 0.50071687 -0.18535347
-0.31028843 -0.12681478 0.2703591 0.0869926 0.40863928 -0.231715 -0.18483974 -0.04549715
-0.16293277 -0.36552498 -0.17945392 -0.25107077 -0.37774011 -0.111700825 -0.06652847 0.011247711
0.2900938 -0.17650247 -0.23550463 0.19868995 -0.1143116 -0.12708719 0.38820076 0.24546358
0.33655545 0.2999357 -0.041662276 0.06323382 -0.099637486 0.21729632 0.3881656 0.054144666
0.121189356 -0.30804786 0.08140613 0.31078696 -0.1898843 0.053048197 0.45238623 0.0336309
0.27442086 0.20010857 0.043165736 -0.52258116 -0.08705935 -0.116729684 -0.5261358 -0.15287368
-0.13350846 -0.23089986 -0.61686057 -0.03104191 -0.23130634 -0.88958377 -0.3798862 -0.373692
-0.7367337 -0.6594372 -0.5898727 0.029909601 0.15843956 0.07622094 -0.10838018 0.08902318
-0.19423987 -0.5600004 -0.42503494 -1.0002836 0.3461134 0.34943625 0.13281302 0.3716192
0.28511807 0.21533725 0.4988838 0.35525635 0.10830394 -1.4233859 -1.145695 -1.7979525
-0.8942121 -0.45546666 -1.2525138 -1.0467303 -0.63767505 -1.1188319 -0.362368 -0.18650773
-0.17098083 -0.114355855 -0.012028836 -0.044353634 -0.33137164 0.01595411 0.010172446 0.3792548
0.0075120605 -0.21189772 -0.081772625 -0.0019102119 -0.20878258 0.10192523 0.026682967 -0.09056725
0.17043355 0.086010605 -0.1193941 0.23412548 0.019331215 -0.14971803 0.4283716 0.021430716
0.07575086 -0.7874449 -0.55816203 -0.77058613 -0.9439572 -0.5623406 -0.8757515 -1.0444208
-0.6569061 -0.86310506 -0.27537024 -0.3876534 -0.8712723 0.030092927 -0.08709012 -0.3743199
-0.116005555 -0.118914515 -0.23290487 0.00281492 -0.1260597 -0.41584858 -0.1614797 -0.17029662
-0.21520269 -0.06065594 -0.17968205 -0.36591077 0.38857895 0.08976694 0.21584293 0.25446317
-0.11529831 0.07111677 0.4879867 0.10420011 0.38194424 -0.07983825 0.4328471 0.23803115
-0.25901267 0.33239517 0.28197828 -0.12375776 0.33442494 0.45057267 0.27479088 0.27913237
-0.38611034 -0.031417303 -0.033167228 -0.6435243 0.2823019 0.08845582 -0.36531642 0.28583172
0.28220445 0.3807054 -0.31626043 -0.11998853 0.1641682 -0.42428675 -0.16721699 0.009231551
-0.42167565 -0.17673166 0.22404818 -0.5079344 -0.21894465 0.11731924 0.112281896 0.2605745
0.60065246 -0.2978081 -0.27905056 -0.56993 0.01886388 -0.16333903 -0.35439235 -0.053174645
-0.24670088 -0.38908422 -0.04504707 -0.21439332 -0.079196244 0.06829012 -0.13089615 -0.14177676
0.24860257 0.056680616 -0.0254681 -1.4446075 -0.9708398 -1.3481895 -1.6038764 -0.7710946
-1.0740979 -1.4990041 -0.6562027 -1.1427777 0.2852343 0.23838001 0.5644163 0.22575732
00000000: dd8a 4e3f 8e5b 743e 9b9b 1d3f ee03 843e
00000010: 325c 02be 0e47 e43d fe3e bf3d 69bd 0cbe
00000020: 5d5e d13d 448a 39bf b7b9 c1be 5f85 fcbe
00000030: 695e d9be 4c7d 14be eac4 6dbe 3db9 12be
00000040: e3a2 b6bd 18bc 43be ca35 13bf 1ddd aabe
00000050: a028 a8be 4868 b9be a595 70be 2d06 24bf
00000060: 0948 b3be 25aa 60be 1775 6ebf 546d b8bd
00000070: 8ff1 8abd c35a 32be fcda f1be bb0b 12bf
00000080: 8d22 00bf cf98 cbbd 1a04 3cbe 1a2f 53be
00000090: a415 0f3f 3811 373e fb2e 003f 4dcd 3dbe
000000a0: 20de 9ebe bcdb 01be 826c 8a3e 2d29 b23d
000000b0: 2b39 d13e b246 6dbe a146 3dbe 385b 3abd
000000c0: d9d7 26be 1726 bbbe c5c2 37be 598c 80be
000000d0: 2767 c1be 67c3 e4bd 1440 88bd 5248 383c
000000e0: 2d87 943e 10bd 34be 2028 71be 6175 4b3e
000000f0: 331c eabd 2523 02be 40c2 c63e ce5a 7b3e
00000100: ff50 ac3e 2c91 993e 10a6 2abd bc80 813d
00000110: bd0e ccbd ed82 5e3e a4bd c63e ccc6 5d3d
00000120: 2032 f83d 73b8 9dbe 42b8 a63d 781f 9f3e
00000130: 0871 42be 1149 593d 2b9f e73e 8ec0 093d
00000140: e480 8c3e 43e9 4c3e 8ece 303d e1c7 05bf
00000150: 2c4c b2bd f90f efbd d6b0 06bf eb8a 1cbe
00000160: 71b6 08be 0371 6cbe 93ea 1dbf 9b4b febc
00000170: 92db 6cbe c3bb 63bf 7280 c2be 8f54 bfbe
00000180: 949a 3cbf e0d0 28bf e601 17bf fb04 f53c
00000190: fb3d 223e b919 9c3d 6ef6 ddbd c951 b63d
000001a0: d1e6 46be 305c 0fbf 2e9e d9be 4b09 80bf
000001b0: c735 b13e 4fe9 b23e 2300 083e df44 be3e
000001c0: fffa 913e 5e81 5c3e b36d ff3e 29e4 b53e
000001d0: 75ce dd3d 8231 b6bf 22a6 92bf 4f23 e6bf
000001e0: 16eb 64bf ed32 e9be 5f52 a0bf 42fb 85bf
000001f0: ac3e 23bf e235 8fbf 4c88 b9be e2fb 3ebe
00000200: 9915 2fbe 6733 eabd 9814 45bc 28ac 35bd
00000210: 8ba9 a9be 32b2 823c 55aa 263c af2d c23e
00000220: bb27 f63b b7fb 58be 6878 a7bd 1360 faba
00000230: 1acb 55be 2dbe d03d 3d96 da3c 537b b9bd
00000240: 2286 2e3e 5426 b03d e584 f4bd 97be 6f3e
00000250: 7f5c 9e3c af4f 19be 8653 db3e 788f af3c
00000260: 4423 9b3d fd95 49bf b5e3 0ebf 2245 45bf
00000270: 2ea7 71bf 8ef5 0fbf 4031 60bf 95af 85bf
00000280: 002b 28bf 74f4 5cbf 54fd 8cbe 827a c6be
00000290: b40b 5fbf 7185 f63c 4e5c b2bd dca6 bfbe
000002a0: 5294 edbd 7489 f3bd 9d7e 6ebe 857a 383b
000002b0: cb15 01be 1bea d4be ef5a 25be 3d62 2ebe
000002c0: 185e 5cbe 5d72 78bd 92fe 37be a858 bbbe
000002d0: d2f3 c63e bbd7 b73d ee05 5d3e ff48 823e
000002e0: 8521 ecbd aba5 913d 65d9 f93e de66 d53d
000002f0: 328e c33e 3d82 a3bd 239e dd3e 70be 733e
00000300: 4f9d 84be b32f aa3e 755f 903e b574 fdbd
00000310: bf39 ab3e 76b1 e63e 64b1 8c3e 70ea 8e3e
00000320: 41b0 c5be 6eaf 00bd 5cda 07bd 02be 24bf
00000330: e089 903e 5328 b53d c10a bbbe 8958 923e
00000340: 1a7d 903e d1eb c23e e3ec a1be 8cbc f5bd
00000350: b51b 283e 1d3c d9be ee3a 2bbe ee3f 173c
00000360: dfe5 d7be 25f9 34be e36c 653e fd07 02bf
00000370: 0733 60be 1245 f03d 0df4 e53d 056a 853e
00000380: 5cc4 193f 4e7a 98be b7df 8ebe efe6 11bf
00000390: 6c88 9a3c 5942 27be ea72 b5be a8cd 59bd
000003a0: 289f 7cbe 0c36 c7be 4783 38bd ec89 5bbe
000003b0: a431 a2bd b1db 8b3d a409 06be ed2d 11be
000003c0: ac91 7e3e ef29 683d 7aa2 d0bc e6e8 b8bf
000003d0: f588 78bf 7991 acbf d24b cdbf 7566 45bf
000003e0: 0a7c 89bf 5edf bfbf e6fc 27bf 8a46 92bf
000003f0: 3b0a 923e e419 743e 967d 103f ed2c 673e

weight f4 [32]
1.3823936 1.7315396 2.4477122 1.388938 1.5478917 1.7709317 1.5012646 1.8211844
1.9560759 1.3277906 2.3342237 1.9913212 1.3503517 1.6891482 2.1383538 1.1738366
2.4387155 1.5189126 1.3038803 1.9743986 1.3365339 1.7251408 2.1149724 2.0178206
1.1612891 0.9408061 1.8106781 1.7236835 2.2295 1.6445451 1.2171612 1.207108
00000000: 46f2 b03f 17a3 dd3f 51a7 1c40 b8c8 b13f
00000010: 5121 c63f e4ad e23f 7029 c03f 921c e93f
00000020: b260 fa3f 0bf5 a93f ec63 1540 9de3 fe3f
00000030: 53d8 ac3f 0236 d83f cada 0840 4740 963f
00000040: ea13 1c40 ba6b c23f 8de5 a63f 18b9 fc3f
00000050: 8b13 ab3f 6ad1 dc3f b55b 0740 f923 0140
00000060: 1fa5 943f abd8 703f 4dc4 e73f a9a1 dc3f
00000070: 21b0 0e40 7480 d23f f0cb 9b3f 8482 9a3f

bias f4 [32]
-0.59458554 -0.8717864 -0.6212072 -0.22973558 -0.35025415 -0.4675195 -0.48321697 -0.42708156
0.072429106 -0.33419916 -0.80099916 -0.5732159 -0.29283074 0.1789338 -0.7597893 -0.034829725
0.1704485 -0.5036928 -1.3269756 -0.6529153 -0.3656648 0.010278557 -0.2801185 0.13298446
-0.523643 -0.36697096 0.031752203 -0.19970267 -0.56727636 -0.4084739 -0.77333444 -0.19998583
00000000: c236 18bf 652d 5fbf 6f07 1fbf ce3f 6bbe
00000010: 8354 b3be b75e efbe 3768 f7be 6faa dabe
00000020: b655 943d 271c abbe 480e 4dbf 47be 12bf
00000030: e9ed 95be 6c3a 373e 8d81 42bf 9da9 0ebd
00000040: 0d8a 2e3e 03f2 00bf 56da a9bf 7525 27bf
00000050: 6b38 bbbe 6567 283c b16b 8fbe 142d 083e
00000060: 780d 06bf 9ee3 bbbe 990e 023d db7e 4cbe
00000070: 0639 11bf 7e23 d1be 3ff9 45bf 16c9 4cbe

running_mean f4 [32]
-4.8113065 -1.5657276 -1.1487969 -10.730315 1.7489012 -2.7966793 -0.6779887 -5.395042
-7.9547014 -5.0189905 -4.389288 -5.019726 -4.3098207 -5.152778 -0.6860886 -6.301069
-0.024392826 -1.5505913 4.954892 -2.0323431 -2.1453938 -15.045397 -2.255483 0.9300475
0.77051455 12.548999 -2.89303 -6.8015194 -1.9858403 -3.2501988 -0.89824814 -4.2700315
00000000: 39f6 99c0 c369 c8bf c70b 93bf 5faf 2bc1
00000010: ffdb df3f cbfc 32c0 ab90 2dbf 2fa4 acc0
00000020: ea8c fec0 929b a0c0 0c75 8cc0 98a1 a0c0
00000030: 0dea 89c0 8fe3 a4c0 81a3 2fbf 5ba2 c9c0
00000040: 77d3 c7bc c779 c6bf 7a8e 9e40 e911 02c0
00000050: 224e 09c0 f2b9 70c1 d559 10c0 9817 6e3f
00000060: 7140 453f b3c8 4841 6727 39c0 0ca6 d9c0
00000070: 0430 febf 4203 50c0 97f3 65bf 19a4 88c0

running_var f4 [32]
12.567117 10.631126 12.504709 22.619545 21.811174 13.942108 10.417387 18.78223
31.11012 18.702534 12.999905 16.53195 18.844189 19.399763 13.368244 31.576324
18.128204 10.430275 15.536842 9.721621 22.091236 41.99001 16.618744 23.565456
11.877589 32.69992 22.99671 40.93193 12.66969 16.579084 19.24847 21.06348
00000000: e912 4941 1819 2a41 4a13 4841 d4f4 b441
00000010: 497d ae41 e012 5f41 9ead 2641 0242 9641
00000020: 87e1 f841 ca9e 9541 9cff 4f41 6f41 8441
00000030: e6c0 9641 b732 9b41 54e4 5541 509c fc41
00000040: 9006 9141 68e2 2641 e896 7841 c28b 1b41
00000050: daba b041 c5f5 2742 30f3 8441 0e86 bc41
00000060: 9b0a 3e41 b8cc 0242 43f9 b741 4cba 2342
00000070: 0db7 4a41 f7a1 8441 defc 9941 0282 a841

weight f4 [64, 32, 3, 3]
1.1393359 0.8318988 1.0446882 0.8756835 0.49077368 0.67824244 0.9193419 0.56589526
0.6990134 -0.7044628 -0.6622941 -0.9177057 -0.3068863 -0.314741 -0.46316937 -0.694545
-0.8491923 -0.90800303 -0.08359048 0.09621721 -0.23639217 -0.35163715 0.051089037 -0.28666437
-0.73297447 -0.15814555 -0.3722925 -0.33933526 0.029264363 -0.009386512 -0.2410096 0.24700075
0.17013045 -0.58753395 -0.14831749 0.06937956 0.36944264 0.20913714 0.29379866 0.027974281
-0.07882656 0.123290695 0.1516145 -0.019289367 0.10272632 -0.3673116 -0.49628624 -0.47726467
-0.29030466 -0.5321184 -0.5938394 -0.33999237 -0.6054619 -0.68359977 0.66130257 0.38267925
0.43822977 0.46949047 0.20517239 0.29055673 0.26279274 0.031723827 0.17789187 0.6718008
0.64571023 0.73835737 0.44570473 0.4411166 0.6292342 -0.1318948 0.028185878 0.02053801
-0.2827944 -0.43063644 -0.08752864 0.22727229 0.028065091 0.43682718 0.21981159 0.0078045344
0.33306596 0.0027405536 -0.0006830309 -0.08005546 -0.24076375 -0.16556762 -0.1816083 -0.3714596
-0.11672593 -0.2386872 -0.18669468 -0.025743406 -0.13430418 -0.121308394 -0.1748921 -0.15707366
0.21098804 0.14918968 0.2301008 -0.22380732 -0.36194807 -0.31101516 -0.32962468 -0.5030457
-0.37941194 -0.05207661 -0.21731323 -0.07008378 0.31730866 0.24038485 0.22669786 0.11339041
0.09924827 0.06346998 0.22245911 0.1789318 0.3090678 -0.24576584 -0.2856154 -0.31021887
-0.055805106 -0.19778486 -0.07220759 -0.10744964 -0.31273302 -0.24805093 -0.41874364 -0.08626025
-0.42347813 0.035243377 0.1228515 0.03457286 -0.48573914 -0.25355035 -0.43707174 -0.15769786
-0.18054955 -0.32633784 0.17086765 0.1852216 0.05609395 -0.01816934 -0.14939648 -0.18613583
-0.2704913 -0.02470794 0.04371777 -0.16626716 -0.087606445 0.06881273 -0.010921909 0.030782502
0.046691995 0.42647558 0.3118251 0.43486944 0.08472955 0.045470066 0.114100926 0.25325045
0.2162609 0.42377338 0.22929943 -0.000375049 0.23700184 -0.03213757 -0.27084962 0.101109624
0.5309719 0.28285065 0.54437894 0.08790782 0.053834908 0.1174072 -0.08341126 -0.03903637
0.09313579 -0.21113193 -0.17267352 -0.2023176 0.29780203 0.31737244 0.80490386 0.180138
-0.0013359018 0.59898937 0.3503292 0.36578152 0.82416075 0.02139057 -0.01041653 -0.1640197
0.26806334 0.09967168 0.06008567 0.034874804 -0.025847474 -0.12838452 0.6010226 0.39997187
0.31613338 -0.40985098 -0.5662419 -0.592074 0.038279284 -0.10318095 -0.24615851 0.3971764
0.42669928 0.49834564 0.20477618 0.24744922 0.29117286 0.121722355 0.22530572 0.22640733
0.1845389 0.079312466 0.3968581 0.1411015 -0.019294742 0.39111435 0.26701474 0.08619654
0.3301196 -0.078652404 -0.07680453 0.1463509 -0.024192616 -0.076828055 0.12245139 0.12575442
-0.04197545 0.20512028 -0.2099885 -0.032525826 -0.20351829 -0.09684227 0.049020372 -0.10710952
-0.57082444 -0.29174763 -0.26158917 -0.3888192 -0.34949407 -0.4091517 0.030105462 0.009627138
-0.056113075 0.0010792695 -0.014715459 0.07968461 -0.7854713 -0.39936087 -0.5912692 -0.5991162
00000000: c2d5 913f 52f7 543f 58b8 853f cb2c 603f
00000010: b046 fb3e 4ca1 2d3f fe59 6b3f 83de 103f
00000020: 8bf2 323f ad57 34bf 1b8c 29bf c3ee 6abf
00000030: 3320 9dbe bb25 a1be 8924 edbe b3cd 31bf
00000040: ab64 59bf e372 68bf 7c31 abbd 870d c53d
00000050: ca10 72be c909 b4be bd42 513d acc5 92be
00000060: 37a4 3bbf e8f0 21be 1f9d bebe 5abd adbe
00000070: d1bb ef3c e3c9 19bc 38cb 76be c4ed 7c3e
00000080: ad36 2e3e a068 16bf 8ae0 17be df16 8e3d
00000090: 9627 bd3e 0c28 563e c76c 963e 522a e53c
000000a0: d26f a1bd d57f fc3d d540 1b3e bc04 9ebc
000000b0: 2d62 d23d 4410 bcbe 3b19 febe 095c f4be
000000c0: d0a2 94be e938 08bf dc05 18bf 7b13 aebe
000000d0: 8dff 1abf 6500 2fbf 204b 293f 89ee c33e
000000e0: a75f e03e 0e61 f03e b618 523e dac3 943e
000000f0: c58c 863e d8f0 013d 4929 363e 23fb 2b3f
00000100: 444d 253f fd04 3d3f 6933 e43e 09da e13e
00000110: 7e15 213f 6e0f 07be 12e6 e63c 543f a83c
00000120: 6dca 90be 617c dcbe 3742 b3bd 11ba 683e
00000130: c3e8 e53c d0a7 df3e 4a16 613e 2ebd ff3b
00000140: 9f87 aa3e dc9a 333b 6e0d 33ba 1ef4 a3bd
00000150: c68a 76be 8f8a 29be 87f7 39be f42f bebe
00000160: 010e efbd 6b6a 74be e42c 3fbe d6e3 d2bc
00000170: 0987 09be 8970 f8bd ea16 33be ebd7 20be
00000180: 400d 583e 2ec5 183e 8b9f 6b3e bf2d 65be
00000190: 4251 b9be 613d 9fbe 91c4 a8be 9ac7 00bf
000001a0: 4842 c2be 494e 55bd 5c87 5ebe 1688 8fbd
000001b0: 4876 a23e 7227 763e 7c23 683e 3b39 e83d
000001c0: ad42 cb3d 8dfc 813d 52cc 633e e639 373e
000001d0: 223e 9e3e 0aaa 7bbe 2f3c 92be 02d5 9ebe
000001e0: e593 64bd 1d88 4abe 93e1 93bd 8f0e dcbd
000001f0: 8b1e a0be 1001 7ebe 9165 d6be 37a9 b0bd
00000200: 20d2 d8be 5c5b 103d 9199 fb3d 459c 0d3d
00000210: cdb2 f8be 5ad1 81be dec7 dfbe 8c7b 21be
00000220: fbe1 38be c115 a7be eef7 2e3e bbaa 3d3e
00000230: c5c2 653d ded7 94bc 64fb 18be 649a 3ebe
00000240: d67d 8abe 4e68 cabc 6811 333d f041 2abe
00000250: 026b b3bd b0ed 8c3d cef1 32bc 962b fc3c
00000260: 1b40 3f3d 025b da3e 8aa7 9f3e 35a7 de3e
00000270: b086 ad3d d23e 3a3d bfad e93d 0baa 813e
00000280: 7f73 5d3e d3f8 d83e 78cd 6a3e 3aa2 c4b9
00000290: 9cb0 723e afa2 03bd cdac 8abe 9012 cf3d
000002a0: c6ed 073f cdd1 903e 6b5c 0b3f 0409 b43d
000002b0: fe81 5c3d 3073 f03d 86d3 aabd 9ae4 1fbd
000002c0: fabd be3d f832 58be 54d1 30be 582c 4fbe
000002d0: 8279 983e a47e a23e 2e0e 4e3f 1976 383e
000002e0: 6d19 afba 5e57 193f 595e b33e b747 bb3e
000002f0: 33fc 523f 473b af3c 18aa 2abc c8f4 27be
00000300: 993f 893e aa20 cc3d 641c 763d e2d8 0e3d
00000310: 15be d3bc 3b77 03be 9edc 193f 1dc9 cc3e
00000320: 3cdc a13e fdd7 d1be 3bf5 10bf 2992 17bf
00000330: bdca 1c3d 8950 d3bd fa10 7cbe b55a cb3e
00000340: 5478 da3e 2927 ff3e d9b0 513e 5463 7d3e
00000350: 9c14 953e 9249 f93d 8bb6 663e 53d7 673e
00000360: c4f7 3c3e 936e a23d fc30 cb3e e97c 103e
00000370: 0210 9ebc 2440 c83e 28b6 883e d087 b03d
00000380: 7005 a93e 8314 a1bd b24b 9dbd 03dd 153e
00000390: 982f c6bc 0758 9dbd cbc7 fa3d c4c5 003e
000003a0: 73ee 2bbd 0d0b 523e 3a07 57be cd39 05bd
000003b0: 1967 50be 3d55 c6bd 96c9 483d 3c5c dbbd
000003c0: 8d21 12bf f25f 95be 04ef 85be 4f13 c7be
000003d0: e3f0 b2be 557c d1be bb9f f63c 25bb 1d3c
000003e0: d3d6 65bd 4676 8d3a 1c19 71bc af31 a33d
000003f0: a614 49bf 0779 ccbe 6b5d 17bf ae5f 19bf

weight f4 [64]
0.9123675 1.494079 1.3042805 1.3339097 1.3852892 1.1675814 1.8230534 1.2065473
1.5043195 1.0678788 1.2485254 1.0934513 1.2368581 1.4253709 1.2474808 1.3590697
1.4070563 1.0896243 1.3934608 1.3892418 0.85797983 1.4612617 1.4380938 1.1652256
0.81132835 1.3681295 1.2291598 1.3217611 0.984194 1.0518343 1.3887098 1.094779
0.9134492 1.525836 1.3350345 1.3755287 1.2408354 1.0795811 1.4619597 0.8393303
1.4698203 1.1726974 0.9943887 0.9464022 1.3306924 1.2467306 1.1318842 1.1957142
0.94583017 1.3923576 1.3220968 1.4034976 1.339552 1.0193087 1.3356763 1.5376849
1.198263 0.87143624 1.2537675 1.1933587 1.4454088 1.3602605 0.85669535 1.299618
00000000: eb90 693f fb3d bf3f aaf2 a63f 8ebd aa3f
00000010: 2851 b13f 4f73 953f d059 e93f 2470 9a3f
00000020: 8b8d c03f 41b0 883f aecf 9f3f 36f6 8b3f
00000030: 5e51 9e3f 8e72 b63f 73ad 9f3f fff5 ad3f
00000040: 6c1a b43f cf78 8b3f ec5c b23f add2 b13f
00000050: 91a4 5b3f a00a bb3f 7513 b83f 1d26 953f
00000060: 37b3 4f3f de1e af3f 1c55 9d3f 782f a93f
00000070: 23f4 7b3f 82a2 863f 3ec1 b13f b821 8c3f
00000080: cfd7 693f 984e c33f 69e2 aa3f 5311 b03f
00000090: b2d3 9e3f b72f 8a3f 7f21 bb3f 5ade 563f
000000a0: 1223 bc3f f31a 963f 4290 7e3f 6a47 723f
000000b0: 2154 aa3f de94 9f3f 95e1 903f 2a0d 993f
000000c0: ed21 723f c638 b23f 783a a93f cfa5 b33f
000000d0: 7176 ab3f b578 823f 71f7 aa3f dcd2 c43f
000000e0: af60 993f 7216 5f3f 747b a03f fabf 983f
000000f0: 2803 b93f 041d ae3f 6350 5b3f e259 a63f

bias f4 [64]
-0.7209582 -0.75619847 -0.8498649 -0.63802856 -0.6063428 -0.5255688 -0.73593706 -0.78219527
-0.07201509 -0.38872334 -0.7266458 -0.49415052 -0.4161423 -0.44056538 -0.4059543 -0.48937786
-0.6319692 -0.53458405 -0.27082658 -0.3618206 -0.5459632 -0.6887646 -0.8739662 -0.7191594
-0.41411066 -0.91907924 -0.7390628 -0.28059638 -1.0852656 -0.6617824 -0.4772479 -0.2033272
-0.36252102 -0.63112175 -0.3688358 -0.93411314 -0.43096626 -0.25975433 -1.0387031 -0.4560884
-0.62557375 -0.6244057 -0.5182513 -0.47672868 -1.093085 -0.22472976 -1.0308654 -0.5635203
-0.5649477 -0.5811449 -0.33640715 -0.65764064 -0.6416299 -0.43609348 -0.8126167 -1.339983
-0.76566654 -0.50944984 -1.1257278 -0.6147953 -0.04981869 -0.5267758 -0.44423905 -0.547916
00000000: b790 38bf 3996 41bf bf90 59bf d755 23bf
00000010: 4839 1bbf ad8b 06bf 5f66 3cbf f33d 48bf
00000020: a67c 93bd bf06 c7be 7605 3abf 4c01 fdbe
00000030: 9b10 d5be c991 e1be 3ed9 cfbe bc8f fabe
00000040: bcc8 21bf 80da 08bf c8a9 8abe 8d40 b9be
00000050: 3fc4 0bbf e052 30bf 40bc 5fbf d51a 38bf
00000060: 5006 d4be c748 6bbf 3833 3dbf 54aa 8fbe
00000070: fce9 8abf 926a 29bf d659 f4be 0135 50be
00000080: 5b9c b9be 3291 21bf 0cd8 bcbe 0a22 6fbf
00000090: 9ca7 dcbe 85fe 84be 39f4 84bf 6b84 e9be
000000a0: 9a25 20bf 0dd9 1fbf 1eac 04bf c815 f4be
000000b0: 36ea 8bbf 8f1f 66be 66f3 83bf de42 10bf
000000c0: 6aa0 10bf eac5 14bf 8f3d acbe 235b 28bf
000000d0: db41 24bf a547 dfbe a607 50bf 9084 abbf
000000e0: b902 44bf 4e6b 02bf d917 90bf 3a63 1dbf
000000f0: af0e 4cbd c7da 06bf 4d73 e3be 3944 0cbf

running_mean f4 [64]
-8.101416 -19.027096 -6.613963 -6.8578343 -3.089945 -8.4673195 -6.7511263 -2.1790988
-10.797549 -5.258135 -2.8773804 -7.341007 -4.754 -13.152967 -13.273053 -4.2906904
-5.9312615 11.23668 -8.538584 -13.583961 -7.440611 -5.6138635 -4.141736 -1.6940626
-16.992039 -10.980666 -9.065615 -22.985651 2.8126962 -10.31726 -19.584677 -14.586755
-4.4209642 -2.275368 -9.100095 -4.5707197 -11.341046 -0.009485746 -3.0628529 10.490933
-2.6165729 -15.283822 -6.316035 1.3039391 -13.714397 -20.381985 -9.432586 -15.550495
-6.0581274 -7.695696 -17.935074 -8.220187 -3.4411025 10.619881 -10.193547 -8.585596
-6.007372 -6.8812985 -3.1773956 -9.24136 -21.972464 -2.9626706 -19.648409 -5.944055
00000000: 669f 01c1 7e37 98c1 96a5 d3c0 6173 dbc0
00000010: a9c1 45c0 247a 07c1 3a09 d8c0 5b76 0bc0
00000020: c3c2 2cc1 a442 a8c0 0027 38c0 88e9 eac0
00000030: c520 98c0 8e72 52c1 6d5e 54c1 564d 89c0
00000040: e5cc bdc0 71c9 3341 0a9e 08c1 e757 59c1
00000050: 7c19 eec0 c5a4 b3c0 1a89 84c0 0bd7 d8bf
00000060: b2ef 87c1 cfb0 2fc1 c20c 11c1 9de2 b7c1
00000070: 3703 3440 7f13 25c1 6bad 9cc1 5963 69c1
00000080: 8a78 8dc0 a19f 11c0 fd99 11c1 5643 92c0
00000090: ed74 35c1 1a6a 1bbc c805 44c0 ddda 2741
000000a0: ee75 27c0 898a 74c1 f51c cac0 7ae7 a63f
000000b0: 2c6e 5bc1 4e0e a3c1 dfeb 16c1 d4ce 78c1
000000c0: 2edc c1c0 2443 f6c0 087b 8fc1 e385 03c1
000000d0: 063b 5cc0 08eb 2941 c518 23c1 9a5e 09c1
000000e0: 643c c0c0 9933 dcc0 735a 4bc0 9cdc 13c1
000000f0: 9bc7 afc1 659c 3dc0 f12f 9dc1 b335 bec0

running_var f4 [64]
54.47224 121.26891 47.253677 66.444176 110.06292 67.168304 101.35274 41.556572
171.1352 90.468414 89.15487 92.28072 56.508675 125.31091 98.453606 88.582
103.64962 97.88197 115.50621 98.70112 76.8243 43.954887 42.30092 54.27181
79.53008 60.814575 36.19024 136.83759 44.94347 60.632847 115.057 133.96602
62.693615 48.999718 97.75932 47.851322 100.841446 106.86668 39.003925 66.01084
92.64934 111.17194 79.313705 69.77645 59.620132 134.49176 52.35098 105.11081
104.33422 57.84718 126.85656 57.45559 105.15054 68.41768 64.24208 43.571045
48.61513 58.623688 54.619762 54.510338 153.57837 88.537865 69.58661 101.50739
00000000: 93e3 5942 af89 f242 c403 3d42 6be3 8442
00000010: 3720 dc42 2c56 8642 9ab4 ca42 ee39 2642
00000020: 9c22 2b43 d4ef b442 4b4f b242 bb8f b842
00000030: e208 6242 309f fa42 3fe8 c442 fc29 b142
00000040: 9b4c cf42 92c3 c342 2e03 e742 f966 c542
00000050: 0ba6 9942 ced1 2f42 2434 2942 5516 5942
00000060: 670f 9f42 2042 7342 cec2 1042 6cd6 0843
00000070: 1dc6 3342 0988 7242 2f1d e642 4df7 0543
00000080: 43c6 7a42 b6ff 4342 c684 c342 c167 3f42
00000090: d2ae c942 bdbb d542 0504 1c42 8d05 8442
000000a0: 764c b942 0958 de42 9ea0 9e42 8b8d 8b42
000000b0: 047b 6e42 e47d 0643 6767 5142 bc38 d242
000000c0: 1fab d042 8363 6742 8fb6 fd42 86d2 6542
000000d0: 144d d242 dad5 8842 f27b 8042 c048 2e42
000000e0: e575 4242 a87e 6a42 a37a 5a42 960a 5a42
000000f0: 1094 1943 6313 b142 582c 8b42 c903 cb42
